logs/VGG16_XXXS/Cifar10/VGG16_XXXS_bs32_e20_id2.model (torch_old, 257249 bytes, 90 tensors)

features.0.weight f4 [4, 3, 3, 3]
0	0xbf15e907	-0.58558697
1	0xbdee7117	-0.11642664
2	0x3e4d77e3	0.20065264
3	0x3e862faa	0.2620824
4	0xbeb03f67	-0.34423372
5	0x3db7f0ba	0.08981462
6	0x3e8f8060	0.2802763
7	0xbe66cfc2	-0.22540191
8	0x3d95a841	0.073074825
9	0x3ed2362d	0.41056958
10	0xbe91f361	-0.28505996
11	0x3e6b6355	0.22987111
12	0xbe08cc9a	-0.133593
13	0xbee16292	-0.44020516
14	0xbdb8a053	-0.090149544
15	0x3ee0c579	0.4390066
16	0xbee6cd8b	-0.45078692
17	0xbed8868a	-0.42290145
18	0x3ec731ef	0.38905284
19	0x3e209db5	0.1568516
20	0x3ebfc84c	0.37457502
21	0x3e8e6440	0.2781086
22	0x3e1ab075	0.15106376
23	0xbe82a987	-0.25519964
24	0x3d973da8	0.07384807
25	0xbde8fabb	-0.11375948
26	0xbcdb39b9	-0.026760923
27	0xbe0a3236	-0.13495716
28	0x3cef2609	0.029192941
29	0xbf0eea1e	-0.55825984
30	0xbea6cd10	-0.32578325
31	0x3eda94ad	0.42691556
32	0xbd7d690c	-0.06186776
33	0x3ea0caf0	0.3140483
34	0x3e612e8d	0.21990414
35	0x3ea4ebc4	0.32211125
36	0xbdcd5a9b	-0.10027047
37	0x3e3a4d2b	0.181935
38	0xbcae0d1b	-0.021246484
39	0x3e09c8be	0.13455483
40	0x3f23ecbe	0.64033115
41	0xbe6945b5	-0.22780497
42	0x3e3cff44	0.18456751
43	0x3e0178bc	0.12643713
44	0xbf05baeb	-0.5223834
45	0x3e812956	0.2522685
46	0xbd099113	-0.03358562
47	0xbcff7d74	-0.03118775
48	0x3e5924ff	0.21205519
49	0x3e8b60ad	0.27222195
50	0xbed68b51	-0.41903165
51	0xbede45fb	-0.43412766
52	0xbe8fdb91	-0.28097203
53	0xbdafbae4	-0.085805684
54	0x3d33bd77	0.04388186
55	0xbf0c09e3	-0.54702586
56	0x3e89797d	0.268505
57	0xbdd2cbc9	-0.10292775
58	0x3d919743	0.07108929
59	0x3dbdf56e	0.092753276
60	0xbdb1caa6	-0.0868123
61	0x3eeaa4c7	0.4582884
62	0xbd4927a7	-0.04911008
63	0x3e48df24	0.19616371
64	0xbdced946	-0.10100035
65	0xbe03dec1	-0.12877943
66	0xbf093f01	-0.5361176
67	0x3e89d2df	0.26918694
68	0xbecd1b02	-0.40059668
69	0xbc84f126	-0.01622827
70	0x3f0f445c	0.55963683
71	0xbeb78749	-0.35845402
72	0xbcdb67df	-0.026782928
73	0xbe60b086	-0.21942338
74	0x3e076533	0.13222198
75	0x3d88184f	0.066452615
76	0x3e5d9495	0.21638711
77	0xbd20887b	-0.039192658
78	0xbeb126cd	-0.34599915
79	0x3f2fb2ba	0.6863209
80	0x3e2e6c58	0.17033517
81	0x3edd75f3	0.4325405
82	0x3e885388	0.2662623
83	0xbd217682	-0.03941966
84	0xbe1b21e4	-0.15149647
85	0xbea5e590	-0.32401705
86	0x3ed1c689	0.40971783
87	0x3ec848a7	0.3911793
88	0x3d81fd80	0.063471794
89	0x3dd44f38	0.10366672
90	0xbe622ad1	-0.22086646
91	0xbe80b2d3	-0.25136432
92	0xbd002755	-0.03128751
93	0xbf279fa6	-0.6547798
94	0xbedfc405	-0.4370424
95	0x3f115884	0.5677569
96	0xbd017dfc	-0.03161429
97	0xbf3a5e25	-0.72799903
98	0xbd52cf04	-0.051466957
99	0x3e078324	0.1323362
100	0xbe6dc5a1	-0.2321992
101	0x3e8e9334	0.27846682
102	0xbda04436	-0.0782551
103	0xbea525d0	-0.3225541
104	0x3e2d299b	0.16910402
105	0x3dd052fe	0.101720795
106	0x3ec1d9ba	0.37861425
107	0xbcd21861	-0.02564639

features.0.bias f4 [4]
0	0x3d9f13e8	0.07767469
1	0xbe38b0fa	-0.18036261
2	0x3cbdedd7	0.0231847
3	0xbe2869d6	-0.16446623

features.1.weight f4 [4]
0	0x3f4c9673	0.7991707
1	0x3f848a5c	1.0354724
2	0x3f8819af	1.0632838
3	0x3f4624d7	0.77399963

features.1.bias f4 [4]
0	0x3e7c96ec	0.24666947
1	0x3efce4f6	0.49393433
2	0x3f16e26d	0.5893925
3	0x3e5ccfb4	0.21563607

features.1.running_mean f4 [4]
0	0x3e3b65d3	0.18300562
1	0xbe94bd9e	-0.29050916
2	0xbdb5b256	-0.088719055
3	0xba7a928f	-0.0009558582

features.1.running_var f4 [4]
0	0x3fdc7ef1	1.722624
1	0x3fb6435b	1.4239305
2	0x3fa2ba06	1.271302
3	0x3fcfcfe4	1.6235318

features.3.weight f4 [4, 4, 3, 3]
0	0xbec482f7	-0.38381168
1	0xbe66e66b	-0.22548835
2	0xbdd542c7	-0.104131274
3	0xbe5d9569	-0.21639027
4	0xbeafffc7	-0.3437483
5	0xbb7fd86e	-0.0039038914
6	0x3eb655eb	0.35612425
7	0x3ecaa55c	0.39579284
8	0x3e55217e	0.20813558
9	0xbd8ab5a5	-0.06772927
10	0x3e8c687c	0.27423465
11	0x3e00cfce	0.12579271
12	0x3d0ba94c	0.034097
13	0x3e1384d5	0.1440614
14	0xbceaeedf	-0.028678356
15	0xbd9afdf7	-0.07567971
16	0xbd9139ff	-0.0709114
17	0xbf1408ac	-0.5782573
18	0x3e1800ce	0.14844057
19	0x3e8a486b	0.27008376
20	0x3f15e909	0.5855871
21	0xbd404d59	-0.046948764
22	0x3d8a660f	0.067577474
23	0xbe8d023b	-0.27540764
24	0xbdf3eeb0	-0.119107604
25	0xbed81efd	-0.42211142
26	0xbe3fe20e	-0.18738577
27	0xbe48a54b	-0.19594304
28	0x3de59205	0.11209492
29	0x3e4d4320	0.20045137
30	0xbdb44d8f	-0.08803856
31	0x3d3e6da5	0.046491284
32	0xbddfc720	-0.10926652
33	0xbe0c2a42	-0.13687995
34	0xbdcb9e53	-0.09942307
35	0xbe625a34	-0.22104722
36	0x3e20c0d1	0.15698554
37	0x3e8b0ba1	0.2715731
38	0xbe81c324	-0.25344193
39	0xbf06a164	-0.5259001
40	0x3cc5532a	0.024087507
41	0x3ed22066	0.41040343
42	0x3e74064c	0.23830527
43	0x3c3387fb	0.010957713
44	0x3e9cf8f3	0.30658683
45	0xbea8705a	-0.32898217
46	0xbd223183	-0.039598
47	0x3dc71650	0.09721053
48	0x3e3eee39	0.18645562
49	0x3ebcce1c	0.36876
50	0xbeeb5d5e	-0.4596967
51	0x3ed02553	0.40653476
52	0x3ef86ed1	0.48522046
53	0xbe53e624	-0.2069326
54	0xbe824d25	-0.25449482
55	0x3ef88260	0.48536968
56	0xbeac9f71	-0.33715394
57	0x3dcd3b41	0.100210674
58	0x3cc69643	0.024241572
59	0xbf17f045	-0.59351
60	0xbde2d1b3	-0.11075153
61	0x3e366b1f	0.17814301
62	0x3e51b164	0.20477825
63	0xbdf2715f	-0.1183803
64	0xbe86f4b5	-0.26358572
65	0x3e523ef2	0.20531824
66	0xbdff7880	-0.124741554
67	0xbe9e52ae	-0.30922455
68	0x3f13901e	0.5764178
69	0x3d0e2d78	0.03471133
70	0xbf0b3d99	-0.54390866
71	0x3e1101c8	0.14160836
72	0x3d586024	0.05282606
73	0xbf2315e0	-0.63705254
74	0xbe45ddda	-0.19322911
75	0xbdd4cbc8	-0.10390431
76	0xbe9afe07	-0.30271932
77	0xbe6b464a	-0.22976032
78	0x3a79639f	0.0009513441
79	0xbf26567d	-0.6497572
80	0x3eec8d55	0.46201578
81	0x3eb4f3a3	0.3534213
82	0xbe7450c0	-0.23858929
83	0xbdc28287	-0.09497552
84	0xbee7b0f4	-0.45252192
85	0x3de1da02	0.1102791
86	0x3d02ae58	0.03190455
87	0xbf040481	-0.5156937
88	0x3e083170	0.13300109
89	0xbde7b786	-0.11314301
90	0xbe52f29d	-0.20600362
91	0xbebe43c7	-0.37161085
92	0x3e871220	0.26381016
93	0xbf0361eb	-0.51321286
94	0x3e99de9c	0.3005265
95	0x3ea59f74	0.32348216
96	0x3e086737	0.13320623
97	0xbb5d28a8	-0.0033746157
98	0xbc07b839	-0.008283668
99	0xbb897c5d	-0.0041957335
100	0x3dfe1f09	0.12408263
101	0x3ef644fd	0.4809951
102	0xbe0e6eac	-0.13909405
103	0x3e66b551	0.22530104
104	0xbc82fa73	-0.015988564
105	0x3e7c3cf1	0.24632622
106	0xbd485af1	-0.048914853
107	0xbe943ce4	-0.28952706
108	0xbdc8e7e1	-0.098098524
109	0xbea0a3e7	-0.31375048
110	0x3f28410e	0.65724266
111	0xbdea6626	-0.114452645
112	0x3dbde9db	0.0927312
113	0x3da468b8	0.08027786
114	0xbe058f24	-0.13042885
115	0xbe9e1ef8	-0.30883002
116	0x3e9baac5	0.30403724
117	0x3b926ae1	0.0044683074
118	0x3ed2b277	0.41151783
119	0xbea74f06	-0.32677478
120	0xbe63717f	-0.22211264
121	0x3e82aa55	0.25520578
122	0xbe31ea0f	-0.17374443
123	0xbef87a4c	-0.48530805
124	0xbe9feb43	-0.31234178
125	0xbe94e385	-0.29079834
126	0xbd2fcac7	-0.042917993
127	0xbdcc251b	-0.09968015
128	0xbc0713c8	-0.008244462
129	0xbd839fc8	-0.0642696
130	0xbed5b639	-0.41740587
131	0xbf299618	-0.6624465
132	0x3d841fdc	0.06451389
133	0x3ec08748	0.3760321
134	0xbe8d68ab	-0.27618918
135	0x3e4cba7b	0.19993012
136	0x3eef388e	0.46722835
137	0x3f49b74d	0.7879532
138	0x3bcdfe56	0.0062864227
139	0x3db6bd4d	0.08922825
140	0x3ec2f92c	0.38080728
141	0xbe041013	-0.12896757
142	0xbec34c75	-0.3814427
143	0xbe30f624	-0.17281395

features.3.bias f4 [4]
0	0xbc9e6c45	-0.019338736
1	0xbe80d452	-0.25161988
2	0xbe09e173	-0.13464908
3	0xbc54bc3a	-0.01298433

features.4.weight f4 [4]
0	0x3f683594	0.90706754
1	0x3f81e951	1.0149328
2	0x3f7afca3	0.98041743
3	0x3f7415e7	0.9534592

features.4.bias f4 [4]
0	0xbe07658d	-0.13222332
1	0x3f34e539	0.70662266
2	0x3ed96f03	0.42467508
3	0x3f040d23	0.51582545

features.4.running_mean f4 [4]
0	0xbefea039	-0.49731615
1	0xbd784e08	-0.06062129
2	0xbf9324cd	-1.1495606
3	0xbf8bc4d1	-1.0919439

features.4.running_var f4 [4]
0	0x3fa1ef79	1.2651206
1	0x4022a979	2.5415938
2	0x3fece4ce	1.8507326
3	0x400c7668	2.194727

features.7.weight f4 [8, 4, 3, 3]
0	0xbe879455	-0.26480356
1	0xbe1b7a45	-0.15183361
2	0x3c9de747	0.01927532
3	0xbe4a6171	-0.19763733
4	0xbf2c45b2	-0.67293847
5	0x3ed54fcf	0.41662452
6	0xbe6e8980	-0.2329464
7	0xbf0db0ef	-0.55348104
8	0x3d673eb0	0.056456268
9	0x3e676598	0.22597349
10	0xbdf0d928	-0.11760169
11	0x3cdcc34e	0.026948597
12	0x3eb24dff	0.3482513
13	0x3e8fd0ba	0.28088933
14	0xbe06c643	-0.13161568
15	0x3e362877	0.17788874
16	0x3e545829	0.20736755
17	0x3e94ea09	0.29084805
18	0x3cf75739	0.030192958
19	0x3de26536	0.11054461
20	0xbbec025a	-0.0072024288
21	0xbdf072d8	-0.11740655
22	0x3e4a399a	0.19748536
23	0xbe802319	-0.25026777
24	0xbe8f8340	-0.28029823
25	0x3e30e6c7	0.17275535
26	0xbee4656b	-0.44608626
27	0x3e4ed83d	0.20199676
28	0x3e12331f	0.14277314
29	0x3ddbe30b	0.107366644
30	0x3ebf8c68	0.3741181
31	0x3cdd208f	0.026993064
32	0x3e7cdcb7	0.24693571
33	0x3e7f611e	0.24939391
34	0xbbf14a0e	-0.0073635643
35	0x3e593a29	0.21213593
36	0x3e1be358	0.15223444
37	0xbdb7023d	-0.08935974
38	0xbeac0a1f	-0.33601472
39	0x3d59bfc1	0.053161386
40	0xbf1cdb15	-0.6127179
41	0xbe0d8200	-0.13819122
42	0x3e5ac4e0	0.21364164
43	0xbe8b8443	-0.27249345
44	0xbd7d9a3e	-0.061914675
45	0x3e6ad43f	0.22932528
46	0xbed0836c	-0.40725267
47	0xbec3c8a5	-0.38239017
48	0x3e597f35	0.21239932
49	0x3de9199a	0.11381836
50	0xbe9504bd	-0.29105178
51	0xbcb96521	-0.02263123
52	0x3e203972	0.15646914
53	0xbe57bab8	-0.21067321
54	0xbe09d00f	-0.13458274
55	0xbdc1d380	-0.094641685
56	0x3ecb2b80	0.39681625
57	0xbe06fd04	-0.13182455
58	0xbdd43307	-0.10361295
59	0xbdf96806	-0.12178044
60	0x3ceaf70d	0.028682256
61	0xbd803459	-0.062599845
62	0x3d73503f	0.0594027
63	0xbe036338	-0.12830818
64	0x3cc858c8	0.024456397
65	0x3ce4ebe7	0.027944518
66	0xbe845d19	-0.25852278
67	0x3e3fdaf6	0.1873587
68	0x3ee571c7	0.44813368
69	0xbeddea62	-0.43342882
70	0x3da57154	0.08078256
71	0x3e305f68	0.17223895
72	0x3e2e626b	0.17029731
73	0x3e2d532c	0.16926259
74	0xbe62fa76	-0.22165856
75	0xbe37bb12	-0.17942455
76	0xbd30e95f	-0.04319131
77	0x3db7cd01	0.08974648
78	0xbe6afb8f	-0.22947524
79	0xbe7c07dd	-0.24612375
80	0x3dc88a66	0.097920224
81	0xbeaa4b9e	-0.33260816
82	0x3e13b91f	0.14426087
83	0x3e017473	0.12642078
84	0x3e96069c	0.29301918
85	0xbec4dca5	-0.38449588
86	0x3e9fb677	0.31193897
87	0x3e47fd98	0.19530332
88	0x3df4962b	0.11942705
89	0xbdf2a31f	-0.11847519
90	0x3d5a0c17	0.053234186
91	0xbca41cbd	-0.020033235
92	0x3d9eb1b6	0.077487394
93	0xbea6a269	-0.32545784
94	0x3f6f766d	0.9354008
95	0x3d07b674	0.033132985
96	0x3d73d01f	0.05952465
97	0x3d3cf138	0.04612848
98	0xbe760b81	-0.24027826
99	0xbe55ee6d	-0.20891733
100	0x3df1ff44	0.11816266
101	0xbd83e607	-0.064403586
102	0x3e3931ee	0.18085453
103	0xbec980e7	-0.39356157
104	0xbe856435	-0.26053014
105	0xbc6408f9	-0.013918155
106	0x3e0c8844	0.13723856
107	0xbe35cd70	-0.1775415
108	0xbe416381	-0.18885614
109	0xbd8939a0	-0.06700444
110	0x3e6cca0e	0.23123953
111	0x3e88a9c8	0.26692033
112	0x3e3ef0a0	0.18646479
113	0xbeaf0540	-0.34183693
114	0x3eb02b54	0.34408057
115	0x3b0454dc	0.0020192182
116	0x3dbc82ab	0.092046104
117	0xbec1762a	-0.37785465
118	0x3ea81910	0.3283162
119	0x3e39fb4b	0.18162267
120	0x3dffe3eb	0.12494644
121	0xbf014610	-0.5049753
122	0xbed612e0	-0.41811275
123	0xbd8c88bf	-0.0686202
124	0x3db1f092	0.08688463
125	0xbcc97364	-0.024591155
126	0xbe111344	-0.14167506
127	0xbe8b6aff	-0.2723007
128	0xbe97f013	-0.2967535
129	0xbcd07b83	-0.02544952
130	0xbea3b971	-0.31977418
131	0x3e791d1b	0.24327509
132	0x3e923a6a	0.2856019
133	0x3ec02291	0.37526372
134	0x3e0a1899	0.13485946
135	0xbe5601f3	-0.20899181
136	0xbe930cd5	-0.28720728
137	0xbe27d72c	-0.16390675
138	0x3ed17731	0.40911248
139	0x3e79c071	0.24389817
140	0x3ebb3299	0.3656204
141	0x3e122bd5	0.14274533
142	0x3e331b78	0.17490947
143	0x3e8ca75c	0.27471435
144	0x3df6a177	0.12042516
145	0xbe6965b9	-0.2279271
146	0x3e0f6afc	0.14005655
147	0x3e633b6b	0.22190635
148	0x3ebe853c	0.37211025
149	0xbc0ef3c6	-0.008725112
150	0xbc5068c3	-0.01272029
151	0xbe1bb6b8	-0.1520642
152	0x3eefb7c2	0.46819884
153	0xbc830644	-0.015994199
154	0x3dced772	0.10099687
155	0xbcbdc936	-0.023167234
156	0x3ea203f1	0.31643632
157	0x3e180b75	0.1484812
158	0x3e6d7194	0.23187858
159	0x3e1a873f	0.15090655
160	0xbd66d748	-0.056357652
161	0xbe27599a	-0.16342774
162	0xbdbfcb4d	-0.093649484
163	0x3ea6984b	0.32538065
164	0x3bd7cefc	0.0065859538
165	0xbe585283	-0.21125226
166	0xbecdac90	-0.40170717
167	0xbecefe36	-0.40428323
168	0xbbefa24a	-0.0073130475
169	0xbe4a5acb	-0.19761197
170	0xbec4c37a	-0.38430387
171	0x3d9b7da0	0.075923204
172	0x3e0e3621	0.13887836
173	0x3e884f12	0.26622826
174	0x3f011a80	0.5043106
175	0xbdf74990	-0.12074578
176	0xbe64c6c3	-0.22341447
177	0x3dd6f2cf	0.10495531
178	0xbe52a643	-0.20571236
179	0xbede70cc	-0.43445432
180	0x3d1deb4d	0.03855448
181	0x39ca968d	0.00038640611
182	0x3da92365	0.08258704
183	0x3e565689	0.20931448
184	0xbe137999	-0.14401855
185	0x3d9bba14	0.07603851
186	0xbe6d41b5	-0.23169596
187	0xbeb4f26d	-0.35341206
188	0xbe02e45d	-0.12782426
189	0xbecdded8	-0.4020908
190	0xbe6b8d0b	-0.23003022
191	0x3e34ffcf	0.17675708
192	0xbf250bc6	-0.6447109
193	0xbf10650a	-0.56404173
194	0xbec1e5e0	-0.37870693
195	0x3d328401	0.04358292
196	0xbdcea40b	-0.100898825
197	0x3e063066	0.131044
198	0x3e363f1f	0.17797516
199	0xbf02ba9a	-0.5106598
200	0xbe8e1370	-0.27749205
201	0x3eba77a3	0.364194
202	0xbed12a8c	-0.40852773
203	0x3e61b48c	0.2204153
204	0x3e1c805f	0.15283345
205	0x3e22a6d0	0.15883946
206	0xbd94aa56	-0.072590515
207	0xbe94b90d	-0.29047433
208	0xbea78497	-0.32718346
209	0x3e140ba5	0.14457567
210	0xbeddf874	-0.43353617
211	0x3d3a5c0f	0.04549795
212	0x3da9bcfc	0.08287999
213	0x3df24b74	0.11830798
214	0xbd599c62	-0.053127654
215	0xbd82545f	-0.06363749
216	0x3e20b859	0.15695323
217	0x3e8c2a5b	0.27376065
218	0xbd2071ca	-0.039171018
219	0xbed682d4	-0.4189669
220	0xbd9e520e	-0.077304944
221	0x3f3080b0	0.6894636
222	0x3d97e7c4	0.07417253
223	0xbc91776a	-0.017757136
224	0xbe7a9dd2	-0.24474266
225	0xbe2c282b	-0.16812198
226	0xbe82be99	-0.2553604
227	0xbe0f31bb	-0.13983814
228	0xbdfbdcfe	-0.1229801
229	0xbe8e0fb4	-0.27746356
230	0xbe184201	-0.14868928
231	0xbe0e0847	-0.13870345
232	0x3e8516dc	0.25994003
233	0x3eccc598	0.39994502
234	0xbd7468b3	-0.05967016
235	0x3e7ae584	0.24501616
236	0x3e83ee49	0.25767735
237	0xbe693b53	-0.22776537
238	0xbd213c74	-0.039364293
239	0xbd9fde8e	-0.07806121
240	0xbcf8fdc2	-0.030394439
241	0xbe78f088	-0.24310505
242	0xbefa69d2	-0.4890886
243	0x3e487255	0.19574864
244	0x3e20da6d	0.15708323
245	0x3e7fe985	0.24991424
246	0xbe849ba0	-0.25899982
247	0x3ebc9ac9	0.36836842
248	0xbe68705f	-0.22699116
249	0xbe12cae0	-0.14335203
250	0xbe860587	-0.26176092
251	0xbdfd263d	-0.12360809
252	0x3dc52bec	0.09627518
253	0xbd722848	-0.059120446
254	0x3e064e4e	0.13115808
255	0xbe9e7c6e	-0.30954307

features.7.bias f4 [8]
0	0xbde810d0	-0.11331332
1	0x3e3ea859	0.18618907
2	0x3e83a808	0.25714135
3	0xbca2089c	-0.019779496
4	0x3d76fa5d	0.06029736
5	0xbe831530	-0.25602102
6	0xbe2b44ff	-0.16725539
7	0x3e16d91e	0.14731261

features.8.weight f4 [8]
0	0x3f59aefc	0.8503263
1	0x3f8709a1	1.0549814
2	0x3f629a67	0.8851685
3	0x3f4d8320	0.80278206
4	0x3f51aa9a	0.8190094
5	0x3f9f9538	1.2467413
6	0x3f5f56df	0.8724193
7	0x3f886e03	1.0658573

features.8.bias f4 [8]
0	0x3e83760d	0.25676003
1	0x3e267b16	0.16257891
2	0x3f3a71fb	0.7283017
3	0x3f00c22b	0.50296277
4	0x3f248b64	0.64275193
5	0x3cddbdb3	0.027067995
6	0x3f2f9822	0.6859151
7	0x3e118a93	0.14213018

features.8.running_mean f4 [8]
0	0x3fd3a22d	1.6533867
1	0xbf89dcc7	-1.0770501
2	0x3efcc626	0.49369925
3	0x3e81d39b	0.25356755
4	0x3db5f177	0.088839464
5	0xc0789b36	-3.8844733
6	0xbfadc66b	-1.3576177
7	0xbf938bef	-1.1527079

features.8.running_var f4 [8]
0	0x40094afb	2.1452014
1	0x3f91f8bc	1.1404033
2	0x3f6d6594	0.9273312
3	0x3f8177f1	1.0114728
4	0x3fa31141	1.273964
5	0x4043068e	3.047275
6	0x3f8a2919	1.0793792
7	0x4043792b	3.0542705

features.10.weight f4 [8, 8, 3, 3]
0	0xbe0f147d	-0.1397266
1	0xbe85bc2c	-0.26120126
2	0xbe372255	-0.1788419
3	0xbe1e7c5f	-0.15477131
4	0xbd4f5c37	-0.050625052
5	0xbbbd70ea	-0.0057812827
6	0x3d44e89e	0.048073404
7	0x3d23c874	0.03998609
8	0xbb33ba39	-0.002742423
9	0x3d32b60d	0.04363065
10	0x3d1b1ab6	0.03786727
11	0xbddb6c67	-0.107140355
12	0xbe876618	-0.2644508
13	0xbe9a067e	-0.30083078
14	0xbe9451d1	-0.2896867
15	0x3dd53b83	0.104117416
16	0xbcbaf0eb	-0.022819957
17	0x3e0fd71a	0.14046898
18	0xbeab13ef	-0.33413646
19	0xbec9d004	-0.39416516
20	0xbe839a92	-0.25703865
21	0xbeb07562	-0.34464556
22	0xbed68260	-0.41896343
23	0xbe9e49aa	-0.30915576
24	0x3e749223	0.23883872
25	0x3ce8fb35	0.028440097
26	0x3da9244f	0.082588784
27	0x3f0fd442	0.56183255
28	0x3f0625d7	0.5240149
29	0x3ee26c22	0.44223124
30	0x3eba086a	0.36334544
31	0x3f03216d	0.5122288
32	0x3effc176	0.49952286
33	0xbdd34f8a	-0.10317905
34	0x3e41a37b	0.18910019
35	0x3df714de	0.12064527
36	0x3eab2ad9	0.33431128
37	0x3e0eb8d9	0.13937701
38	0x3e5f925a	0.21833172
39	0x3d878b4c	0.06618366
40	0x3e31b739	0.1735505
41	0x3e46d1f0	0.19416022
42	0x3c09d476	0.008412471
43	0x3e240154	0.16016132
44	0x3d123bdd	0.03570162
45	0xbe6bbb02	-0.23020557
46	0xbe80ba20	-0.25142002
47	0xbdf0fc3c	-0.1176686
48	0x3d8ccf22	0.06875445
49	0x3e187d0a	0.14891449
50	0xbdec4f4c	-0.11538562
51	0x3bd86b1e	0.0066045662
52	0xbdc95383	-0.09830382
53	0xbe04de0f	-0.12975334
54	0x3ded838b	0.115973555
55	0x3d2644f1	0.04059309
56	0x3e4b3fcd	0.19848557
57	0x3e322f83	0.17400937
58	0x3d7e4212	0.06207473
59	0x3d867ca3	0.06566741
60	0x3e12f48a	0.14351097
61	0x3cc1ae64	0.023642726
62	0x3dbb507f	0.09146213
63	0x3e2e3749	0.17013277
64	0x3e18caa9	0.14921059
65	0x3c8d8c74	0.017278887
66	0x3bf30aa6	0.007417041
67	0xbe17a951	-0.14810683
68	0xbeba6033	-0.3640152
69	0x3eace305	0.33766952
70	0x3dfe0b58	0.124045074
71	0x3dd8142f	0.10550725
72	0x3ec0589c	0.37567604
73	0xbdc9c06f	-0.09851157
74	0x3e393723	0.18087439
75	0xbd8281c7	-0.06372409
76	0xbde07359	-0.10959501
77	0x3d203094	0.039108828
78	0xbdaccae9	-0.084371395
79	0x3e56f0bf	0.20990275
80	0xbda927e5	-0.082595624
81	0xbdcd5d12	-0.100275174
82	0xbd51c94c	-0.051217362
83	0x3d9ad906	0.07560925
84	0xbec88554	-0.3916422
85	0xbecbef98	-0.39831233
86	0xbedc869f	-0.43071458
87	0xbddb4a60	-0.10707545
88	0xbdd68bf7	-0.10475915
89	0xbecb21d9	-0.3967426
90	0x3dd31448	0.10306603
91	0x3db19c9d	0.0867245
92	0xbcccc805	-0.02499772
93	0x3de2e83b	0.11079451
94	0x3e68aff4	0.22723371
95	0x3ecc5caf	0.39914462
96	0xbe35ebc4	-0.17765719
97	0xbdcea3e7	-0.10089856
98	0x3ee38643	0.4443837
99	0xbddde5f0	-0.10834873
100	0x3c904555	0.017611185
101	0xbe3c29d5	-0.18375333
102	0xbdc1a44e	-0.09455167
103	0x3e4d8a6f	0.2007234
104	0xbc7d5795	-0.015462776
105	0xbe11421e	-0.14185378
106	0xbd8795fd	-0.06620405
107	0xbd9d880b	-0.07691964
108	0xbc9abe1b	-0.018889477
109	0x3e6a7fee	0.22900364
110	0xbda2e991	-0.079547055
111	0x3ddd87cc	0.10816917
112	0x3e6abb4b	0.22923009
113	0x3f3b1d29	0.7309137
114	0xbc30e366	-0.0107964035
115	0x3e42e92b	0.19034259
116	0xbd0232d2	-0.031786747
117	0x3dbcc3f0	0.092170596
118	0xbd907537	-0.07053607
119	0xbd7efc47	-0.06225231
120	0xbc23e100	-0.010002375
121	0xbdb40866	-0.087906644
122	0x3e770592	0.24123219
123	0xbd3335e3	-0.043752562
124	0x3efaa870	0.48956633
125	0x3f2f0f8e	0.6838311
126	0x3eac157e	0.33610147
127	0xbe06eed7	-0.13177048
128	0xbdbe4cef	-0.09292018
129	0xbe20fc25	-0.15721186
130	0x3e60d0cf	0.21954654
131	0xbee45502	-0.44596106
132	0x3d5b72d9	0.053576324
133	0x3dd91baf	0.10600983
134	0x3e961ec1	0.29320338
135	0x3e2d582a	0.16928163
136	0xbd25ba26	-0.040460728
137	0xbeb8ed83	-0.36118707
138	0x3ebbc7c2	0.3667584
139	0x3f1098c3	0.56483096
140	0xbe6afa4f	-0.22947048
141	0x3e178343	0.14796166
142	0x3e5e2ac0	0.21695995
143	0x3d8f074a	0.06983812
144	0x3ea99c7b	0.33127198
145	0x3e13743a	0.14399806
146	0xbd4737ae	-0.048637085
147	0x3e1ac950	0.15115857
148	0x3eba928f	0.3643994
149	0x3d9a9ac7	0.07549053
150	0xbe011d4f	-0.12608837
151	0xbe9aff60	-0.3027296
152	0xbd640c55	-0.055675823
153	0x3d82abe2	0.0638044
154	0x3d4f2ef8	0.050581902
155	0xbce403ef	-0.027833907
156	0x3f236837	0.63830894
157	0x3f266aa5	0.65006477
158	0x3e2b3ab3	0.1672161
159	0xbc0a6b09	-0.008448371
160	0x3dc879ce	0.097888574
161	0x3e9362fb	0.28786454
162	0xbd96c576	-0.073618814
163	0x3d781973	0.060571145
164	0xbcccce2f	-0.02500066
165	0xbe5b0711	-0.21389414
166	0xbedcc62e	-0.4311995
167	0xbdefdc17	-0.11711901
168	0xbbc3ab7b	-0.00597137
169	0x3dd2b9cf	0.102893464
170	0xbdba2e49	-0.090908594
171	0x3e774248	0.24146378
172	0x3e079fd9	0.13244571
173	0xbe436d01	-0.1908455
174	0x3ba93366	0.005163598
175	0x3df8bfc7	0.121459536
176	0x3ec15e3a	0.37767202
177	0xbd85c403	-0.06531527
178	0x3d9fad37	0.0779671
179	0xbe90f92a	-0.28315097
180	0xbd8e89a8	-0.069598496
181	0x3ea8c009	0.3295901
182	0x3df46d19	0.11934871
183	0x3e87349a	0.2640732
184	0xbddbd9f4	-0.10734931
185	0xbc220a74	-0.0098901875
186	0x3d697217	0.05699357
187	0xbc0c5369	-0.008564808
188	0xbe8cdaf6	-0.27510804
189	0xbe7cc55a	-0.24684659
190	0xbe8a1d14	-0.2697531
191	0xbe20def1	-0.15710045
192	0xbe1395df	-0.1441264
193	0xbe1747aa	-0.14773431
194	0xbeb893ee	-0.3605036
195	0x3e0f3956	0.13986716
196	0xbe053ceb	-0.1301152
197	0xbe334179	-0.17505445
198	0x3eaee771	0.3416095
199	0xbce15e95	-0.02751092
200	0xbe4e63fb	-0.20155327
201	0xbe5cc514	-0.21559554
202	0x3ea871b9	0.32899264
203	0x3eeec9ff	0.46638486
204	0x3d21b7ad	0.039481808
205	0xbdc516f7	-0.09623521
206	0x3ca026ae	0.019549694
207	0xbeee2797	-0.4651458
208	0xbecb3e7d	-0.39696112
209	0xbeb9bcee	-0.36276954
210	0xbeab8134	-0.33497012
211	0xbe9304bb	-0.28714547
212	0xbdd69dd4	-0.10479322
213	0xbe288af2	-0.16459253
214	0x3d8ba212	0.06818022
215	0xbe1912e0	-0.14948606
216	0x3e585560	0.21126318
217	0x3d13c7fa	0.036079384
218	0x3c93bc51	0.018034132
219	0xbe9ffbea	-0.31246883
220	0xbea2a0c2	-0.31763273
221	0xbe7b28e6	-0.2452732
222	0xbe067299	-0.13129653
223	0xbe18c15e	-0.14917514
224	0xbdc4af8b	-0.09603795
225	0x3d7d43b4	0.061832145
226	0x3e2555c4	0.16145998
227	0x3d562b61	0.052287463
228	0x3e406610	0.18788934
229	0x3cf33f70	0.029693335
230	0x3e217815	0.15768464
231	0xbd73dc57	-0.059536304
232	0xbe0647f8	-0.13113391
233	0xbe71700b	-0.23577897
234	0x3cc1b7f2	0.023647282
235	0x3e1ca219	0.1529621
236	0x3e924d5e	0.2857465
237	0x3e64cfe2	0.22344926
238	0x3eaf5253	0.34242496
239	0x3e96bb27	0.2943966
240	0x3cf2d4f9	0.029642569
241	0x3d321af7	0.043482747
242	0x3dad4438	0.08460277
243	0x3d83eff4	0.06442252
244	0x3eb66b2d	0.35628644
245	0xbe10d3b4	-0.14143258
246	0x3eb45498	0.3522079
247	0x3e293cf4	0.16527158
248	0xbdadff87	-0.084960036
249	0x3e0bf112	0.1366618
250	0xbb30b48e	-0.0026963088
251	0x3ded8345	0.11597303
252	0x3de8e375	0.11371509
253	0xbc910ee8	-0.017707303
254	0xbeac1e34	-0.33616793
255	0xbea7eac2	-0.32796293

features.10.bias f4 [8]
0	0x3d7121ab	0.05887
1	0x3e034bb0	0.12821841
2	0xbcadbd64	-0.021208473
3	0x3d9ed9b3	0.077563666
4	0x3e45848d	0.19288845
5	0x3e014f67	0.12627946
6	0xbd9ca78a	-0.07649143
7	0xbe429986	-0.19003877

features.11.weight f4 [8]
0	0x3f61172a	0.8792597
1	0x3f478037	0.77930015
2	0x3f8be796	1.093005
3	0x3f85f15f	1.0464286
4	0x3f820fe2	1.0161097
5	0x3f7ecda4	0.9953253
6	0x3f88b310	1.0679646
7	0x3f6a77a9	0.91588837

features.11.bias f4 [8]
0	0x3f20dd8d	0.6283806
1	0x3ebe31ad	0.37147275
2	0x3e8006cf	0.25005195
3	0xbe808982	-0.2510491
4	0x3ecbd0a5	0.3980762
5	0x3f0934b7	0.5359606
6	0x3ec57009	0.3856204
7	0x3e94f700	0.29094696

features.11.running_mean f4 [8]
0	0x3fa7f876	1.3122699
1	0x3ffbefcd	1.9682556
2	0xbde71326	-0.11282949
3	0x40111af0	2.2672691
4	0x3fe64095	1.7988459
5	0xbfc96646	-1.5734336
6	0xc00e4509	-2.2229636
7	0xbfabcde6	-1.342221

features.11.running_var f4 [8]
0	0x40288c90	2.6335793
1	0x4024da67	2.5758302
2	0x4030b9ad	2.7613328
3	0x4034c066	2.824243
4	0x40a0ac1f	5.021011
5	0x3ff7cecb	1.9359983
6	0x40893ae4	4.288439
7	0x40186d1a	2.381659

features.14.weight f4 [16, 8, 3, 3]
0	0x3daee830	0.0854038
1	0x3e28f0a4	0.16498047
2	0x3d79acf4	0.060955957
3	0xbe09b82f	-0.13449167
4	0x3d54e6dc	0.051977977
5	0xbee9887b	-0.4561194
6	0x3e38afe5	0.18035848
7	0x3d5861ff	0.05282783
8	0xbe94e881	-0.29083636
9	0xbd7d574e	-0.06185084
10	0xbc8026c0	-0.015643477
11	0xbd864250	-0.06555617
12	0xbe19d501	-0.15022661
13	0x3e876fca	0.26452476
14	0xbd1c9298	-0.03822574
15	0x3e155f3b	0.14587109
16	0x3eb18851	0.34674314
17	0x3e889670	0.26677275
18	0x3d88a6ba	0.066724256
19	0xbd6fa135	-0.05850335
20	0x3e03ec35	0.12883075
21	0x3e94c137	0.2905366
22	0x3dc34f1c	0.09536573
23	0xbeb81cd7	-0.35959503
24	0x3e61d6bd	0.22054572
25	0x3e104841	0.14090063
26	0x3d8be5ad	0.068309166
27	0xbe4eb9e0	-0.20188093
28	0x3e93655b	0.28788266
29	0xbe1a79b6	-0.15085492
30	0xbed037bf	-0.4066753
31	0xbdf600ea	-0.12011893
32	0x3eb74d69	0.35801247
33	0xbdd9410d	-0.106081106
34	0x3f1979e2	0.59951603
35	0x3ed5dbf2	0.41769367
36	0x3d878e0f	0.066188924
37	0x3bf131eb	0.007360687
38	0x3dab1ed9	0.08355493
39	0xbe044ee0	-0.12920713
40	0xbe348ce4	-0.1763187
41	0x3dddb352	0.10825218
42	0x3b0613eb	0.002045865
43	0xbe803188	-0.2503779
44	0x3db55345	0.08853773
45	0x3bbd9240	0.0057852566
46	0x3e279efc	0.16369241
47	0x3d8bc757	0.068251304
48	0xbe92e6d1	-0.28691724
49	0x3e2830cf	0.16424869
50	0x3d458ab4	0.04822798
51	0xbe9eab01	-0.3098984
52	0xbe0af792	-0.13571003
53	0x3e2431b7	0.1603459
54	0xbda25ed0	-0.0792824
55	0x3d709caa	0.058743156
56	0x3e379041	0.17926122
57	0xbead9a61	-0.33906844
58	0x3e9a8e43	0.30186662
59	0x3e9f1367	0.3106949
60	0xbebb7bc7	-0.36617872
61	0x3d0101de	0.03149592
62	0x3d9a3586	0.0752974
63	0xbea26897	-0.3172042
64	0xbb9ee990	-0.00484962
65	0x3e471a79	0.19443692
66	0xbe2fb8bd	-0.17160316
67	0xbba32ac5	-0.0049794638
68	0xbe64c504	-0.2234078
69	0x3e27121b	0.163155
70	0x3dd1f9e2	0.102527395
71	0xbe0d852d	-0.13820334
72	0xbe36eaaa	-0.17862955
73	0xbd8f211d	-0.06988738
74	0x3dd470c3	0.1037307
75	0xbd2d2ea9	-0.042280827
76	0x3e732711	0.23745371
77	0x3dd76483	0.10517218
78	0x3db5c8a3	0.08876159
79	0x3e7b80c6	0.24560842
80	0x3e36d857	0.17855965
81	0x3c84f835	0.016231636
82	0xbe008536	-0.12550816
83	0xbe815081	-0.25256732
84	0x3e435e58	0.19078958
85	0xbdd476b6	-0.10374205
86	0xbe2263f5	-0.15858443
87	0xbe01561b	-0.12630503
88	0xbe94e9b4	-0.2908455
89	0xbe633ead	-0.22191878
90	0xbea0f43b	-0.31436333
91	0xbe2c7cff	-0.16844557
92	0xbe5d7412	-0.21626309
93	0x3e131908	0.14365017
94	0x3e22a5e8	0.158836
95	0x3d9c7f69	0.07641489
96	0x3dd7f568	0.105448544
97	0x3e0aa4f5	0.13539489
98	0x3e28931c	0.16462368
99	0x3dc809d4	0.097674996
100	0xbd69ab0e	-0.057047896
101	0xbdd89fcc	-0.10577354
102	0x3e30f261	0.1727996
103	0x3e1cad98	0.15300596
104	0xbbefcc93	-0.0073180883
105	0x3df5e9a1	0.12007452
106	0x3e18041d	0.14845319
107	0x3dca8845	0.098892726
108	0xbe805e07	-0.25071737
109	0xbd94322b	-0.07236131
110	0xbe7fccd7	-0.24980484
111	0x3dd96de8	0.10616666
112	0xbe9f51b3	-0.3111702
113	0xbe89293f	-0.2678928
114	0xbd55364b	-0.05205373
115	0xbead50a7	-0.33850595
116	0xbe8c3708	-0.27385736
117	0x3e08d136	0.13361058
118	0x3e56c6d4	0.20974284
119	0xbdace15d	-0.08441422
120	0x3e8f5299	0.27992705
121	0x3e8f7a45	0.28022972
122	0x3db4a794	0.088210255
123	0x3ed1ff49	0.4101508
124	0x3e5e826e	0.21729442
125	0x3e538a66	0.20658264
126	0xbd909107	-0.07058912
127	0x3e5a2bf8	0.21305835
128	0x3e45fc33	0.19334488
129	0xbdd1f308	-0.10251433
130	0x3e242b14	0.16032058
131	0x3db070bb	0.08615252
132	0xbdb3bc0a	-0.087761
133	0xbf18d064	-0.5969298
134	0xbeb06d8f	-0.34458587
135	0x3e5f303c	0.21795744
136	0x3daca73e	0.084303364
137	0x3dd96223	0.10614421
138	0x3d0c1495	0.034199316
139	0xbe70ce43	-0.23516183
140	0xbecf74a9	-0.40518692
141	0x3dfec59d	0.124400355
142	0xbeaf183d	-0.3419818
143	0xbec18ee4	-0.3780433
144	0x3e6133fd	0.21992488
145	0xbda3319d	-0.07968447
146	0x3d8e6aa3	0.06953933
147	0x3e546bff	0.20744322
148	0xbe169243	-0.14704232
149	0x3e4b35b7	0.1984471
150	0x3eb26c8e	0.34848446
151	0xbeee1e24	-0.4650737
152	0xbe455551	-0.19270827
153	0xbe5d38f5	-0.21603759
154	0xbe3b1f31	-0.18273617
155	0x3dff8dfb	0.124782525
156	0xbe5851f2	-0.2112501
157	0xbe9b8cae	-0.30380768
158	0x3e6fd4b8	0.2342099
159	0x3e057650	0.13033414
160	0xbe2acf04	-0.16680533
161	0xbe04c7b8	-0.12966812
162	0x3d607c13	0.054805826
163	0x3e951b7b	0.29122528
164	0xbc8f468d	-0.017489696
165	0x3e8c181f	0.27362153
166	0x3e3b7647	0.18306838
167	0xbd87287b	-0.06599518
168	0xbed4928e	-0.41518062
169	0xbe67ac2a	-0.22624269
170	0xbe799a46	-0.24375257
171	0xbdfb5e3a	-0.12273832
172	0x3d0236e8	0.031790644
173	0x3ddf9e96	0.1091892
174	0xbe0e00a0	-0.13867426
175	0xbe43ffe5	-0.19140585
176	0x3e79a071	0.2437761
177	0xbe407b34	-0.18796998
178	0xbe275d31	-0.16344143
179	0xbecf9003	-0.4053956
180	0xbe1180cb	-0.14209287
181	0x3d6f5d2b	0.05843846
182	0x3e0544e6	0.13014564
183	0x3c5df175	0.013546337
184	0x3ef5c711	0.48003438
185	0x3b9cf0e8	0.0047894605
186	0xbe267774	-0.16256505
187	0x3d93f4f8	0.072244585
188	0x3cf8f367	0.0303895
189	0xbe08d677	-0.13363062
190	0xbe9e3e97	-0.30907127
191	0xbcaa13f9	-0.020761477
192	0xbe06df85	-0.13171203
193	0xbea0d40e	-0.31411785
194	0xbe66dc64	-0.2254501
195	0x3e70d582	0.23518947
196	0xbd9b1678	-0.07572645
197	0xbeac2a34	-0.33625948
198	0x3cda6213	0.026658094
199	0x3e847985	0.25873962
200	0xbe090b37	-0.13383184
201	0x3df26928	0.11836463
202	0x3f18b439	0.5965
203	0xbdc84237	-0.097782545
204	0xbd587433	-0.05284519
205	0x3e8f8e0a	0.28038055
206	0xbe0d2cd5	-0.13786633
207	0xbe0f5295	-0.13996346
208	0x3ea69d39	0.32541826
209	0x3e1502a4	0.14551789
210	0x3dfed5ee	0.124431476
211	0xbccaf7c2	-0.024776343
212	0x3cce042e	0.025148477
213	0xbd2e79e0	-0.042596698
214	0x3b91b137	0.0044461745
215	0x3d189e30	0.037260234
216	0x3d9bc5c9	0.07606084
217	0x3e78ee90	0.24309754
218	0xbe17a6da	-0.14809743
219	0x3d95b342	0.07309581
220	0x3dd293e9	0.10282118
221	0xbe77ab5c	-0.24186462
222	0x3e19abc3	0.15006928
223	0x3cb37894	0.021908082
224	0xbcbc7fdf	-0.023010192
225	0xbd105892	-0.035240717
226	0x3cc2a65a	0.023760963
227	0xbd0d07d0	-0.03443128
228	0xbbc80784	-0.0061044116
229	0xbdc40be9	-0.09572584
230	0x3e605527	0.21907483
231	0xbe9e5b33	-0.30928954
232	0xbe4b3f35	-0.1984833
233	0xbe88196a	-0.2658189
234	0x3ddf48e9	0.109025784
235	0xbbba1ccd	-0.005679703
236	0xbd0cbd50	-0.03436023
237	0x3eb357d7	0.35027954
238	0x3d1b5616	0.037923895
239	0xbe7c0bdb	-0.24613898
240	0x3d8f92d0	0.07010424
241	0xbe9d72bd	-0.307516
242	0x3e02d182	0.12775233
243	0x3dc6b74e	0.09702931
244	0x3d880a8f	0.06642639
245	0xbd64a7e7	-0.055824187
246	0x3ca6cde3	0.020361846
247	0x3efaa659	0.48955038
248	0x3ec80ec3	0.39073762
249	0x3dd5db7b	0.10442253
250	0x3e3d0084	0.18457228
251	0xbd91c643	-0.071178935
252	0x3e9ba71b	0.3040093
253	0x3e526006	0.20544443
254	0x3e19bdb8	0.15013778
255	0x3e9b41f4	0.30323756

features.14.bias f4 [16]
0	0xba6d6bd7	-0.0009056902
1	0xbc42630c	-0.011864435
2	0xbda919c1	-0.08256865
3	0x3d384fcc	0.044997975
4	0x384ad994	4.836319e-05
5	0xbda8c880	-0.08241367
6	0x3c865850	0.016399533
7	0xbd0639ce	-0.03276997
8	0xbd45bfa0	-0.04827845
9	0xbd0592e0	-0.032610774
10	0x3dedb282	0.11606313
11	0xbde29895	-0.11064259
12	0x3c64a279	0.013954752
13	0xbc8bf334	-0.017083742
14	0xbcd0df8a	-0.025497217
15	0xbd15e03f	-0.03659081

features.15.weight f4 [16]
0	0x3f8a0d6a	1.0785344
1	0x3f70019f	0.93752474
2	0x3f97d3af	1.1861476
3	0x3f873da7	1.056569
4	0x3f832364	1.0245175
5	0x3f6b8219	0.9199539
6	0x3f96d545	1.1783835
7	0x3f838f89	1.0278178
8	0x3f85dfb4	1.0458894
9	0x3f6ae2b8	0.91752195
10	0x3f8eb490	1.1148853
11	0x3f811895	1.0085627
12	0x3f79e4c5	0.976147
13	0x3f535965	0.8255828
14	0x3f5cae84	0.8620379
15	0x3f7504a9	0.95710236

features.15.bias f4 [16]
0	0x3ebcc4d7	0.36868927
1	0x3ebd5c87	0.36984655
2	0x3e93389c	0.28754127
3	0x3dcc20be	0.099671826
4	0xbd1fc2d6	-0.03900417
5	0x3e04ad0a	0.12956634
6	0x3e23e018	0.16003454
7	0x3e7721a1	0.24133922
8	0xbd80e367	-0.062933736
9	0x3e9a0033	0.30078277
10	0x3e59b3da	0.21260014
11	0x3e02cba8	0.12773001
12	0x3ec2b229	0.3802655
13	0x3e5aa9ff	0.21353911
14	0x3de63893	0.112412594
15	0x3ed57b02	0.4169541

features.15.running_mean f4 [16]
0	0x3f06e089	0.52686363
1	0xbf0fdd2c	-0.56196856
2	0xbf1119a3	-0.56679744
3	0xbf9aa5fb	-1.2081903
4	0xbf2fc9b8	-0.68667173
5	0xbf464b1c	-0.7745836
6	0xc08acea0	-4.337723
7	0x3f9836f8	1.1891775
8	0x3ec805c1	0.3906689
9	0xc0240044	-2.5625162
10	0xbf3b29b5	-0.73110515
11	0xc041248c	-3.0178556
12	0xc096ac51	-4.7085347
13	0xbe751592	-0.2393401
14	0x3f983d9e	1.1893804
15	0xbfae5fc1	-1.3622972

features.15.running_var f4 [16]
0	0x4041ecc1	3.0300753
1	0x407951eb	3.8956249
2	0x409b0c51	4.8452535
3	0x40adfd2b	5.4371543
4	0x40931a88	4.5969887
5	0x407ff4d6	3.9993186
6	0x40ccc53e	6.3990774
7	0x40107f05	2.2577527
8	0x400a2523	2.1585166
9	0x4092bf51	4.585854
10	0x40320d30	2.782055
11	0x408f0420	4.4692535
12	0x40835f16	4.105357
13	0x409df9fb	4.936765
14	0x40a05464	5.0103016
15	0x4085a88b	4.176824

features.17.weight f4 [16, 16, 3, 3]
0	0xbd02650b	-0.031834643
1	0xbf1a9ad8	-0.6039252
2	0x3e01617c	0.12634844
3	0xbed50883	-0.41608056
4	0xbe5f85ee	-0.21828434
5	0x3e005339	0.12531747
6	0xbdb51828	-0.08842498
7	0xbdef9286	-0.11697869
8	0xbe08762f	-0.13326333
9	0x3e46708f	0.19378875
10	0x3ed1e8a4	0.40997803
11	0x3e50fbef	0.20408605
12	0x3e8623bf	0.26199147
13	0x3e8c870c	0.27446783
14	0xbd2200f4	-0.03955169
15	0xbe2ef91b	-0.17087214
16	0xbda4057c	-0.080088586
17	0xbeb6ff91	-0.35741857
18	0x3de905f1	0.11378086
19	0xbd18861d	-0.037237275
20	0xbf01bf12	-0.50682175
21	0x3e5261be	0.20545098
22	0xbe2a7eca	-0.16649929
23	0x3c5f4030	0.013626143
24	0x3d7b981c	0.06142436
25	0xbdbae113	-0.09124961
26	0x3d525a13	0.051355433
27	0x3e981b44	0.29708302
28	0x3eb49aa0	0.3527422
29	0xbe183b61	-0.14866401
30	0xbd5cd95e	-0.053918235
31	0x3d4b6bc5	0.049663324
32	0xbcfd0657	-0.030886812
33	0xbd7647e5	-0.060127158
34	0xbcd3b258	-0.025841877
35	0xbb8cf29a	-0.0043013813
36	0x3e503194	0.20331413
37	0xbdb40e5a	-0.087918
38	0xbe121867	-0.14267121
39	0x3e13f481	0.1444874
40	0x3f03816d	0.51369363
41	0x3eccdcf5	0.40012327
42	0x3e1f587c	0.15561098
43	0x3e17e016	0.14831576
44	0x3e09e976	0.13467965
45	0xbbe79ad6	-0.0070680184
46	0x3d98af42	0.07455303
47	0xbd8a3336	-0.06748049
48	0xbe0414a6	-0.12898502
49	0x3dba9007	0.09109502
50	0x3d3c3566	0.045949362
51	0x3dc71cc4	0.097222835
52	0xbd7c287c	-0.061562046
53	0x3d43c3d1	0.047794167
54	0xbdd01f3e	-0.10162209
55	0x3d8af0de	0.06784223
56	0xbc39fe64	-0.011352155
57	0xbd0f624c	-0.035005853
58	0xbdc036df	-0.09385466
59	0x3e375c17	0.17906223
60	0xbea492a8	-0.3214314
61	0xbf01677e	-0.5054854
62	0xbeacc0c8	-0.3374083
63	0x3e93e8e4	0.2888862
64	0x3e544e5b	0.20733015
65	0xbd516e43	-0.051130544
66	0x3edc45e7	0.4302208
67	0xbe4e76d0	-0.20162511
68	0x3e1c1fed	0.15246554
69	0x3e224d02	0.15849689
70	0x3dfc13b3	0.12308445
71	0x3eade24c	0.33961713
72	0x3e186448	0.14882004
73	0x3eb2edb5	0.3494698
74	0xbe42c29c	-0.1901955
75	0x3e743600	0.23848724
76	0xbe80da71	-0.25166658
77	0x3e855d11	0.26047567
78	0xbea7ccb4	-0.32773364
79	0x3dd36cf5	0.10323516
80	0x3ea8e73a	0.32988912
81	0x3e010952	0.12601212
82	0xbe464a0f	-0.19364189
83	0x3ce9dc3c	0.028547399
84	0xbe924180	-0.28565598
85	0xbeb78208	-0.35841393
86	0x3e846390	0.2585721
87	0xbe991c2b	-0.29904303
88	0x3e0f9bfc	0.14024347
89	0x3e14e195	0.14539178
90	0x3dd57322	0.104223505
91	0x3e83faaf	0.25777194
92	0x3e27aaf8	0.16373813
93	0x3efe7c96	0.49704427
94	0x3e8fe936	0.28107613
95	0x3e4c99d7	0.1998056
96	0x3d7fd7ee	0.062461786
97	0x3e09febe	0.13476083
98	0x3e69317e	0.22772786
99	0x3e84f10d	0.25965157
100	0x3dac88f8	0.08424562
101	0xbd0712ef	-0.03297704
102	0xbe180c2a	-0.1484839
103	0xbd4c14ab	-0.049824398
104	0xbe21b9ce	-0.15793535
105	0xbcab0883	-0.020878082
106	0x3dbd3a51	0.092396386
107	0xbe43e691	-0.19130923
108	0xbe1a6770	-0.15078521
109	0xbdfeb765	-0.124373235
110	0xbdee527b	-0.11636826
111	0x3d0cde1a	0.0343915
112	0xbc3c8c06	-0.011507994
113	0xbe3c0dcd	-0.1836464
114	0x3e4b9e39	0.19884576
115	0x3e4d2233	0.20032577
116	0xbd13daf6	-0.03609749
117	0x3dd7254a	0.10505159
118	0x3e09d3e3	0.13459735
119	0xbe133c6f	-0.14378522
120	0x3e187a53	0.14890413
121	0x3e0eb2ba	0.13935366
122	0x3d668d73	0.05628724
123	0x3e4fbe75	0.20287497
124	0x3e768d06	0.24077234
125	0x3e249f06	0.16076288
126	0xbddfec54	-0.10933748
127	0xbdb9f0c2	-0.09079124
128	0x3e07a850	0.132478
129	0xbe7c23b1	-0.2462299
130	0x3da4308a	0.080170706
131	0x3edbac76	0.42905015
132	0xbec67c1c	-0.38766563
133	0x3e99e9c7	0.3006117
134	0x3e145e27	0.14489041
135	0xbcc7e473	-0.024400925
136	0xbd8114c0	-0.06302786
137	0x3e03be64	0.12865597
138	0xbededc0e	-0.43527263
139	0xbe102133	-0.14075164
140	0xbd2c622a	-0.042085804
141	0x3e00e597	0.12587582
142	0xbcfacd80	-0.030615568
143	0xbdb19ba2	-0.08672263
144	0xbe2d8cd8	-0.16948259
145	0xbe846e65	-0.25865474
146	0x3c785888	0.015157826
147	0xbedf80a3	-0.4365283
148	0xbe783d35	-0.24242099
149	0x3d010b1e	0.031504743
150	0x3f192602	0.5982362
151	0x3ecad770	0.3961749
152	0x3d4bee86	0.04978802
153	0x3b9c6c0c	0.0047736224
154	0x3e9b903b	0.30383477
155	0x3e662a43	0.22477059
156	0xbe872d0b	-0.26401553
157	0xbe90b387	-0.28261968
158	0xbd9bf78b	-0.076155744
159	0x3cb64445	0.02224935
160	0x3d384a76	0.044992886
161	0xbd6fec06	-0.0585747
162	0xbe2f3f22	-0.17113927
163	0xbebdd927	-0.37079737
164	0x3d83aaee	0.064290866
165	0x3d404edf	0.046950217
166	0xbe9b8c2c	-0.3038038
167	0x3e39c4af	0.18141435
168	0x3d7fd504	0.062459007
169	0x3ddcfb32	0.10790099
170	0x3d4c47be	0.049873106
171	0xbe72f156	-0.23724875
172	0xbe81514c	-0.25257337
173	0xbe643e3e	-0.22289369
174	0xbeb8ef11	-0.36119893
175	0xbe446527	-0.19179212
176	0x3e276b0f	0.16349433
177	0xbddc08a1	-0.10743833
178	0x3e391266	0.18073425
179	0x3f35b4f5	0.70979244
180	0x3e1824ff	0.14857863
181	0x3ccc7074	0.024955966
182	0xbe207a9c	-0.15671772
183	0x3d9d854c	0.0769144
184	0xbcd3404f	-0.0257875
185	0xbe0154ef	-0.12630056
186	0xbe1798e5	-0.14804418
187	0xbe092846	-0.1339427
188	0xbd9b205c	-0.075745314
189	0xbe0f0be0	-0.13969374
190	0xbbe948f6	-0.0071192933
191	0x3d6f1e25	0.058378357
192	0xbd93e63b	-0.07221647
193	0xbea21e05	-0.31663528
194	0xbda09369	-0.07840616
195	0x3dc74cdc	0.09731457
196	0x3dfe9126	0.124300286
197	0xbeaf11e7	-0.34193346
198	0xbd874cc2	-0.06606437
199	0x3e2291f6	0.15875992
200	0xbe53592c	-0.20639485
201	0xbe0a12f9	-0.134838
202	0xbd551c9c	-0.052029237
203	0xbd1829c6	-0.037149213
204	0xbe70392e	-0.23459312
205	0xbcc7e2ba	-0.024400104
206	0xbe52c35e	-0.20582339
207	0x3d763766	0.060111426
208	0xbea92557	-0.330363
209	0xbeaa7a6e	-0.3329653
210	0x3d9573d9	0.07297487
211	0x3ee097e2	0.43865877
212	0x3d345c9c	0.04403363
213	0xbc99480c	-0.018711112
214	0xbec65139	-0.38733843
215	0xbdfd72b5	-0.12375394
216	0xbe023fb6	-0.12719616
217	0xbe202297	-0.15638195
218	0xbe1e1622	-0.1543813
219	0xbd0e06d9	-0.0346745
220	0xbc84b504	-0.016199596
221	0x3d31616d	0.043305803
222	0xbe3d10ca	-0.18463436
223	0xbe24773f	-0.16061114
224	0xbe67ad6b	-0.22624747
225	0xbd7675dd	-0.060170997
226	0xbd286d94	-0.041120127
227	0x3c2d608a	0.010582099
228	0xbe302891	-0.17202975
229	0xbeadf4ce	-0.33975834
230	0x3da3c114	0.07995811
231	0x3deb1712	0.1147901
232	0xbe1f0542	-0.1552935
233	0x3dbbab48	0.09163529
234	0x3d5932da	0.05302701
235	0x3d46d0c8	0.048538953
236	0x3d9c9bf2	0.07646932
237	0xbe165193	-0.14679556
238	0xbe483027	-0.19549619
239	0xbe4348b6	-0.19070706
240	0x3e84bc3a	0.25924855
241	0x3dd5c62b	0.10438188
242	0xbe7bee10	-0.24602532
243	0xbcde54c3	-0.027140027
244	0x3e468551	0.19386794
245	0x3e2be4b2	0.16786459
246	0x3cc52e0b	0.024069807
247	0xbbf0de63	-0.0073507293
248	0xbe03484b	-0.12820546
249	0xbebbbe07	-0.36668417
250	0xbe3e2fbf	-0.18572901
251	0x3d8b14da	0.067910865
252	0xbd102853	-0.035194706
253	0x3e81c21f	0.25343415
254	0x3d304651	0.04303581
255	0xbcf69221	-0.030098977

features.17.bias f4 [16]
0	0x3d81c523	0.06336429
1	0x3cfc8475	0.03082488
2	0xbb32637e	-0.0027219946
3	0xbd1adc54	-0.037807778
4	0x3c4d780b	0.0125408275
5	0x3d7697ed	0.06020348
6	0x3d6ef71f	0.05834114
7	0x3d9aa82c	0.075516075
8	0x3c5088d3	0.012727934
9	0x3d83f044	0.064423114
10	0xba64eef4	-0.00087331166
11	0x3d09e6f7	0.03366753
12	0x3c7f5342	0.015583815
13	0x3d3510d8	0.044205517
14	0xbbbc1f46	-0.005741033
15	0xbc2b3b78	-0.01045119

features.18.weight f4 [16]
0	0x3f72993c	0.9476507
1	0x3f85ca23	1.0452312
2	0x3f89f335	1.0777346
3	0x3f7d5dbd	0.9897116
4	0x3f8d2710	1.1027546
5	0x3f78a6da	0.97129595
6	0x3f84a562	1.0362971
7	0x3f80ea03	1.0071415
8	0x3f68ccb8	0.90937376
9	0x3f82f8ca	1.0232174
10	0x3f79adb7	0.9753069
11	0x3f829dbe	1.0204389
12	0x3f9e4923	1.236607
13	0x3f7f7821	0.9979268
14	0x3f687afa	0.9081265
15	0x3f73f700	0.9529877

features.18.bias f4 [16]
0	0x3deee2f5	0.11664382
1	0xbd05bff7	-0.032653775
2	0xbcddc82f	-0.027072994
3	0x3e649103	0.22320943
4	0x3e7090b8	0.23492706
5	0x3ed01ddb	0.40647778
6	0xbd630fdf	-0.055435058
7	0x3e3b1ca1	0.1827264
8	0x3e72728a	0.23676506
9	0x3e0ba175	0.1363581
10	0xbc8317c5	-0.016002545
11	0x3e097227	0.13422452
12	0x3df65e85	0.12029747
13	0x3e992f48	0.29918885
14	0xbdc208b6	-0.09474318
15	0x3e9c5d9e	0.30540174

features.18.running_mean f4 [16]
0	0x3f7deae2	0.9918653
1	0xc0125e74	-2.287015
2	0x3f991abe	1.1961286
3	0xbf76f97a	-0.9647442
4	0xbf8d8a74	-1.1057878
5	0x3ecc1394	0.39858687
6	0xc02e11f9	-2.719847
7	0x3f8f60e5	1.1201445
8	0xc0026bd2	-2.0378308
9	0x3e21abd5	0.15788205
10	0x3f4efd0b	0.8085486
11	0x3f4b4441	0.7940102
12	0xbfc0b815	-1.5056177
13	0xbfdba844	-1.7160726
14	0x3f14b651	0.5809069
15	0xbe36ab2d	-0.17838736

features.18.running_var f4 [16]
0	0x4099dc32	4.8081293
1	0x4049f642	3.1556554
2	0x408253d0	4.072731
3	0x40a1e295	5.058909
4	0x4097047a	4.7192965
5	0x4092a4e8	4.58263
6	0x40b87228	5.763935
7	0x40c335ff	6.1003413
8	0x40b74376	5.726985
9	0x40bebf4d	5.960852
10	0x409f634a	4.9808702
11	0x40bb494c	5.8526974
12	0x41050d94	8.315815
13	0x409995a8	4.7995186
14	0x40903eef	4.5076823
15	0x40a23668	5.0691414

features.20.weight f4 [16, 16, 3, 3]
0	0xbb927d02	-0.0044704685
1	0xbe51f39d	-0.20503087
2	0xbeba4a9a	-0.3638504
3	0x3dcb27df	0.09919714
4	0xbea298f3	-0.31757316
5	0xbea1aadb	-0.31575665
6	0x3e58391e	0.21115538
7	0xbe53b7b0	-0.2067554
8	0xbe94b51c	-0.29044425
9	0xbe8d86bb	-0.27641854
10	0xbe45d517	-0.19319569
11	0x3cb559f9	0.022137629
12	0xbe5cdad7	-0.21567856
13	0xbdada857	-0.08479374
14	0xbd99d011	-0.07510389
15	0x3da0c728	0.07850486
16	0x3bf5a2be	0.007496207
17	0xbe7751d2	-0.24152306
18	0x3e80c395	0.25149217
19	0xbd906f14	-0.070524365
20	0xbdfa07aa	-0.12208493
21	0x3dc4444e	0.095833406
22	0xbec3eac3	-0.38265046
23	0xbe88f660	-0.2675047
24	0x3ddf6e73	0.109097384
25	0xbe5b83be	-0.21436974
26	0x3ce5aac2	0.028035525
27	0xbda13200	-0.07870865
28	0x3e2535bb	0.16133778
29	0xbe10663c	-0.141015
30	0x3c1307fa	0.00897407
31	0x3d8e694c	0.069536775
32	0xbd6f6309	-0.058444057
33	0x3ebe7b76	0.37203568
34	0x3e41dc98	0.18931806
35	0xbe7020d8	-0.23450029
36	0x3e8723d9	0.26394537
37	0xbdf32413	-0.11872115
38	0xbd5658de	-0.052330844
39	0xbd74ca3a	-0.05976317
40	0xbda1d0d0	-0.07901156
41	0xbecf8c52	-0.40536743
42	0x3c3bc7d3	0.011461216
43	0x3e337060	0.17523336
44	0x3dc658a7	0.09684878
45	0x3e4f6de4	0.20256764
46	0x3eeca57c	0.46220005
47	0xbe42116f	-0.18951963
48	0x3e850052	0.25976807
49	0x3eca71ac	0.3953985
50	0xbdab725d	-0.083714224
51	0xbe6c21f4	-0.23059827
52	0xbd5c9d39	-0.053860877
53	0xbf053363	-0.52031535
54	0x3e406903	0.18790059
55	0xbda25eae	-0.07928215
56	0xbd5c4af5	-0.053782422
57	0xbae9e86f	-0.001784576
58	0xbdb34a58	-0.08754414
59	0xbc0ce69e	-0.008599905
60	0x3d695d2d	0.056973625
61	0x3c7f2b4d	0.015574289
62	0xbdc14157	-0.09436291
63	0xbe7336ea	-0.23751417
64	0xbe365182	-0.1780453
65	0xbcb56922	-0.022144858
66	0xbbc4341b	-0.005987657
67	0xbe10028e	-0.14063475
68	0x3da4af77	0.0804128
69	0x3c427de3	0.011870834
70	0x3dd821af	0.105533
71	0x3d68bdea	0.05682174
72	0x3ed0922a	0.40736514
73	0x3d94cc47	0.07265525
74	0xbd2afa1a	-0.04174242
75	0x3e8803b0	0.26565313
76	0xbe36bf63	-0.17846446
77	0x3c170a52	0.009218769
78	0x3de14076	0.10998623
79	0x3cdc1367	0.02686472
80	0xbcd284a7	-0.02569802
81	0xbdba8e0d	-0.09109125
82	0xbd8bd531	-0.068277724
83	0x3e4a3738	0.19747627
84	0xbe46af45	-0.19402798
85	0x3d8253c7	0.063636355
86	0x3e289cb8	0.16466033
87	0xbdf870c8	-0.12130886
88	0xbdf76586	-0.12079911
89	0xbe375c76	-0.17906365
90	0xbdc703c2	-0.097175136
91	0x3e9b6ae3	0.30354986
92	0xbd31169e	-0.04323446
93	0xbe965b8c	-0.2936672
94	0xbd390d20	-0.045178533
95	0xbe3ada6e	-0.18247387
96	0xbe912f6a	-0.28356487
97	0xbd898361	-0.06714512
98	0xbe88913b	-0.26673302
99	0xbe4c8baa	-0.19975153
100	0x3e94883c	0.2901019
101	0xbde87b0c	-0.11351594
102	0xbe44f725	-0.19234903
103	0x3eb22b50	0.3479867
104	0x3c68cd98	0.014209174
105	0x3d2adc1f	0.04171383
106	0x3ed97be4	0.42477334
107	0x3c627730	0.013822362
108	0x3e098d73	0.13432865
109	0x3ea46cc9	0.32114246
110	0xbe76e309	-0.24110045
111	0x3eb745a4	0.3579532
112	0x3e15a26d	0.14612742
113	0x3dbf16b5	0.09330503
114	0x3ea79669	0.3273194
115	0x3e371677	0.17879663
116	0x3d982da4	0.0743058
117	0x3e802413	0.25027522
118	0x3eeee933	0.46662292
119	0x3e1b44c3	0.1516295
120	0x3dd2451c	0.10267088
121	0x3ed515cf	0.416182
122	0xbd8c392d	-0.06846843
123	0x3e593613	0.21212034
124	0x3edccc34	0.43124545
125	0xbc89ab67	-0.016805364
126	0x3e553fac	0.2082507
127	0xbcd58b99	-0.026067542
128	0x3e32a96b	0.1744744
129	0x3c418a7e	0.011812804
130	0xbc421739	-0.011846357
131	0xbd6e1948	-0.05812958
132	0x3e5bc4c5	0.2146178
133	0xbe156dd6	-0.1459268
134	0x3d34dda5	0.04415669
135	0x3e5cc0ad	0.21557875
136	0xbd84f5c3	-0.06492188
137	0xbe0e419d	-0.13892217
138	0x3c1e5c74	0.009665597
139	0xbc25927e	-0.010105727
140	0xbde304e3	-0.110849164
141	0x3ba690e7	0.0050831917
142	0xbd66264d	-0.05618887
143	0xbc1768a9	-0.0092412615
144	0xbd8e525d	-0.06949303
145	0xbc512ef4	-0.012767542
146	0x3e343d68	0.1760155
147	0xbe78b9d3	-0.24289636
148	0xbe1a002c	-0.15039128
149	0xbe4c5e38	-0.19957817
150	0xbe477055	-0.19476445
151	0xbe982b44	-0.2972051
152	0xbe8ba82a	-0.27276736
153	0x3e909895	0.2824141
154	0x3e487d26	0.1957899
155	0x3e2d4d88	0.16924107
156	0x3e257caf	0.16160844
157	0x3ebd3091	0.36951116
158	0x3f0a4942	0.5401803
159	0xbe7abf96	-0.24487147
160	0xbe62f01b	-0.22161905
161	0xbd982e3d	-0.07430694
162	0xbcacc63d	-0.021090621
163	0x3bb88c33	0.0056319474
164	0xbe8d46dc	-0.27593124
165	0xbeb71a16	-0.3576209
166	0xbe90bc68	-0.28268743
167	0xbe562695	-0.20913155
168	0xbebe5047	-0.37170622
169	0xbe97e960	-0.29670238
170	0x3dc614a8	0.096719086
171	0x3d991901	0.07475472
172	0x3e22130d	0.1582758
173	0x3cc6e964	0.024281211
174	0xbe7cc96d	-0.24686213
175	0x3dd87162	0.10568501
176	0xbddad53a	-0.10685201
177	0x3d99f0c9	0.07516629
178	0x3c23b962	0.009992929
179	0xbcb71cab	-0.022352537
180	0xbe4ea244	-0.20179087
181	0xbde8b7bb	-0.11363169
182	0xbeae2ce9	-0.3401864
183	0xbe043cbf	-0.12913798
184	0xbece2237	-0.4026048
185	0xbe99d73d	-0.30047026
186	0xbed7f9c5	-0.42182747
187	0xbeaa1e61	-0.33226302
188	0xbe9bdb66	-0.30440825
189	0xbd3e5c10	-0.046474516
190	0x3e26166d	0.16219492
191	0xbd9a8daf	-0.07546555
192	0x3e8d176c	0.27556932
193	0xbd288e61	-0.041151408
194	0xbe2f159d	-0.17098089
195	0x3d27c342	0.040957697
196	0xbe676351	-0.2259648
197	0xbe724b7c	-0.23661608
198	0xbd2657f1	-0.04061121
199	0x3d5c0cff	0.05372333
200	0x3cc9f059	0.02465074
201	0x3ce4331b	0.0278564
202	0xbce05813	-0.027385747
203	0x3e66d261	0.2254119
204	0xbe40e78e	-0.18838331
205	0xbdbcc191	-0.09216607
206	0x3ed8a9ef	0.4231715
207	0xbe4b1681	-0.19832803
208	0xbe4121ab	-0.188605
209	0xbdd3eced	-0.103479244
210	0x3e24642e	0.1605384
211	0x3e544058	0.2072767
212	0x3e2c00ef	0.16797231
213	0x3df293a0	0.118445635
214	0x3e6f7996	0.23386225
215	0xbcbbd94d	-0.022930766
216	0x3e8895ed	0.26676884
217	0xbe334d61	-0.17509986
218	0xbd2596bb	-0.04042695
219	0x3e2a19fc	0.16611475
220	0xbd9289d7	-0.07155197
221	0x3d458d43	0.04823042
222	0xbe2a7ecb	-0.1664993
223	0xbe9aa93b	-0.30207238
224	0xbe941728	-0.28923917
225	0x3e39f23c	0.18158811
226	0x3e8f97c0	0.28045464
227	0x3e4847c3	0.19558625
228	0x3d91031b	0.070806704
229	0x3e350926	0.17679271
230	0x3d6483bc	0.055789694
231	0x3cf5b527	0.029993607
232	0xbdd72e15	-0.10506836
233	0x3d6aeb32	0.057353206
234	0x3e20d8c1	0.15707685
235	0xbcc23dfd	-0.023711199
236	0x3e28ffb5	0.16503794
237	0x3e1fee66	0.15618286
238	0xbc0df7a2	-0.008664997
239	0x3c990ba5	0.01868231
240	0xbc0f1f17	-0.00873544
241	0xbe54e8ce	-0.20791933
242	0x3d9e0a7b	0.07716843
243	0xbc018c56	-0.007906994
244	0xbd2f5d9f	-0.042813893
245	0xbe56266f	-0.20913099
246	0xbe740572	-0.23830202
247	0xbc28dae4	-0.010306094
248	0x3d4b7130	0.04966849
249	0x3e2cf3c9	0.16889872
250	0x3e80e34c	0.25173414
251	0x3f2893fb	0.658508
252	0x3d98933e	0.07449959
253	0x3df552a7	0.11978655
254	0x3d5f2707	0.05448058
255	0x3e059e93	0.13048773

features.20.bias f4 [16]
0	0xbd008399	-0.0313755
1	0xbe030539	-0.12794961
2	0x3d2664ed	0.040623594
3	0x3cc43c48	0.023954526
4	0x3d194cc5	0.03742673
5	0xbc23f07f	-0.010006069
6	0xbdb4aef6	-0.08822434
7	0x3d04375b	0.032279354
8	0xbcc6d3ca	-0.02427091
9	0x3d61edaf	0.055158313
10	0xbc8ddcfe	-0.017317291
11	0xbc9d72d1	-0.019219788
12	0xbcbd64c3	-0.023119336
13	0xbcb809e0	-0.022465646
14	0x3d136ca4	0.03599228
15	0xbca88020	-0.020568907

features.21.weight f4 [16]
0	0x3f7ffe46	0.99997365
1	0x3f8d0d6f	1.1019725
2	0x3f84e107	1.0381173
3	0x3f8f2573	1.1183304
4	0x3f823191	1.0171376
5	0x3f6212ba	0.88309824
6	0x3f6df0fd	0.92945844
7	0x3f70b03f	0.9401893
8	0x3f90163f	1.1256789
9	0x3f90994c	1.1296782
10	0x3f75ba0a	0.95987
11	0x3f688560	0.90828514
12	0x3f88332e	1.0640619
13	0x3f8d54fc	1.104156
14	0x3f6d3e69	0.92673355
15	0x3f87cc2a	1.0609181

features.21.bias f4 [16]
0	0x3e204b0c	0.15653628
1	0x3ccf7255	0.025323072
2	0x3e30314a	0.17206302
3	0xbc27f9c0	-0.010252416
4	0x3e7f9dc5	0.24962528
5	0xbddcc8df	-0.107805006
6	0x3e4847dd	0.19558664
7	0x3dab6e88	0.083706915
8	0x3d5b6122	0.05355943
9	0xbec4b323	-0.3841792
10	0xbd9c7560	-0.07639575
11	0x3cd773cf	0.026300339
12	0x3d941ab2	0.07231654
13	0x3de25487	0.110512786
14	0x3de67a34	0.11253777
15	0x3e2cce41	0.16875555

features.21.running_mean f4 [16]
0	0x3ef61c41	0.4806843
1	0xbf94410a	-1.1582348
2	0x3e0da5a1	0.13832714
3	0xbebf16af	-0.37321994
4	0xc01da41a	-2.463141
5	0x3f1ee623	0.6206991
6	0x3f82b8b2	1.0212615
7	0xbfc944a5	-1.5724074
8	0xbfcf1560	-1.6178398
9	0xbfc50470	-1.5391979
10	0xc004727e	-2.069488
11	0xbe989292	-0.29799324
12	0x3ed5954e	0.41715473
13	0x3f79f6f6	0.9764246
14	0x3fd39c77	1.6532124
15	0xc066a578	-3.6038494

features.21.running_var f4 [16]
0	0x40ab7f77	5.3593097
1	0x40b7b89b	5.741285
2	0x40a00597	5.0006824
3	0x40f6d6c3	7.713716
4	0x40b9586c	5.7920437
5	0x4090c0d1	4.523537
6	0x4090e138	4.5274925
7	0x40c0df58	6.0272636
8	0x40a943d1	5.2895284
9	0x40ad70ac	5.420004
10	0x407e627c	3.974761
11	0x409237dc	4.569319
12	0x4099a85e	4.8018026
13	0x40961354	4.6898594
14	0x407a2aaa	3.908854
15	0x40d4fd27	6.6559024
