logs/VGG16_XXXS/Cifar10/VGG16_XXXS_bs32_e20_id1.model (torch_old, 257249 bytes, 90 tensors)

features.0.weight f4 [4, 3, 3, 3]
0.0118464 0.11807665 0.28186852 0.041934274 0.1645975 0.06443519 0.3680414 -0.13597159
-0.4212917 0.024218734 0.082635015 -0.083260015 -0.053944334 -0.48461398 -0.80491555 0.28328773
0.030642353 -0.23207407 0.04759726 -0.2693658 0.25761428 -0.01002391 -0.08911137 0.08343941
0.40636852 -0.04791968 0.06692009 -0.30993438 -0.35862282 -0.45852274 0.100309335 -0.07077441
0.39023283 -0.35503545 -0.11475121 -0.22321592 0.07972987 -0.19338243 0.04883894 -0.2688784
0.24597736 0.25176704 -0.017907668 -0.233469 -0.42963052 -0.24924688 0.32919657 0.3999479
0.37670848 0.73752147 0.1282273 -0.08965273 0.6030475 0.011231782 0.027620839 -0.08740245
0.13239071 0.37482107 0.29396895 0.34439132 -0.48233715 -0.2502372 -0.0048393137 0.5129311
-0.31526518 0.039805938 0.42451146 -0.026672792 -0.446431 -0.25717095 -0.17080186 0.19563845
0.24680294 -0.4317288 0.03797507 0.09802827 -0.016848259 -0.36410233 -0.14366171 0.25965706
0.083403565 0.23219934 0.07993813 -0.075776905 0.017244536 0.446479 -0.023468683 -0.40988374
0.68755907 0.10017051 -0.33871365 -0.3155005 -0.18547335 -0.16706856 -0.11531441 -0.11754442
-0.506593 0.16992801 0.17880666 -0.030931333 0.1727089 0.3733572 -0.36823007 0.4864147
0.001172491 -0.2709522 0.17620662 0.11364432
00000000: 6717 423c 2cd2 f13d 1251 903e 46c3 2b3d
00000010: 3f8c 283e 99f6 833d ec6f bc3e 233c 0bbe
00000020: 8cb3 d7be 5e66 c63c 8c3c a93d 3a84 aabd
00000030: bcf4 5cbd 531f f8be f20e 4ebf 170b 913e
00000040: ac05 fb3c d3a4 6dbe 58f5 423d 50ea 89be
00000050: 05e6 833e 533b 24bc 0680 b6bd 48e2 aa3d
00000060: 890f d03e 6d47 44bd 660d 893d b8af 9ebe
00000070: 699d b7be 7ec3 eabe fb6e cd3d 2df2 90bd
00000080: 99cc c73e 35c7 b5be af02 ebbd b792 64be
00000090: 6a49 a33d 0b06 46be 570b 483d 6eaa 89be
000000a0: 7de1 7b3e 9ce7 803e 1ab3 92bc 7f12 6fbe
000000b0: 88f8 dbbe 933a 7fbe 748c a83e f9c5 cc3e
000000c0: efdf c03e 35ce 3c3f 044e 033e da9b b7bd
000000d0: 5261 1a3f 8205 383c 1945 e23c 0e00 b3bd
000000e0: 6e91 073e 8ce8 bf3e 1983 963e 0f54 b03e
000000f0: e5f4 f6be 171f 80be 1b93 9ebb 744f 033f
00000100: 706a a1be 8d0b 233d 9159 d93e e680 dabc
00000110: 9b92 e4be e9ab 83be afe6 2ebe 7255 483e
00000120: e9b9 7c3e 8f0b ddbe bf8b 1b3d 0cc3 c83d
00000130: 5c05 8abc 9f6b babe 0e1c 13be c5f1 843e
00000140: 7dcf aa3d aac5 6d3e 9ab6 a33d ec30 9bbd
00000150: 6a44 8d3c e598 e43e 6541 c0bc 48dc d1be
00000160: df03 303f 3226 cd3d e06b adbe 4889 a1be
00000170: baec 3dbe 0514 2bbe f629 ecbd 21bb f0bd
00000180: 14b0 01bf 9c01 2e3e 1819 373e b563 fdbc
00000190: 9ada 303e ad28 bf3e a788 bcbe 590b f93e
000001a0: 45ae 993a 3fba 8abe 826f 343e 5abe e83d

features.0.bias f4 [4]
0.12543738 0.026547683 0.1998534 -0.023969304
00000000: a872 003e 877a d93c 5fa6 4c3e 465b c4bc

features.1.weight f4 [4]
0.9826931 0.8090717 0.867206 1.1576297
00000000: c691 7b3f 531f 4f3f 3601 5e3f 362d 943f

features.1.bias f4 [4]
0.3026232 0.18257137 0.69268584 0.39823472
00000000: 6ef1 9a3e fdf3 3a3e dc53 313f 6ce5 cb3e

features.1.running_mean f4 [4]
0.26460972 -0.022962531 0.1729506 -0.13593541
00000000: ed7a 873e eb1b bcbc f619 313e a732 0bbe

features.1.running_var f4 [4]
1.4990867 3.1472316 0.80361974 1.9895724
00000000: 13e2 bf3f 3e6c 4940 06ba 4d3f 4faa fe3f

features.3.weight f4 [4, 4, 3, 3]
0.11990423 -0.26904145 -0.10758297 -0.40948892 -0.5134363 -0.1660808 -0.03205483 0.43009588
0.0050188997 -0.58214897 0.24936241 -0.53712153 0.15504242 0.56338245 0.5829106 0.39668283
0.030974839 -0.44037902 -0.1692891 -0.5860953 -0.05458354 -0.08665198 -0.18099917 0.027857421
0.38586923 0.11631106 0.24069604 0.046012588 -0.064828694 -0.44086775 0.41961136 0.08597497
-0.0020557507 -0.2084904 0.210392 0.4277273 0.5357909 -0.80350614 0.07431614 0.0012898945
-0.39707687 -0.14673783 -0.10375642 -0.31224895 0.06124983 -0.23962748 0.08794956 0.047213797
-0.29790533 -0.31632626 0.20676275 -0.45258728 0.117329344 0.09271906 -0.21046783 0.51931876
-0.21372133 0.5582604 0.2074247 -0.54126525 -0.14931947 -0.45110542 -0.20838311 -0.21489492
-0.12156161 0.27217185 -0.37860933 0.20161712 0.38033685 0.11429122 0.28282735 0.022387266
0.08040336 -0.047429305 -0.3135103 0.08496774 -0.07070019 0.0022693556 -0.19957621 0.31825855
-0.11161963 0.0074208886 0.020303125 -0.0849872 0.20067461 -0.10309067 -0.07205364 0.30344775
-0.10744351 -0.23698871 -0.2713764 0.2686436 0.053112805 0.09830546 -0.7732228 0.35603583
0.6003008 -0.116994545 -0.41360533 -0.4035865 0.24250641 0.23191091 0.04616146 -0.61257386
0.02097156 0.42935213 -0.0035592115 -0.018901045 0.44056758 -0.24374446 0.24574281 0.628387
0.15438497 -0.2969624 0.31521085 0.04961222 0.10935235 0.17793585 0.22719929 -0.060130585
-0.08517953 0.22871558 0.17265856 -0.31364432 -0.28624055 -0.29180998 0.6638592 -0.322886
0.18085617 0.034535166 -0.082323916 -0.14412342 0.020943662 -0.26680115 0.19149953 -0.13974078
0.24478105 0.05288849 -0.4069132 0.16311522 -0.1719409 -0.36547723 0.33358988 -0.42769262
00000000: 5990 f53d cdbf 89be 7654 dcbd 88a8 d1be
00000010: 9070 03bf 1611 2abe ed4b 03bd 8735 dc3e
00000020: 9575 a43b b707 15bf dc58 7f3e cc80 09bf
00000030: 71c3 1e3e d539 103f a139 153f 031a cb3e
00000040: f2be fd3c 5c79 e1be 1f5a 2dbe 570a 16bf
00000050: fd92 5fbd 9876 b1bd d957 39be 3f35 e43c
00000060: a790 c53e 7e34 ee3d 0679 763e b277 3c3d
00000070: e8c4 84bd 6bb9 e1be 4dd7 d63e a513 b03d
00000080: c6b9 06bb 827e 55be 0071 573e 13ff da3e
00000090: 9829 093f 94b2 4dbf 0f33 983d ad11 a93a
000000a0: a94d cbbe 7142 16be 3f7e d4bd 18df 9fbe
000000b0: 1ae1 7a3d e860 75be e61e b43d 4163 413d
000000c0: 0c87 98be 84f5 a1be 9db9 533e 85b9 e7be
000000d0: 5e4a f03d 7ee3 bd3d e184 57be 13f2 043f
000000e0: c4d9 5abe 27ea 0e3f 2467 543e 5c90 0abf
000000f0: 34e7 18be 4af7 e6be 6262 55be 6a0d 5cbe
00000100: 4bf5 f8bd 1c5a 8b3e 15d9 c1be b874 4e3e
00000110: 83bb c23e 8411 ea3d bfce 903e 8065 b73c
00000120: 84aa a43d 3b45 42bd 6c84 a0be 9103 ae3d
00000130: 43cb 90bd 78b9 143b b55d 4cbe c9f2 a23e
00000140: d598 e4bd ed2a f33b bd52 a63c c50d aebd
00000150: a57d 4d3e 3421 d3bd dc90 93bd 815d 9b3e
00000160: 580b dcbd 2bad 72be d9f1 8abe a78b 893e
00000170: d08c 593d 5f54 c93d eef1 45bf 544a b63e
00000180: 50ad 193f d69a efbd 14c4 d3be e4a2 cebe
00000190: 9a53 783e 0e7a 6d3e cd13 3d3d a4d1 1cbf
000001a0: 8dcc ab3c 0bd4 db3e a941 69bb 5dd6 9abc
000001b0: 1392 e13e 2698 79be 01a4 7b3e f8dd 203f
000001c0: 1817 1e3e 750b 98be 5163 a13e 2f36 4b3d
000001d0: 20f4 df3d d134 363e eea6 683e 7d4b 76bd
000001e0: 9b72 aebd 6b34 6a3e 68cd 303e fd95 a0be
000001f0: 1f8e 92be 1e68 95be adf2 293f 5051 a5be
00000200: 5c32 393e bf74 0d3d 7199 a8bd 1795 13be
00000210: 0b92 ab3c 299a 88be 7418 443e 3518 0fbe
00000220: e2a7 7a3e 9aa1 583d ed56 d0be ad07 273e
00000230: 4611 30be d51f bbbe 4bcc aa3e 87fa dabe

features.3.bias f4 [4]
0.04068378 -0.19687968 0.044029064 0.20418811
00000000: 09a4 263d d49a 49be d257 343d b016 513e

features.4.weight f4 [4]
1.0551081 1.0579046 0.6402943 0.9293843
00000000: c80d 873f 6b69 873f 54ea 233f 21ec 6d3f

features.4.bias f4 [4]
0.5833005 0.79948276 -0.04593612 0.7740124
00000000: 2e53 153f e7aa 4c3f 8327 3cbd ad25 463f

features.4.running_mean f4 [4]
-0.2363023 -1.057426 -0.30781803 0.6034318
00000000: 3bf9 71be bc59 87bf 539a 9dbe 827a 1a3f

features.4.running_var f4 [4]
1.8474832 2.8073978 0.66142327 2.44812
00000000: 547a ec3f 68ac 3340 0953 293f 00ae 1c40

features.7.weight f4 [8, 4, 3, 3]
-0.107846856 0.010391809 -0.18579212 0.04757197 0.23696947 -0.16656347 0.059271958 0.35294387
-0.044105813 0.037816018 -0.14730792 -0.015538481 -0.086097546 -0.36912957 -0.6090227 0.06829357
-0.007913352 -0.3475228 -0.10329578 0.35396245 0.07395695 -0.20718782 -0.3337588 0.32035404
0.06846799 0.048800297 0.14727221 -0.048806455 0.39353427 0.34396845 -0.0881096 -0.57066077
-0.32570776 -0.13510321 0.20297712 -0.6097351 0.23003626 -0.46821246 -0.054049905 0.101227656
0.11393224 0.03731793 -0.12662366 -0.17731233 -0.13787727 0.058899857 0.41164854 0.028579563
0.086020716 -0.048153047 0.083653145 -0.057793636 0.18720306 0.15933706 -0.18157616 -0.3073275
-0.11884839 -0.16482131 -0.49623376 -0.32659483 0.0026186295 -0.108113416 -0.2657409 0.26430798
-0.21684487 0.03525604 -0.09180725 -0.5112653 -0.71591634 0.11151802 -0.06486155 0.258463
-0.2725892 0.006391538 0.20659894 -0.059972282 -0.4276379 0.43123823 0.0560417 -0.5420397
0.35934037 0.037394956 0.08529228 0.07682963 -0.1323915 0.16407341 -0.0030720332 -0.049277034
-0.03464647 -0.13995734 -0.033918325 -0.26515868 -0.12847888 -0.06550681 0.21730226 -0.079749346
-0.17814769 -0.015577978 0.271513 0.04058756 0.06449346 -0.4804741 0.20197818 0.51628035
-0.32472497 0.017500674 0.051488522 0.27943727 0.07023264 -0.14892249 0.1835566 -0.24739212
0.6272303 -0.0881964 0.20795996 0.085109994 -0.34723243 -0.25666693 0.32410955 -0.015949108
0.4359472 -0.6199728 -0.16075304 -0.14192875 -0.28862706 0.25561696 -0.16581322 -0.21384713
-0.13469708 -0.22915228 -0.4088054 -0.21803518 -0.19622271 -0.25666222 -0.19518045 0.017717134
-0.03299647 -0.07668749 0.008059396 -0.24901818 0.069593094 0.13851938 -0.16098867 0.23119469
0.13558091 0.15578666 -0.09559535 0.051994685 0.2802514 0.1423231 -0.45634133 -0.3199167
0.16941702 0.23185676 0.12606484 -0.05271986 0.06456091 -0.25920877 -0.21093678 -0.07138599
0.051882345 -0.037897658 -0.0006804141 0.22555244 0.026666682 -0.13687837 0.08443259 0.28600937
0.14011589 -0.031804036 -0.25477827 -0.42920974 -0.055441782 0.09312029 0.045611046 0.1034693
-0.33187997 0.2898045 0.52918315 0.058303013 0.34069037 0.39157155 0.5153017 0.28179863
0.2809833 0.22564985 -0.22529253 -0.24813192 0.080976635 -0.14733407 0.22191145 -0.13781026
0.07073929 0.015533464 0.072721474 -0.24387677 0.35880637 -0.061427727 -0.08555123 0.01799411
0.0050553707 -0.06259597 -0.06416409 -0.27047026 -0.28497738 -0.3173934 -0.24834111 0.07287145
0.13105063 0.29011932 -0.22188394 0.08521888 -0.008986498 0.25780758 0.46240187 0.15520662
-0.08678035 -0.036055095 -0.044105574 -0.0953313 0.20121053 -0.33189777 0.10258585 0.19581531
-0.2664967 -0.06474743 0.0647304 0.06109739 -0.2539959 1.4263585 -0.007242152 -0.019617446
0.10159727 0.039880693 0.054718383 -0.19426148 0.20733099 -0.2713195 -0.078547865 -0.055473965
-0.09461632 0.11932233 0.1584013 0.12165912 0.077602305 -0.120007366 0.009427675 -0.006306817
0.094240755 0.2474829 0.024395155 -0.008336578 0.08532118 0.17095295 0.22475265 0.2839372
00000000: d0de dcbd 6842 2a3c 4a40 3ebe d3da 423d
00000010: 20a8 723e 9d8f 2abe 27c7 723d 0fb5 b43e
00000020: 4ca8 34bd f8e4 1a3d e3d7 16be 1d95 7ebc
00000030: e953 b0bd 8dfe bcbe e9e8 1bbf 80dd 8b3d
00000040: 01a7 01bc 82ee b1be bd8c d3bd 913a b53e
00000050: be76 973d 0b29 54be 6fe2 aabe 7205 a43e
00000060: f238 8c3d d2e2 473d 87ce 163e 47e9 47bd
00000070: 537d c93e a21c b03e ce72 b4bd d316 12bf
00000080: 2bc3 a6be 7f58 0abe 3cd9 4f3e 9917 1cbf
00000090: a08e 6b3e 8bb9 efbe 6f63 5dbd 7250 cf3d
000000a0: 4e55 e93d b0da 183d a2a9 01be 5d91 35be
000000b0: b32f 0dbe fa40 713d 99c3 d23e b01f ea3c
000000c0: a12b b03d 213c 45bd 5752 ab3d 05b9 6cbd
000000d0: 29b2 3f3e 4129 233e 1aef 39be 085a 9dbe
000000e0: c966 f3bd ebc6 28be 5a12 febe 7037 a7be
000000f0: 509d 2b3b 916a ddbd 310f 88be 6053 873e
00000100: 950c 5ebe a368 103d 7105 bcbd 48e2 02bf
00000110: 4b46 37bf 8f63 e43d 22d6 84bd 4355 843e
00000120: d090 8bbe 1b70 d13b ac8e 533e 7fa5 75bd
00000130: 5bf3 dabe 42cb dc3e fb8b 653d 1dc3 0abf
00000140: 76fb b73e 742b 193d b8ad ae3d da58 9d3d
00000150: a391 07be dc02 283e 2a54 49bb b7d6 49bd
00000160: 75e9 0dbd fa50 0fbe f1ed 0abd e1c2 87be
00000170: f88f 03be 6f28 86bd 7c84 5e3e a053 a3bd
00000180: 596c 36be c73a 7fbc c003 8b3e 243f 263d
00000190: 2615 843d b400 f6be 5ed3 4e3e f32a 043f
000001a0: 5a42 a6be 935d 8f3c a1e5 523d 6712 8f3e
000001b0: 21d6 8f3d 237f 18be 43f6 3b3e 5c54 7dbe
000001c0: 2a92 203f 50a0 b4bd 75f3 543e 264e ae3d
000001d0: 73c8 b1be d969 83be b0f1 a53e b4a7 82bc
000001e0: 7934 df3e 8ab6 1ebf 729c 24be c555 11be
000001f0: edc6 93be 3ae0 823e f1ca 29be befa 5abe
00000200: 08ee 09be e5a6 6abe f14e d1be 9d44 5fbe
00000210: 9bee 48be 3b69 83be 62dd 47be 8623 913c
00000220: 4e27 07bd 550e 9dbd 8f0b 043c 9ffe 7ebe
00000230: d386 8e3d 06d8 0d3e 37da 24be 4dbe 6c3e
00000240: b9d5 0a3e 8a86 1f3e 7fc7 c3bd 61f8 543d
00000250: 1d7d 8f3e 26bd 113e 92a5 e9be 1fcc a3be
00000260: a87b 2d3e dc6b 6d3e 2417 013e c8f0 57bd
00000270: 8338 843d 03b7 84be d0ff 57be d132 92bd
00000280: 9582 543d 933a 1bbd d15d 32ba 38f7 663e
00000290: 1674 da3c d829 0cbe feea ac3d d26f 923e
000002a0: 8a7a 0f3e f344 02bd 4c72 82be 61c1 dbbe
000002b0: ec16 63bd dab5 be3d a6d2 3a3d b6e7 d33d
000002c0: 2cec a9be 4161 943e 8c78 073f 24cf 6e3d
000002d0: f86e ae3e 117c c83e d0ea 033f e947 903e
000002e0: 0bdd 8f3e c110 673e 16b3 66be 4b16 7ebe
000002f0: 14d7 a53d bede 16be c13c 633e 221e 0dbe
00000300: c3df 903d 1280 7e3c ffee 943d d5ba 79be
00000310: 78b5 b73e a49b 7bbd 7c35 afbd 6268 933c
00000320: 86a7 a53b 5132 80bd 7668 83bd 147b 8abe
00000330: 8ee8 91be 6381 a2be 224d 7ebe a03d 953d
00000340: 2332 063e 858a 943e 8b35 63be 3c87 ae3d
00000350: 1b3c 13bc 5bff 833e f0bf ec3e 7cee 1e3e
00000360: e5b9 b1bd 82ae 13bd 0ca8 34bd 0e3d c3bd
00000370: 220a 4e3e 81ee a9be 8818 d23d cf83 483e
00000380: 4172 88be 4d9a 84bd 5f91 843d 4241 7a3d
00000390: c00b 82be ea92 b63f 934f edbb c4b4 a0bc
000003a0: 3b12 d03d f059 233d 6220 603d 7bec 46be
000003b0: 934e 543e 64ea 8abe b4dd a0bd ab38 63bd
000003c0: 34c6 c1bd 445f f43d f333 223e 6b28 f93d
000003d0: f5ed 9e3d 6cc6 f5bd 8976 1a3c 6aa9 cebb
000003e0: 4c01 c13d 286c 7d3e 59d8 c73c 2496 08bc
000003f0: dfbc ae3d 4a0e 2f3e 8f25 663e 3760 913e

features.7.bias f4 [8]
-0.08906576 -0.13969547 0.074801154 0.27715856 -0.11767358 0.0090639675 0.1966009 -0.17875925
00000000: 1c68 b6bd 540c 0fbe 5931 993d bae7 8d3e
00000010: d9fe f0bd 0981 143c bf51 493e aa0c 37be

features.8.weight f4 [8]
1.0431225 1.102643 1.0913696 1.1960433 0.79698336 0.84694904 0.858304 0.7185036
00000000: 0a85 853f 6823 8d3f 00b2 8b3f f217 993f
00000010: 1a07 4c3f a7d1 583f d0b9 5b3f daef 373f

features.8.bias f4 [8]
0.3565351 0.33397648 0.08938234 0.6538032 -0.035856955 0.5705105 0.51707166 0.25427464
00000000: c58b b63e f7fe aa3e 170e b73d a65f 273f
00000010: bede 12bd fa0c 123f cf5e 043f 4930 823e

features.8.running_mean f4 [8]
-2.554051 -1.4799985 0.22370511 -0.9522466 0.34303248 2.880879 2.1605635 0.92794955
00000000: 9275 23c0 9770 bdbf f412 653e 6fc6 73bf
00000010: f4a1 af3e 5260 3840 ac46 0a40 1a8e 6d3f

features.8.running_var f4 [8]
2.0129426 1.401161 1.4631233 1.6708082 1.0846208 2.0235512 1.9925777 2.5637832
00000000: 0dd4 0040 3e59 b33f a047 bb3f 0bdd d53f
00000010: dbd4 8a3f dd81 0140 c90c ff3f 0615 2440

features.10.weight f4 [8, 8, 3, 3]
-0.19869678 -0.05255841 0.112470925 0.16556506 -0.6403913 -0.18623132 0.46581182 0.5444299
0.116437726 -0.11463706 0.024115745 -0.06375988 -0.08713378 -0.71402234 -0.31636196 -0.0019198618
-0.030773286 -0.1293762 0.41082183 -0.014244657 0.083594956 0.20068437 0.32026246 0.10473987
-0.18829396 -0.072511986 -0.28068766 -0.09310267 -0.14562646 0.14893197 -0.10867825 -0.40919724
-0.08391757 -0.055680584 -0.17923963 -0.1208049 0.502606 0.18276311 -0.06536622 0.24962904
0.035817176 0.5524999 0.049081624 0.11740267 0.15655234 -0.17703173 0.29889244 0.023167452
0.023870882 -0.2935517 0.04464131 0.20804738 -0.108162604 0.17533153 -0.123476036 0.22144356
-0.10810741 -0.18373723 -0.41829967 -0.17189103 0.028622257 -0.26347747 -0.3918272 -0.37372997
-0.39423934 -0.19686839 -0.27837366 -0.29815656 -0.059516054 -0.02178538 -0.17775063 0.039966024
-0.14005807 -0.0890823 0.06986644 -0.091914706 0.041375987 0.2643477 0.19037592 0.08029271
0.12844211 0.073529914 0.103472434 0.32410622 -0.058866944 0.21630351 0.09271219 0.22441937
-0.060915247 -0.24749279 0.016610721 0.37336594 0.16089346 0.026385697 0.14147429 0.2369729
0.2129598 -0.0011196362 0.28879413 -0.0075946944 -0.414921 0.17577282 -0.27199444 0.5062361
0.9206158 0.22779097 0.3565318 -0.019253602 0.170899 -0.16837505 -0.39346534 -0.085202806
-0.4756804 -0.12224622 -0.13256685 -0.23139481 0.113659486 0.09148902 -0.0718648 -0.21386892
-0.18066059 -0.25984532 0.06305379 -0.11794254 -0.046322644 0.018212816 0.06661 -0.027750822
0.29846358 0.127139 0.37147373 -0.094851285 -0.011965739 -0.20899042 -0.051807895 0.018300572
0.18994375 0.15817213 -0.08421434 0.24376893 0.19088478 0.024652785 0.277947 -0.023033002
0.11458905 0.39902058 0.24192688 -0.19358297 -0.21956404 0.04937814 -0.007120201 0.0038223797
-0.08414408 -0.05638059 0.35123852 -0.47860786 -0.5875462 -0.5825639 0.39861274 -0.014140049
0.21504201 -0.31185025 -0.02175135 0.021577101 -0.2649209 -0.34632733 -0.44689965 -0.057340603
-0.30337372 -0.24833506 -0.18342566 0.09815257 0.048228044 -0.579746 -0.088271335 -0.24466029
-0.05370004 0.056956887 0.08226131 0.22040506 0.22433062 0.25505638 0.16076364 0.060912147
0.098826714 0.08623782 0.011250379 -0.07656812 0.042724125 0.19882451 0.404434 0.08875939
0.3192206 0.014233629 -0.15731965 -0.055591695 -0.0038056208 0.15761238 -0.057637665 -0.072107136
0.0136101125 -0.031296674 -0.08796152 -0.16487196 -0.21012218 -0.102876805 -0.008118301 0.3885518
0.3322837 0.24464789 0.22301884 0.16698413 0.3142406 0.28367364 0.24664113 0.10891753
-0.07066865 -0.037126686 -0.18486607 -0.24343458 -0.33417138 -0.20380315 -0.22260985 -0.35147548
-0.099929675 -0.16295728 -0.26915303 -0.07564771 -0.09576892 -0.29307106 -0.26594144 -0.30767447
0.22610421 -0.14529353 -0.38014787 -0.053245757 -0.09516391 -0.19696829 -0.2606859 -0.13552342
0.025811153 -0.115040064 -0.07880929 -0.049000856 0.12486532 -0.12694165 0.18368052 -0.62583166
0.032544367 -0.2156279 0.42595595 -0.0905475 -0.43254468 0.19224049 0.26238477 -0.03711325
00000000: 2b77 4bbe 7d47 57bd 2857 e63d e389 293e
00000010: aff0 23bf 6cb3 3ebe e37e ee3e c25f 0b3f
00000020: e776 ee3d d6c6 eabd 628e c53c 8a94 82bd
00000030: 3273 b2bd 2bca 36bf 32fa a1be dfa3 fbba
00000040: 4218 fcbc 327b 04be 3d57 d23e 6c62 69bc
00000050: d533 ab3d 3480 4d3e 71f9 a33e db81 d63d
00000060: 22d0 40be 2a81 94bd 4bb6 8fbe 9dac bebd
00000070: 1a1f 15be 9f81 183e b492 debd 4d82 d1be
00000080: fadc abbd 5311 64bd 988a 37be 8f68 f7bd
00000090: c9aa 003f 4126 3b3e bade 85bd c19e 7f3e
000000a0: 08b5 123d a270 0d3f d009 493d d070 f03d
000000b0: 424f 203e ce47 35be 6e08 993e abc9 bd3c
000000c0: de8c c33c 694c 96be ced9 363d 5f0a 553e
000000d0: 5b84 ddbd 1c8a 333e 01e1 fcbd 1ac2 623e
000000e0: 6b67 ddbd 9d25 3cbe 602b d6be 3404 30be
000000f0: 3979 ea3c 85e6 86be 939d c8be 8959 bfbe
00000100: bdd9 c9be de97 49be fe86 8ebe faa7 98be
00000110: 1bc7 73bd 4177 b2bc 4304 36be 6ab3 233d
00000120: 626b 0fbe c870 b6bd 2316 8f3d c73d bcbd
00000130: de79 293d 9558 873e e8f1 423e 8170 a43d
00000140: 5486 033e da96 963d 5be9 d33d 40f1 a53e
00000150: 771e 71bd ab7e 5d3e e3df bd3d 31ce 653e
00000160: 4482 79bd c06e 7dbe 3513 883c d229 bf3e
00000170: 41c1 243e d126 d83c a3de 103e 06a9 723e
00000180: 2212 5a3e c2c0 92ba d3dc 933e eadc f8bb
00000190: 8670 d4be cafd 333e db42 8bbe b098 013f
000001a0: 7aad 6b3f 0942 693e 568b b63e bbb9 9dbc
000001b0: 2600 2f3e 826a 2cbe 4a74 c9be cf7e aebd
000001c0: 628c f3be 3a5c fabd 9bbf 07be c3f2 6cbe
000001d0: 4ec6 e83d 985e bb3d da2d 93bd 7400 5bbe
000001e0: 17ff 38be 720a 85be 5822 813d dc8b f1bd
000001f0: d0bc 3dbd 0b33 953c d36a 883d b155 e3bc
00000200: 38d0 983e ba30 023e ce31 be3e 6441 c2bd
00000210: f20b 44bc 9601 56be 8434 54bd 15eb 953c
00000220: 9d80 423e e0f7 213e 9178 acbd 909e 793e
00000230: 4d77 433e a3f4 c93c 124f 8e3e b5af bcbc
00000240: aaad ea3d 6d4c cc3e aebb 773e 9d3a 46be
00000250: 65d5 60be bc40 4a3d 9350 e9bb e480 7a3b
00000260: bb53 acbd 55ef 66bd 89d5 b33e 170c f5be
00000270: 6e69 16bf e822 15bf f816 cc3e aaab 67bc
00000280: f933 5c3e d6aa 9fbe e32f b2bc 76c2 b03c
00000290: b6a3 87be d151 b1be 08d0 e4be fbdd 6abd
000002a0: cd53 9bbe 8c4b 7ebe f0d3 3bbe 3704 c93d
000002b0: c58a 453d 3c6a 14bf 9ac7 b4bd 3a88 7abe
000002c0: 93f4 5bbd a04b 693d 9e78 a83d ddb1 613e
000002d0: edb6 653e c096 823e 399f 243e 047f 793d
000002e0: a965 ca3d 749d b03d 8253 383c bfcf 9cbd
000002f0: 7eff 2e3d a798 4b3e f911 cf3e 7cc7 b53d
00000300: e270 a33e 2b34 693c 6718 21be 1eb4 63bd
00000310: b967 79bb 2465 213e 7915 6cbd e8ac 93bd
00000320: f3fc 5e3c f130 00bd 2b25 b4bd 32d4 28be
00000330: 452a 57be 13b1 d2bd 9f02 05bc 43f0 c63e
00000340: 1721 aa3e fa84 7a3e 0d5f 643e e3fd 2a3e
00000350: 25e4 a03e ac3d 913e 7e8f 7c3e 2710 df3d
00000360: baba 90bd 2712 18bd 884d 3dbe ea46 79be
00000370: 8318 abbe c6b1 50be d6f3 63be 98f4 b3be
00000380: eea7 ccbd 46de 26be 6dce 89be 30ed 9abd
00000390: 7f22 c4bd 690d 96be 7a29 88be 8287 9dbe
000003a0: dd87 673e d4c7 14be bea2 c2be 3918 5abd
000003b0: 4ce5 c2bd 0eb2 49be 9f78 85be a7c6 0abe
000003c0: e971 d33c 209a ebbd c466 a1bd 1fb5 48bd
000003d0: 64b9 ff3d fefc 01be bf16 3c3e 8136 20bf
000003e0: 3e4d 053d 8fcd 5cbe e616 da3e f870 b9bd
000003f0: 7f76 ddbe b1da 443e 4c57 863e 1004 18bd

features.10.bias f4 [8]
0.090428464 0.07096037 0.03208929 0.19668989 0.015526003 -0.13364947 -0.1718913 -0.04664187
00000000: 8f32 b93d ac53 913d 0f70 033d 1369 493e
00000010: c760 7e3c 68db 08be 4604 30be 8c0b 3fbd

features.11.weight f4 [8]
1.0044622 1.0621786 0.82920676 1.099705 1.0907546 0.86089313 1.0185297 0.9087235
00000000: 3892 803f 78f5 873f e546 543f 22c3 8c3f
00000010: d99d 8b3f 7e63 5c3f 2e5f 823f 1aa2 683f

features.11.bias f4 [8]
0.19829968 -0.014248103 0.52017605 0.55078614 0.4022752 0.53792864 0.40616363 0.3012747
00000000: 120f 4b3e e070 69bc 422a 053f 5200 0d3f
00000010: 04f7 cd3e b1b5 093f aef4 cf3e ad40 9a3e

features.11.running_mean f4 [8]
-2.3055248 2.417773 -0.19946977 -3.3521225 0.059209008 -0.18045308 -1.6566505 -1.0240654
00000000: b88d 13c0 cbbc 1a40 ce41 4cbe 2d89 56c0
00000010: 2585 723d b1c8 38be 200d d4bf 9314 83bf

features.11.running_var f4 [8]
2.6054957 2.574308 2.1015222 2.6589499 3.419932 3.2405252 3.2852736 3.1096125
00000000: 71c0 2640 76c1 2440 577f 0640 3c2c 2a40
00000010: 2ae0 5a40 c464 4f40 ec41 5240 e403 4740

features.14.weight f4 [16, 8, 3, 3]
-0.18651624 0.13984469 0.13729611 0.24284051 -0.11624541 -0.22001964 0.04396931 0.12129233
0.04515881 0.40098897 -0.07269872 0.015407309 -0.015699072 0.29063094 -0.026565788 -0.08791941
0.34839538 0.22210819 -0.2275388 0.24825825 0.03472678 -0.23512572 0.050429627 -0.24666524
-0.01600444 0.08939448 -0.41130316 -0.017221976 0.54572755 -0.12531649 -0.0071122507 0.60151637
0.13022828 -0.30234984 0.09215717 0.15793116 -0.14318831 -0.14470369 -0.0523913 0.037382826
0.42619 0.06552903 -0.09338345 -0.21783446 -0.033184655 0.061419524 0.19396508 -0.44227672
-0.02452566 0.11089139 -0.12481314 -0.10471753 -0.18050212 -0.10102503 -0.2142431 0.0961716
0.20831297 0.12863486 0.23614219 0.21157192 0.024036314 0.17634931 -0.0327221 -0.21474083
-0.22757368 -0.14194755 -0.08674866 0.12208713 0.11309951 -0.023587827 0.26505 0.35732
0.08501521 -0.08679272 -0.12180841 0.0073873466 -0.0858763 -0.03256879 -0.15132178 -0.10632487
0.44707716 -0.35216632 -0.02206218 0.15074435 0.2488289 0.86355215 0.27193633 0.24274188
-0.21835376 -0.06723775 -0.06821647 -0.21263877 -0.34113267 -0.19065514 0.085258275 0.17007242
-0.048315648 0.27637565 -0.0061281514 0.044338387 -0.22714384 0.15642995 0.06621874 -0.27035993
0.130603 -0.08401452 -0.14175609 0.16070959 -0.057973426 0.23291683 -0.30952996 -0.30172056
0.17082165 -0.0021977534 -0.048743166 -0.040777966 -0.14889167 0.09323873 -0.263159 -0.18772683
0.109824225 -0.012462346 0.036202367 0.02701895 -0.10479677 -0.19083045 0.47050548 -0.027774809
-0.078004874 0.2933068 0.10495676 -0.1408126 -0.24194743 0.14829767 0.17167293 -0.0683159
0.0608104 0.29105625 -0.13422973 -0.044462323 0.34102657 -0.24423765 -0.24128678 0.14551978
0.2924954 0.20301393 0.15552858 0.053106878 0.08409201 -0.25259548 -0.14960968 0.039340366
0.026443137 -0.14052516 0.047817446 0.216257 0.018456936 0.08675427 0.083206244 -0.18187532
-0.22404958 -0.07708807 -0.10942965 0.04635457 -0.07812715 -0.11106649 0.15692693 0.39954495
-0.06906385 0.05771333 0.19361746 0.32753232 0.11607633 -0.32342407 0.07374708 -0.032838535
-0.3536251 -0.15362483 -0.12479975 -0.32471463 -0.23982432 0.09220978 -0.27331635 0.25711146
0.2576889 -0.36349252 0.48830727 -0.010316209 -0.14715923 -0.10685907 -0.20622052 0.060203485
-0.2850424 -0.175049 0.19232954 -0.13712601 -0.18935882 0.24506724 0.29733935 -0.052780442
-0.018509109 0.22710003 -0.25881454 -0.43904272 0.17252131 -0.14538811 -0.08132823 -0.15614438
-0.112350784 -0.16152659 -0.3592338 -0.07389837 0.15635177 -0.01748939 0.34191072 0.22321427
-0.036775615 -0.03510307 -0.07252802 0.40092036 0.36279148 0.079204954 -0.10760121 -0.18907723
-0.0109665245 -0.03449321 0.16056493 -0.10309838 -0.12952015 -0.17970799 -0.008004014 0.118102655
-0.0039479663 -0.13286696 -0.0026487822 0.24719623 -0.019580992 0.10954435 0.057742603 0.28805023
0.00046540497 -0.062289864 0.009880199 0.080369495 0.03367967 -0.03093385 0.17156594 -0.0423515
-0.17984834 0.2676137 -0.10535708 0.009982882 0.20394115 0.32918403 0.26748827 -0.32819697
00000000: 1dfe 3ebe 7233 0f3e 5a97 0c3e 2fab 783e
00000010: 1312 eebd d44c 61be 2a19 343d 1d68 f83d
00000020: 72f8 383d 6d4e cd3e 11e3 94bd f06e 7c3c
00000030: 579b 80bc 94cd 943e 7fa0 d9bc 170f b4bd
00000040: e160 b23e 5470 633e eeff 68be 6937 7e3e
00000050: ab3d 0e3d ccc4 70be 4c8f 4e3d d095 7cbe
00000060: be1b 83bc 7414 b73d 5496 d2be 1a15 8dbc
00000070: cdb4 0b3f f752 00be e20d e9bb fafc 193f
00000080: 905a 053e 99cd 9abe e6bc bc3d b5b8 213e
00000090: f59f 12be 342d 14be 4398 56bd bc1e 193d
000000a0: 9335 da3e 1634 863d d23f bfbd ff0f 5fbe
000000b0: a2ec 07bd 0a93 7b3d c89e 463e 1872 e2be
000000c0: 09ea c8bc 061b e33d 089e ffbd 2576 d6bd
000000d0: 8cd5 38be 36e6 cebd 8b62 5bbe 9ef5 c43d
000000e0: ff4f 553e dbb8 033e 42cf 713e 4fa6 583e
000000f0: cee7 c43c ea94 343e 9c07 06bd 05e5 5bbe
00000100: 1309 69be b35a 11be 48a9 b1bd d108 fa3d
00000110: b7a0 e73d 423b c1bc a2b4 873e a6f2 b63e
00000120: 741c ae3d 62c0 b1bd b076 f9bd 8e11 f23b
00000130: eadf afbd da66 05bd 19f4 1abe dac0 d9bd
00000140: 4ce7 e43e 254f b4be bfbb b4bc ba5c 1a3e
00000150: 01cd 7e3e c111 5d3f 3d3b 8b3e 5491 783e
00000160: 2198 5fbe f2b3 89bd 14b5 8bbd fabd 59be
00000170: f1a8 aebe 1a3b 43be e49b ae3d 7727 2e3e
00000180: a1e6 45bd 1c81 8d3e a9ce c8bb 2b9c 353d
00000190: 6598 68be 2c2f 203e b19d 873d 9e6c 8abe
000001a0: cbbc 053e ce0f acbd 8228 11be 0e91 243e
000001b0: 8b75 6dbd c081 6e3e b67a 9ebe 1e7b 9abe
000001c0: dfeb 2e3e 2f08 10bb eaa6 47bd cc06 27bd
000001d0: 0f77 18be f3f3 be3d c7bc 86be 763b 40be
000001e0: 86eb e03d de2e 4cbc ef48 143d d856 dd3c
000001f0: b09f d6bd 0f69 43be 18e6 f03e ff87 e3bc
00000200: 05c1 9fbd 4f2c 963e 92f3 d63d 2e31 10be
00000210: 11c1 77be 58db 173e 07cb 2f3e 35e9 8bbd
00000220: 5314 793d 5305 953e 8573 09be 201e 36bd
00000230: 099b ae3e 6f19 7abe e213 77be 2303 153e
00000240: f5c1 953e e2e2 4f3e e242 1f3e 9986 593d
00000250: 6f38 ac3d 3254 81be 4833 19be 5d23 213d
00000260: 479f d83c d4e5 0fbe 3adc 433d 7a72 5d3e
00000270: 0033 973c 39ac b13d 0968 aa3d 863d 3abe
00000280: 416d 65be 5ae0 9dbd a71c e0bd 4ade 3d3d
00000290: 2101 a0bd d476 e3bd 74b1 203e 2891 cc3e
000002a0: 5971 8dbd d064 6c3d a843 463e 51b2 a73e
000002b0: 6db9 ed3d d797 a5be b608 973d b381 06bd
000002c0: 590e b5be d44f 1dbe 0397 ffbd ff40 a6be
000002d0: 8294 75be 7bd8 bc3d 1ff0 8bbe 1da4 833e
000002e0: cdef 833e b11b babe 6903 fa3e 5105 29bc
000002f0: e9b0 16be eed8 dabd 792b 53be ee97 763d
00000300: 14f1 91be 0c40 33be 09f2 443e c36a 0cbe
00000310: 47e7 41be e8f2 7a3e dd3c 983e 4e30 58bd
00000320: 6aa0 97bc e98c 683e 5783 84be 35ca e0be
00000330: 6da9 303e 9fe0 14be 6a8f a6bd 50e4 1fbe
00000340: 2b18 e6bd 3a67 25be 7eed b7be 0758 97bd
00000350: ae1a 203e e945 8fbc ec0e af3e 4892 643e
00000360: 07a2 16bd 3dc8 0fbd 9289 94bd 6f45 cd3e
00000370: cebf b93e 3536 a23d 065e dcbd 769d 41be
00000380: f0ac 33bc c148 0dbd 226b 243e 3e25 d3bd
00000390: eea0 04be 5f05 38be 4523 03bc cedf f13d
000003a0: f15d 81bb 470e 08be 3197 2dbb 0221 7d3e
000003b0: 5168 a0bc ca58 e03d 8283 6c3d 527b 933e
000003c0: 9901 f439 a823 7fbd 8fe0 213c c398 a43d
000003d0: b2f3 093d fc68 fdbc fbae 2f3e c478 2dbd
000003e0: 2a2a 38be aa04 893e 74c5 d7bd 3e8f 233c
000003f0: f3d5 503e cf8a a83e 39f4 883e 6f09 a8be

features.14.bias f4 [16]
-0.10348776 -0.04078153 -0.017214423 0.025369173 -0.012712072 0.080609046 -0.03790502 0.07399477
0.02474462 -0.041402947 -0.033533845 -0.045261923 0.04882627 -0.026095614 0.012601584 0.011447802
00000000: 64f1 d3bd 890a 27bd 4305 8dbc 03d3 cf3c
00000010: 4b46 50bc 5b16 a53d 4b42 1bbd 928a 973d
00000020: 3bb5 ca3c 2396 29bd c95a 09bd 9164 39bd
00000030: 0efe 473d 78c6 d5bc e076 4e3c 908f 3b3c

features.15.weight f4 [16]
1.081015 0.9289962 0.9319192 1.1612053 0.9310021 0.8587238 0.88232833 1.0089438
1.0212495 0.95884913 0.9378677 1.2648191 0.9906358 1.0828782 0.85877204 0.92717415
00000000: b35e 8a3f b2d2 6d3f 4292 6e3f 60a2 943f
00000010: 2756 6e3f 53d5 5b3f 45e0 613f 1225 813f
00000020: 4eb8 823f 2377 753f 1918 703f 98e5 a13f
00000030: 4f9a 7d3f c19b 8a3f 7cd8 5b3f 495b 6d3f

features.15.bias f4 [16]
0.39190346 0.2568922 0.50940025 0.12071653 0.46729514 0.08024783 0.23216721 0.34579632
0.3140727 0.16319688 0.49671218 0.091924585 0.23846804 0.31756774 0.52875614 0.14418194
00000000: 92a7 c83e 6087 833e 0e68 023f 3a3a f73d
00000010: 4f41 ef3e f958 a43d 3ebd 6d3e 370c b13e
00000020: 23ce a03e 151d 273e 0f51 fe3e f542 bc3d
00000030: f730 743e 3d98 a23e 905c 073f 6ea4 133e

features.15.running_mean f4 [16]
2.0322168 0.15554114 -1.0001669 -1.2348933 -2.7873254 2.3641014 -3.1541622 0.3347746
0.9571093 -3.4948099 1.3950611 -3.3209147 1.7085495 -3.9577296 -2.1838958 -3.6086588
00000000: d70f 0240 2d46 1f3e 7805 80bf fc10 9ebf
00000010: 8a63 32c0 704d 1740 cbdd 49c0 9467 ab3e
00000020: 1d05 753f f7aa 5fc0 5d91 b23f de89 54c0
00000030: c0b1 da3f 714b 7dc0 f3c4 0bc0 44f4 66c0

features.15.running_var f4 [16]
2.2940307 2.5496194 3.2410111 4.646097 2.4629447 3.5930402 3.340014 2.988192
3.5681834 2.987415 3.4708452 5.1507506 3.113094 4.683415 3.1617048 3.906835
00000000: 66d1 1240 f72c 2340 ba6c 4f40 d4ac 9440
00000010: e3a0 1d40 5ff4 6540 cac2 5540 8a3e 3f40
00000020: 1e5d 6440 cf31 3f40 5422 5e40 f3d2 a440
00000030: ef3c 4740 89de 9540 5f59 4a40 9609 7a40

features.17.weight f4 [16, 16, 3, 3]
0.07161913 0.51636946 0.15778345 0.2720052 0.16618459 0.023643427 0.1800924 0.097056456
0.13541915 0.20870104 0.12106907 -0.019288156 -0.103259064 -0.12798132 -0.12734333 0.088603094
0.08296991 -0.17592107 -0.025738778 0.16574994 -0.133633 -0.18157089 0.057560366 -0.06577926
0.122818224 0.056944713 -0.41487822 -0.41666883 -0.12316559 -0.23090291 -0.047136925 -0.25725538
-0.2653034 -0.3155981 -0.29821277 -0.059408497 0.47226462 -0.0334688 0.28849968 0.29618695
0.12272477 0.5066629 0.15958765 0.21968651 0.10982954 0.047268927 -0.19707811 0.2627441
0.089376286 -0.13039768 0.39201346 -0.015031557 -0.26110238 0.13912243 0.10361875 0.35657376
0.54788077 -0.004086782 0.08003032 0.33022302 -0.07279264 -0.05099051 -0.07403553 -0.54696816
-0.17472234 -0.06861397 -0.1247374 -0.016842667 0.077024594 -0.08189646 0.11361803 -0.09842024
0.17462853 0.1757898 0.037705123 -0.025267376 -0.08132065 0.23669288 0.04365811 -0.12830766
0.06378417 -0.07441155 0.046891917 -0.16159584 -0.2715217 -0.117310055 -0.2212383 -0.15249364
0.28871658 0.13637309 0.3636308 0.26017913 0.11779587 0.16243769 0.37766296 -0.25424963
-0.038652338 -0.1509683 -0.046603188 -0.0018354432 -0.1001537 -0.041221168 -0.16074553 -0.2087811
0.12584513 -0.08993726 -0.21579868 0.15357785 0.14194189 -0.09562297 -0.036642738 0.1634442
-0.08275863 -0.3655322 -0.083854795 -0.1505755 -0.10605251 0.13706583 0.029775895 0.0019484648
0.1366183 0.38571757 0.10094188 -0.08347209 0.3318422 -0.08858821 -0.48759693 0.08042148
-0.095978715 -0.32537535 0.15078312 -0.27199954 0.052019283 0.3366291 -0.15722032 0.10854899
0.26066262 0.17684259 0.3397668 -0.0026339504 -0.05989796 0.13212517 -0.051583145 -0.043614347
0.26603195 0.08759303 0.20059778 0.11703145 0.26189753 0.11022957 -0.049249962 0.19659486
-0.036407225 0.2650997 0.074238665 -0.17621736 0.0034828812 -0.4300613 0.20439644 -0.23085408
0.002027901 0.21167101 -0.093761966 0.053463034 -0.020351639 0.18229672 -0.19286573 0.020818079
-0.19307414 0.111279614 0.14583914 0.16263606 -0.030059785 0.11465128 0.35411808 0.29355904
-0.34992716 0.086160064 -0.07523091 -0.534781 -0.062303837 -0.06863306 0.12640487 -0.066072516
0.076026365 0.100031376 -0.1427436 0.31387565 -0.16157225 0.03965754 0.08490171 -0.23860596
-0.02137064 -0.33580205 -0.594142 -0.18316649 -0.06320179 -0.03932613 -0.07136008 -0.47547814
0.075313374 -0.35659263 -0.12935764 0.31565148 0.1592363 0.10399634 -0.06614038 0.15072468
0.0021140506 -0.31471434 0.03332586 -0.24718243 0.42133135 -0.19750857 0.08298199 0.27584803
-0.22965594 -0.22777371 -0.22496632 -0.5291789 -0.13834532 -0.048994314 0.27036437 0.2777894
-0.11499698 -0.15480968 -0.29069245 -0.11481659 -0.25030443 -0.3862376 0.08908416 -0.08040903
-0.13380226 0.05599236 -0.083927594 -0.0015253422 0.1476606 -0.14428836 -0.16376755 -0.01563197
-0.09611817 0.040023033 0.2627434 -0.23157945 -0.016819537 0.11954275 0.33366162 0.048839297
-0.09284392 0.3649382 0.041346315 -0.18594103 0.03524295 0.25830907 0.17240056 -0.17460504
00000000: 0dad 923d ca30 043f fc91 213e 4444 8b3e
00000010: 4b2c 2a3e dcaf c13c 246a 383e 89c5 c63d
00000020: 51ab 0a3e bab5 553e 10f3 f73d 3202 9ebc
00000030: 7d79 d3bd 890d 03be 4a66 02be 8a75 b53d
00000040: 21ec a93d a724 34be 21da d2bc 5aba 293e
00000050: 17d7 08be b8ed 39be 6bc4 6b3d 47b7 86bd
00000060: 1f88 fb3d dc3e 693d eb6a d4be 9e55 d5be
00000070: 3e3e fcbd d071 6cbe a612 41bd fab6 83be
00000080: d9d5 87be 1396 a1be 58af 98be 5356 73bd
00000090: abcc f13e 9516 09bd 3bb6 933e d1a5 973e
000000a0: 2057 fb3d a9b4 013f f26a 233e 80f5 603e
000000b0: 4fee e03d 109d 413d d8ce 49be 6586 863e
000000c0: ea0a b73d f886 05be fdb5 c83e eb46 76bc
000000d0: 36af 85be 1c76 0e3e 1136 d43d d690 b63e
000000e0: ea41 0c3f 6aea 85bb f0e6 a33d fe12 a93e
000000f0: 4f14 95bd 6ddb 50bd f19f 97bd 1b06 0cbf
00000100: 6aea 32be 7b85 8cbd 5276 ffbd a2f9 89bc
00000110: 12bf 9d3d 55b9 a7bd 92b0 e83d 8d90 c9bd
00000120: d2d1 323e 3e02 343e b070 1a3d 87fd cebc
00000130: 718b a6bd 9e5f 723e d9d2 323d 1563 03be
00000140: 46a1 823d 1565 98bd bd11 403d 6179 25be
00000150: e404 8bbe 4140 f0bd 4b8c 62be 4b27 1cbe
00000160: a9d2 933e 63a5 0b3e d12d ba3e 3336 853e
00000170: f63e f13d 1156 263e 0a5d c13e 022d 82be
00000180: ea51 1ebd 6f97 1abe fce2 3ebd 4193 f0ba
00000190: 621d cdbd 87d7 28bd 7a9a 24be b6ca 55be
000001a0: 8cdd 003e 0731 b8bd 54fa 5cbe 8343 1d3e
000001b0: 3759 113e fad5 c3bd b216 16bd eb5d 273e
000001c0: 5b7d a9bd 0927 bbbe 10bc abbd 7730 1abe
000001d0: 0f32 d9bd fc5a 0c3e 94ec f33c a163 ff3a
000001e0: abe5 0b3e c67c c53e 9eba ce3d 6af3 aabd
000001f0: 39e7 a93e bc6d b5bd 4ea6 f9be 04b4 a43d
00000200: 7d90 c4bd 9997 a6be e466 1a3e 8643 8bbe
00000210: 2c12 553d a65a ac3e 5dfe 20be ef4e de3d
00000220: 9275 853e 3916 353e eaf5 ad3e 5b9e 2cbb
00000230: 9057 75bd d24b 073e d948 53bd f5a4 32bd
00000240: 5735 883e f963 b33d 8169 4d3e 2fae ef3d
00000250: 6f17 863e 0ac0 e13d 54ba 49bd 2a50 493e
00000260: be1f 15bd 26bb 873e 710a 983d 5372 34be
00000270: 0d41 643b ff30 dcbe 4d4d 513e 0365 6cbe
00000280: 88e6 043b 49c0 583e 4606 c0bd 0efc 5a3d
00000290: 7bb8 a6bc feab 3a3e 987e 45be ad8a aa3c
000002a0: 3ab5 45be 91e6 e33d db56 153e 118a 263e
000002b0: f03f f6bc 4ace ea3d f74e b53e 5f4d 963e
000002c0: a729 b3be b074 b03d aa12 9abd 68e7 08bf
000002d0: 4f32 7fbd 7d8f 8cbd 4770 013e 0751 87bd
000002e0: b6b3 9b3d 40dd cc3d 612b 12be 4fb4 a03e
000002f0: 3273 25be f26f 223d f3e0 ad3d 1f55 74be
00000300: 7b11 afbc 3fee abbe b119 18bf ff8f 3bbe
00000310: f16f 81bd 7014 21bd 3c25 92bd df71 f3be
00000320: e63d 9a3d 4f93 b6be 5476 04be 129d a13e
00000330: d70e 233e 08fc d43d 9c74 87bd 9257 1a3e
00000340: e28b 0a3b 3d22 a1be b280 083d 641d 7dbe
00000350: beb8 d73e b03f 4abe 76f2 a93d f43b 8d3e
00000360: ed2a 6bbe 833d 69be 925d 66be 4578 07bf
00000370: 65aa 0dbe 43ae 48bd 336d 8a3e 6a3a 8e3e
00000380: 8983 ebbd 6e86 1ebe a4d5 94be f624 ebbd
00000390: e727 80be efc0 c5be c271 b63d 7dad a4bd
000003a0: 7603 09be 3f58 653d 3be2 abbd feed c7ba
000003b0: 5734 173e 54c0 13be aeb2 27be 9e0e 80bc
000003c0: 9ad9 c4bd 31ef 233d 4e86 863e 2a23 6dbe
000003d0: 20c9 89bc d4d2 f43d b2d5 aa3e b70b 483d
000003e0: f424 bebd 2ed9 ba3e c15a 293d 5367 3ebe
000003f0: e95a 103d 1641 843e c689 303e aacb 32be

features.17.bias f4 [16]
-0.052447032 -0.008332312 -0.027033344 0.038671937 -0.022239555 0.02881423 0.11291864 -0.005385739
0.13071358 0.004661291 0.031865902 0.15142898 -0.016732778 -0.046829518 0.10956976 0.037845727
00000000: b3d2 56bd 4084 08bc 0875 ddbc 7766 1e3d
00000010: ba2f b6bc d20b ec3c e341 e73d da7a b0bb
00000020: c8d9 053e bebd 983b d285 023d 3310 1b3e
00000030: 2e13 89bc 4fd0 3fbd 1c66 e03d 1f04 1b3d

features.18.weight f4 [16]
0.8059746 0.88189876 0.86936325 1.1241729 0.8670235 1.2069806 1.1268084 0.9053097
0.9975217 0.9951209 1.1334022 0.8976207 0.85634524 1.0526807 1.1500813 1.0375106
00000000: 5a54 4e3f 1ec4 613f 978e 5e3f e6e4 8f3f
00000010: 41f5 5d3f 577e 9a3f 423b 903f 60c2 673f
00000020: 955d 7f3f 3ec0 7e3f 5313 913f 78ca 653f
00000030: 7139 5b3f 3ebe 863f dd35 933f 26cd 843f

features.18.bias f4 [16]
0.21296114 -0.0238641 0.27402875 0.21792237 0.50646573 0.15663266 0.2563006 -0.048091233
0.26835653 0.20154345 0.16906823 0.30645564 0.3938275 0.27400973 -0.04898095 0.44645303
00000000: 7c12 5a3e a57e c3bc 7f4d 8c3e 0b27 5f3e
00000010: bda7 013f 5064 203e d539 833e 50fb 44bd
00000020: 0766 893e 6861 4e3e 3920 2d3e c1e7 9c3e
00000030: c2a3 c93e 014b 8c3e 40a0 48bd 7e95 e43e

features.18.running_mean f4 [16]
1.3329757 -0.2901434 1.0366877 1.8433317 -1.8849344 0.42398563 -0.85703605 1.4205811
-0.9762111 -2.7218041 -1.0133 1.7863488 -0.12279302 -4.415822 -2.0183125 -0.33485124
00000000: f39e aa3f ad8d 94be 2fb2 843f 4bf2 eb3f
00000010: 8845 f1bf a514 d93e b766 5bbf 9ad5 b53f
00000020: f8e8 79bf 0a32 2ec0 d0b3 81bf 14a7 e43f
00000030: e87a fbbd 6a4e 8dc0 082c 01c0 9f71 abbe

features.18.running_var f4 [16]
5.6546397 2.8249223 4.488934 5.5911064 5.959022 7.933991 5.324075 4.6785073
6.162682 7.8677926 5.2891307 5.7507267 6.4577312 7.180212 5.0792246 5.1768517
00000000: cff2 b440 87cb 3440 59a5 8f40 58ea b240
00000010: 4fb0 be40 41e3 fd40 d35e aa40 55b6 9540
00000020: b134 c540 f5c4 fb40 8f40 a940 f405 b840
00000030: bca5 ce40 4cc4 e540 0289 a240 c5a8 a540

features.20.weight f4 [16, 16, 3, 3]
-0.23174667 0.13526891 -0.18411735 -0.2601586 -0.13083814 -0.24072808 -0.08325862 -0.026135061
-0.16302772 -0.0233718 0.05692325 -0.056356523 -0.09266361 0.043860998 -0.103508994 -0.19100675
-0.30840066 -0.313173 -0.016168931 -0.07085834 0.06941148 -0.103931144 0.0016018165 -0.12382445
-0.03045593 -0.18971798 -0.1374989 0.051202614 -0.33395243 -0.0983794 0.26724708 0.16816145
-0.11056813 0.10775531 0.12376628 -0.05913107 0.043927573 0.008950897 -0.0453695 0.2651626
0.16018473 0.11822836 0.0048081237 -0.017553175 -0.06630365 0.20204692 0.058467567 -0.2505052
0.09012166 0.38588008 -0.12717597 0.17649834 0.6235923 0.1920633 -0.3029818 0.26746023
-0.1457556 -0.04190575 0.6993431 0.2506456 -0.20880976 0.21452643 0.16811891 -0.20408997
-0.5542447 -0.271361 0.04066578 -0.31362942 -0.08173664 -0.12909345 0.043425858 -0.09934062
0.4294482 0.21938209 0.3729876 -0.09320253 -0.17847371 0.2879013 0.18761759 -0.18593895
-0.29539913 0.21171375 0.2764353 -0.009138198 -0.13113949 -0.011373252 -0.15595677 -0.09844635
-0.15536626 -0.35881266 0.035436627 0.07776811 -0.08617242 -0.3474672 0.17479081 -0.13062613
-0.11504106 0.072013065 0.30456275 0.15832949 0.2512468 -0.2654263 -0.01055106 0.40861166
-0.26894024 -0.19976236 0.22406545 -0.015297143 -0.06704157 -0.1889203 -0.28472453 -0.1984421
0.011286252 -0.029902427 -0.21965942 0.1321057 0.089384615 0.0090632895 0.097396724 0.19745876
0.18441188 0.1285409 -0.08648595 0.27218246 0.1550569 0.00059043465 0.09983336 -0.272467
0.08336201 0.20599589 -0.15230799 -0.22058223 0.18034892 0.016176092 -0.11631613 -0.2540019
0.061326467 -0.3721026 -0.11870947 0.036990512 0.02160204 -0.21556693 -0.21983804 0.042850856
-0.06403075 0.07634614 -0.060897976 0.18558614 0.20910956 0.1061788 -0.20337032 0.2652592
0.40736258 -0.061719332 0.0032761926 0.35402855 0.08820325 -0.15292895 -0.01693919 0.14204241
-0.093413554 -0.021157661 0.09868643 0.16787472 -0.24826206 0.1187428 0.28870946 0.047191914
-0.16187932 0.14465837 0.24956176 0.049257413 0.19516155 -0.033214603 0.17490928 0.050939854
-0.1772685 0.31176132 0.124845766 -0.17690167 -0.2466007 -0.09680687 -0.27287078 0.4762781
-0.077018425 -0.051539104 0.37279943 -0.061129462 0.04685322 -0.18090215 -0.13838357 -0.12904075
-0.12558345 -0.30421382 -0.6101806 -0.017852131 -0.07706004 -0.26586482 0.18423632 -0.08408146
-0.050126802 -0.18087514 -0.04602547 -0.2955634 0.052894853 0.20646495 0.3122831 0.35988387
0.4982821 0.23587745 -0.027774552 0.121703066 0.36262652 0.05985785 -0.20469871 0.40507358
0.048502278 -0.03483273 -0.24907275 -0.036244906 -0.15405779 0.046769932 0.022168674 -0.05925454
-0.16566807 -0.40646127 -0.24390432 -0.07070047 -0.039923493 -0.0064684846 -0.1684676 -0.13461131
0.09489113 0.13922647 -0.08411541 0.18622611 -0.044315267 0.11695744 0.41782492 0.06546247
0.03477522 0.09982579 -0.02267136 0.12303797 0.32653284 0.14376538 -0.41060245 -0.08713915
0.19179086 -0.22322713 -0.16145022 -0.26519802 -0.38000935 0.020403452 0.10596769 0.19830997
00000000: 004f 6dbe ef83 0a3e 4289 3cbe 8233 85be
00000010: 6ffa 05be 6c81 76be 7f83 aabd 3219 d6bc
00000020: bdf0 26be 3876 bfbc 5b28 693d 19d6 66bd
00000030: 6bc6 bdbd 97a7 333d 86fc d3bd 4697 43be
00000040: b1e6 9dbe 3658 a0be b574 84bc 2d1e 91bd
00000050: 9b27 8e3d dad9 d4bd 0bf4 d13a ac97 fdbd
00000060: b77e f9bc 6e45 42be 83cc 0cbe d5b9 513d
00000070: d0fb aabe 247b c9bd 9cd4 883e 8432 2c3e
00000080: 8b71 e2bd d1ae dc3d 2d79 fd3d 6c33 72bd
00000090: 66ed 333d c8a6 123c 5ed5 39bd 64c3 873e
000000a0: 7707 243e b621 f23d 778d 9d3b adcb 8fbc
000000b0: 35ca 87bd 63e5 4e3e b07b 6f3d 3842 80be
000000c0: b491 b83d 1392 c53e 6b3a 02be fbbb 343e
000000d0: bfa3 1f3f 3eac 443e 6e20 9bbe 8cf0 883e
000000e0: f540 15be 5da5 2bbd 2608 333f 9f54 803e
000000f0: 3ad2 55be d1ac 5b3e 5d27 2c3e f6fc 50be
00000100: fbe2 0dbf d4ef 8abe 2991 263d 0994 a0be
00000110: 8a65 a7bd 1331 04be 50df 313d 1873 cbbd
00000120: a2e0 db3e b3a5 603e 3bf8 be3e f8e0 bebd
00000130: d0c1 36be cd67 933e d31e 403e c866 3ebe
00000140: 8e3e 97be 7dcb 583e ed88 8d3e 61b8 15bc
00000150: 6e49 06be e056 3abc 22b3 1fbe 3d9e c9bd
00000160: 5518 1fbe 4bb6 b7be ff25 113d e344 9f3d
00000170: 2a7b b0bd 39e7 b1be 5dfc 323e dbc2 05be
00000180: a69a ebbd 967b 933d a6ef 9b3e 2021 223e
00000190: 6ca3 803e f5e5 87be 5ade 2cbc 8c35 d13e
000001a0: 89b2 89be 818e 4cbe 6a71 653e dea0 7abc
000001b0: 174d 89bd 5374 41be 6ac7 91be 6834 4bbe
000001c0: f9e9 383c eff5 f4bc 66ee 60be b746 073e
000001d0: 480f b73d 317e 143c ef77 c73d a132 4a3e
000001e0: 78d6 3c3e 3aa0 033e 8c1f b1bd 805b 8b3e
000001f0: 3cc7 1e3e 66c7 1a3a 6f75 cc3d cb80 8bbe
00000200: b4b9 aa3d 96f0 523e a0f6 1bbe 4fe0 61be
00000210: 63ad 383e b983 843c 2737 eebd 890c 82be
00000220: 7631 7b3d 3b84 bebe f31d f3bd 5d83 173d
00000230: c3f6 b03c 94bd 5cbe 391d 61be 6184 2f3d
00000240: 8e22 83bd 5d5b 9c3d 2870 79bd 4b0a 3e3e
00000250: d120 563e 4574 d93d 4f40 50be 0ed0 873e
00000260: d491 d03e 69cd 7cbd 64b5 563b 3b43 b53e
00000270: e8a3 b43d 6899 1cbe 0ec4 8abc 9173 113e
00000280: 9b4f bfbd d552 adbc 1c1c ca3d 5ae7 2b3e
00000290: 6938 7ebe 6d2f f33d bad1 933e 4f4c 413d
000002a0: b1c3 25be 5321 143e 1e8d 7f3e 24c2 493d
000002b0: 6ed8 473e 090c 08bd 6b1b 333e 4fa6 503d
000002c0: e085 35be 2e9f 9f3e 23af ff3d b625 35be
000002d0: e584 7cbe ae42 c6bd b8b5 8bbe b9da f33e
000002e0: d6bb 9dbd ab1a 53bd 91df be3e e362 7abd
000002f0: 29e9 3f3d 6a3e 39be 6cb4 0dbe 4223 04be
00000300: f398 00be eac1 9bbe cc34 1cbf a23e 92bc
00000310: a7d1 9dbd 6f1f 88be 72a8 3c3e e732 acbd
00000320: c351 4dbd 5537 39be 3485 3cbd 1654 97be
00000330: 46a8 583d 8c6b 533e 92e3 9f3e b342 b83e
00000340: d51e ff3e dc89 713e 7587 e3bc 753f f93d
00000350: 2faa b93e 812d 753d 8a9c 51be ce65 cf3e
00000360: 53aa 463d c4ac 0ebd ed0c 7fbe 8a75 14bd
00000370: 53c1 1dbe d491 3f3d 149b b53c e3b4 72bd
00000380: e4a4 29be b11b d0be 0ec2 79be 68cb 90bd
00000390: d186 23bd 95f5 d3bb c582 2cbe 8cd7 09be
000003a0: 4856 c23d 6291 0e3e b344 acbd 0fb2 3e3e
000003b0: ed83 35bd 6287 ef3d 26ed d53e 3011 863d
000003c0: 7670 0e3d 7771 cc3d 4ab9 b9bc 55fb fb3d
000003d0: 502f a73e 3b37 133e 7c3a d2be 0376 b2bd
000003e0: d364 443e a795 64be 3553 25be 09c8 87be
000003f0: 9690 c2be 2425 a73c 9705 d93d c511 4b3e

features.20.bias f4 [16]
0.0046357075 -0.05293394 0.061612096 -0.049371272 0.094904184 0.06506741 -0.09663144 -0.049177587
-0.07108835 0.0076716505 0.03816916 -0.027159806 -0.00036398598 -0.0067038955 0.019234141 -0.011247334
00000000: 22e7 973b 42d1 58bd f75c 7c3d 8839 4abd
00000010: 205d c23d 1042 853d b4e6 c5bd 706e 49bd
00000020: c596 91bd 7862 fb3b 4457 1c3d 3e7e debc
00000030: 5fd5 beb9 5aac dbbb eb90 9d3c bd46 38bc

features.21.weight f4 [16]
1.0576657 0.9525876 0.9702165 0.8933913 0.9809984 1.0401233 1.0661287 1.0002584
0.9898974 1.2099631 1.0334687 0.8967275 0.9867207 1.13356 0.9498661 1.0295199
00000000: 9761 873f c8dc 733f 1c60 783f 4bb5 643f
00000010: b622 7b3f c322 853f e876 883f 7808 803f
00000020: ea69 7d3f 12e0 9a3f b448 843f ef8f 653f
00000030: ba99 7c3f 7e18 913f 6d2a 733f 4fc7 833f

features.21.bias f4 [16]
-0.07861079 0.20467164 -0.0996781 0.4995988 0.3965857 0.28214794 0.15605265 0.13443445
0.0050215754 -0.04306882 0.2640739 0.3101016 -0.09569515 0.10982536 0.3616788 0.028155975
00000000: b2fe a0bd 7195 513e 0824 ccbd 6acb ff3e
00000010: 480d cb3e b275 903e 44cc 1f3e 2fa9 093e
00000020: 078c a43b ee68 30bd b234 873e a3c5 9e3e
00000030: d2fb c3bd 1eec e03d f72d b93e 5ca7 e63c

features.21.running_mean f4 [16]
-0.03430457 0.77247167 2.177148 1.4047805 1.369944 -1.9297508 -2.19244 -2.8481247
-1.9272957 -0.14873378 -0.4902184 0.011752925 1.2281452 0.22754198 2.05945 0.49336287
00000000: f382 0cbd b4c0 453f 6556 0b40 d9cf b33f
00000010: 535a af3f 1302 f7bf f050 0cc0 ad47 36c0
00000020: a0b1 f6bf ab4d 18be e8fd fabe 578f 403c
00000030: dd33 9d3f c400 693e 07ce 0340 0f9a fc3e

features.21.running_var f4 [16]
5.776201 5.171951 5.000992 4.7750278 4.827556 8.62227 8.72754 5.0465264
5.963735 5.0185223 8.052089 5.8321733 5.7141542 7.063467 6.8798914 5.9641967
00000000: a3d6 b840 9f80 a540 2008 a040 07cd 9840
00000010: 577b 9a40 d1f4 0941 01a4 0b41 257d a140
00000020: ebd6 be40 bc97 a040 5bd5 0041 2aa1 ba40
00000030: 5ada b640 ec07 e240 1228 dc40 b3da be40
