logs/VGG13_XXXS/Cifar10/VGG13_XXXS_bs32_e20_id2.model (torch_old, 169046 bytes, 72 tensors)

features.0.weight f4 [4, 3, 3, 3]
000000 80 94 13 3d 61 c4 98 be 5c 06 5a bd c7 1b 5a be
       0.036030293 -0.29837325 -0.05322872 -0.21299659
000010 34 c1 47 3e f7 01 02 3d e0 19 71 bd d9 53 16 3f
       0.19507295 0.031740155 -0.058862567 0.5872169
000020 0c 56 82 bd b4 f7 34 be f4 0d 96 3e a5 23 cf 3e
       -0.063640684 -0.17672616 0.2930752 0.40456882
000030 88 b1 51 bf 2a 49 14 be e6 80 e8 be 5e 74 c0 be
       -0.81911516 -0.14481035 -0.45410842 -0.3758878
000040 63 14 1a bd 1e 83 39 be 1f 80 76 3e 41 92 89 3e
       -0.0376171 -0.18116423 0.24072312 0.26869395
000050 6d b9 75 3d a2 00 7d bc 1e f1 49 be a3 11 02 be
       0.05999129 -0.015442045 -0.19720885 -0.1270204
000060 86 ec f0 be d9 26 58 3e 02 bc 64 3a 83 ec a2 3e
       -0.47055453 0.21108569 0.0008725525 0.3182107
000070 96 be ba 3e a9 e8 c1 bd 0b f6 5f 3e 6c 6e 47 3d
       0.3647353 -0.094682045 0.21871202 0.04868929
000080 50 2f c9 3e fb 34 ba bd f0 fb 84 be ce 68 9c 3d
       0.3929391 -0.090921365 -0.25973463 0.076371774
000090 25 ab f0 be 15 ae d5 be 80 ae e3 be af b0 e5 bd
       -0.47005573 -0.41734377 -0.4446907 -0.1121534
0000a0 71 7c a2 be 0c f8 5e 3e 88 6a f7 be 8a 59 de bc
       -0.31735566 0.2177431 -0.48323464 -0.027142305
0000b0 d5 1d 9e 3e b7 d3 d5 3d 58 72 20 bd f5 c8 8c 3e
       0.30882135 0.10440772 -0.039171547 0.27497068
0000c0 94 f0 45 be 85 a9 db 3d 7b 7d 5d 3e c6 bf 6e be
       -0.19330055 0.10725693 0.21629898 -0.23315343
0000d0 ae ab 2d 3d 9c 56 e7 3e b6 7e 1e be e2 f4 6e be
       0.042400055 0.45183265 -0.15478024 -0.23335603
0000e0 d9 2d 7b be ae de b5 be 96 d1 2b 3f ca 04 64 3e
       -0.24529208 -0.35521454 0.6711668 0.22267452
0000f0 63 00 2b 3d 3e 03 4c 3f a2 3b 3f 3d dc 86 91 3d
       0.041748416 0.7969245 0.04668773 0.071058005
000100 da 97 3d 3e 00 1a a2 be 1e 86 24 bd 4a 83 25 3f
       0.18514958 -0.3166046 -0.040166967 0.64653456
000110 c3 3d 3d 3e a5 a5 e5 be 9e a0 2f 3e 2f 46 e1 bd
       0.18480591 -0.4485294 0.17151114 -0.109997146
000120 8d 6b 33 be 24 ff 70 3e df 33 19 3e 3f 3b d8 be
       -0.17521496 0.23534828 0.14961194 -0.422327
000130 dd 70 05 3d f9 9e 50 3d 02 8e 8b be f7 36 97 bd
       0.032578338 0.05093286 -0.2725678 -0.073835306
000140 cf 17 22 bf c8 ec 8f be c2 29 0d be 76 82 c8 3b
       -0.6331758 -0.28110337 -0.1378546 0.006119068
000150 fb aa 5f 3d ab 7d 88 3e 8d f4 69 bd c7 2f d4 3d
       0.05460642 0.26658377 -0.057117987 0.10360675
000160 0d ec d5 3e 4d c8 17 bd c6 74 40 be 19 da 1b 3e
       0.41781655 -0.037056256 -0.18794546 0.15219916
000170 85 a0 5b be e1 85 8e be 1d b7 f9 3d 53 97 e2 bd
       -0.21447952 -0.27836516 0.12193129 -0.11064019
000180 46 7a 57 be 7b 00 fb 3e 0a 7c 18 bf 20 0f a0 3d
       -0.21042737 0.49023804 -0.5956427 0.07815385
000190 51 6b 6a be a8 f8 78 bd b0 9f 39 be 04 65 24 3f
       -0.228925 -0.060784012 -0.18127322 0.6421664
0001a0 a6 26 49 3b 7c 18 c0 3e 08 69 ec 3e c1 2c 3d be
       0.0030693202 0.3751868 0.46173882 -0.18474104

features.0.bias f4 [4]
000000 0f f6 ba bd 93 29 a2 bb f8 cc 5f 3d 83 59 30 be
       -0.09128963 -0.0049488037 0.054638833 -0.17221646

features.1.weight f4 [4]
000000 e6 07 3b 3f 07 2f 57 3f d7 19 82 3f b3 10 83 3f
       0.7305893 0.84056133 1.0164136 1.0239471

features.1.bias f4 [4]
000000 2a ce e1 bd b5 f4 bf 3e d6 2f 33 3f c8 28 ed 3e
       -0.11025651 0.37491384 0.69994867 0.46320176

features.1.running_mean f4 [4]
000000 21 8b b2 3e 16 47 59 3d 01 84 96 bd 96 f6 b9 be
       0.34871772 0.05304631 -0.073493965 -0.36320943

features.1.running_var f4 [4]
000000 73 60 83 40 49 a0 c9 3f 91 4a 13 40 66 da 0f 40
       4.1055236 1.575204 2.3014262 2.247705

features.3.weight f4 [4, 4, 3, 3]
000000 49 46 37 be 87 ca c7 bc 0f 2a 82 be e5 3a e8 3e
       -0.17897905 -0.024388565 -0.25422713 0.45357433
000010 85 68 4e 3f 88 3a 19 3f 81 80 f3 3d 0d 2d 46 be
       0.80628234 0.59854937 0.118897445 -0.19353123
000020 e2 22 19 bb 18 60 f5 3e 40 b9 9f be 88 8e dc 3d
       -0.002336674 0.47924876 -0.31196022 0.10769373
000030 25 e2 6e 3e ea f8 66 3e de 0f 79 3e 61 31 a9 3e
       0.23328455 0.2255589 0.24322459 0.33045486
000040 4d c8 1a 3e 01 aa 0b 3f bf 66 74 3e 28 6c bf be
       0.15115471 0.5455628 0.2386732 -0.37387204
000050 80 c7 8c 3e 44 29 12 3f 7c 6a 7e bd 24 c3 37 be
       0.27495956 0.57094216 -0.06211327 -0.17945534
000060 cc bd 9d 3d eb a9 49 be ad 5e 8c be 16 a3 8e be
       0.077022165 -0.19693725 -0.27415982 -0.278588
000070 4e 95 ae be 03 cd f9 3d 83 d5 e7 be df 0c fc be
       -0.34098285 0.12197306 -0.45280084 -0.4922857
000080 d9 eb 36 be b9 3a 52 be c5 36 18 bf 68 99 50 3d
       -0.17863406 -0.20530213 -0.5945857 0.05092755
000090 8a c2 84 3e 1f d5 a1 3c bf ea ab 3d ea 24 62 be
       0.25929672 0.019754944 0.08394384 -0.22084394
0000a0 da fe 9b be 27 fb b8 3e 44 b0 36 bc 18 49 1e 3e
       -0.30467874 0.36129114 -0.011150423 0.1545757
0000b0 1b 55 16 bd 29 e8 2a be 11 ad 85 bd b1 4f 95 3e
       -0.036702257 -0.16690125 -0.065271504 0.29162362
0000c0 28 ea eb be 60 19 80 3e 22 d6 3a 3d 32 05 aa 3d
       -0.46077085 0.2501936 0.04561437 0.08301772
0000d0 6d 19 0a 3e a6 dc 66 bd aa 1a 81 3e df 70 cf be
       0.13486262 -0.05636277 0.25215656 -0.405158
0000e0 b4 03 a2 bd cf df 75 3d bc db ee be 84 0b d2 3e
       -0.079108626 0.060027894 -0.4665202 0.4102441
0000f0 82 98 eb bd dd b9 5e bd 3f ac 8f 3e 5d 6f 96 3e
       -0.11503698 -0.05437647 0.280611 0.29381838
000100 41 65 d5 be bb 1c c3 bc e3 e0 90 3e d1 19 4e bf
       -0.41678813 -0.02381741 0.28296575 -0.8050814
000110 57 6e 9c 3e 1d bf 08 be 9e 93 49 bd e0 73 8d 3c
       0.30552933 -0.13354154 -0.049213044 0.017267168
000120 95 66 3b 3e 94 87 69 bd 08 4a 0e 3e 2b ac 30 be
       0.1830085 -0.057014063 0.13895428 -0.17253177
000130 6f 8f ae be 37 d8 23 3e 5c 0a 36 be 42 ed c0 bb
       -0.34093806 0.16000448 -0.1777739 -0.0058876583
000140 7a 72 bd 3e 41 62 81 bd c3 46 22 3e 54 38 bf 3d
       0.370014 -0.063175686 0.15847306 0.093369156
000150 19 13 36 3e 5d f2 ce be ee 5c 87 be 31 48 d3 bd
       0.17780723 -0.40419284 -0.26438087 -0.10316504
000160 f8 b5 2b 3d 70 19 99 3e cc 43 0b 3e f3 2d b0 3e
       0.041921586 0.2990222 0.13600081 0.34410056
000170 c5 11 80 3e 08 72 55 bf 2b e7 df be cd 62 d0 bd
       0.25013557 -0.8337712 -0.43731055 -0.10175095
000180 15 07 b5 be 1a fd e2 bd f8 32 85 bd 2a 3c 7e 3e
       -0.35356966 -0.110834315 -0.06503862 0.24827638
000190 13 74 57 be 98 45 aa be 6d fc 6c be 90 4c 25 be
       -0.21040373 -0.3325622 -0.23143168 -0.16142488
0001a0 b0 65 f1 be 15 47 76 3e 7f e1 4e 3e 0d f8 24 3e
       -0.47147894 0.24050553 0.20203207 0.16110249
0001b0 43 8a 21 bf 6b e8 03 bf f7 45 ba be 49 b8 12 3f
       -0.63101596 -0.51526517 -0.36381504 0.57312447
0001c0 cf 76 cc bd cb 01 96 3e 52 66 8a 3e 52 2f dc 3d
       -0.099835984 0.29298243 0.2703119 0.10751213
0001d0 fd 9e 3b 3e 55 c7 b1 3e 3e 02 85 3d 27 aa 5d bd
       0.18322368 0.3472239 0.06494568 -0.054117348
0001e0 14 4e a3 be e8 00 52 be c3 45 12 bf 4b 0a c1 bd
       -0.31895506 -0.20508158 -0.571377 -0.09425791
0001f0 ab f4 1a bd 47 d4 00 3e e3 ac 3f 3e 39 0e 2b bf
       -0.03783099 0.12580977 0.18718295 -0.6681858
000200 21 0d 84 3e 1c 09 a5 3d b8 a9 e0 be cf b8 7c bd
       0.25791267 0.08058378 -0.43879485 -0.061699685
000210 15 f0 bf 3e d0 5d f8 bd 03 53 9e 3e 80 2e 54 be
       0.37487856 -0.12127268 0.30922708 -0.20720863
000220 58 07 f1 3d 61 15 9c 3c d6 28 9a 3e c9 ad 6b bc
       0.11768979 0.019053163 0.3010928 -0.014384695
000230 34 1d 39 3f c4 6e de 3c 03 77 8a be 2f 68 97 3d
       0.72310185 0.027152427 -0.27043924 0.07392918

features.3.bias f4 [4]
000000 77 ef 86 bc ed 1b 37 be 1f d7 be 3d 2f 71 fe 3d
       -0.016471608 -0.17881747 0.09318375 0.12423932

features.4.weight f4 [4]
000000 76 dd 4b 3f c4 8a 83 3f e9 e1 81 3f df 7b 69 3f
       0.796348 1.0276723 1.0147067 0.9120464

features.4.bias f4 [4]
000000 91 34 3a 3f a6 b4 92 3e 10 a5 13 3f f0 e8 be 3e
       0.7273646 0.2865345 0.5767374 0.37287092

features.4.running_mean f4 [4]
000000 e2 dd 49 be c0 62 02 bf be 7f a1 bf 50 91 ef 3d
       -0.19713548 -0.5093193 -1.2617109 0.11697638

features.4.running_var f4 [4]
000000 1f ae 64 40 0e 3e 18 40 c5 19 c6 3f a1 f2 d1 3f
       3.5731275 2.3787875 1.5476614 1.640217

features.7.weight f4 [8, 4, 3, 3]
000000 f6 8f c4 bd a2 76 69 bd ac 6a 26 3e d5 a0 91 3c
       -0.09597771 -0.056997903 0.1625163 0.017776886
000010 b5 6b 3e 3c 61 14 87 be 44 51 dc bd 46 2a a2 be
       0.011622359 -0.26382735 -0.10757688 -0.31672877
000020 89 d2 48 3d 27 ed a3 bd 05 cc e1 3c c4 6a a8 3e
       0.049028907 -0.080042176 0.027563104 0.32893956
000030 cc fb aa 3e e9 d9 2f be b4 35 1d 3f 63 4d 91 be
       0.3339523 -0.1717297 0.6141007 -0.28379354
000040 53 70 4c be ee 79 95 3d c7 b7 5d bd 05 a8 29 3e
       -0.19964723 0.07298647 -0.05413034 0.16568
000050 49 71 8e bd 7f 27 92 3e 47 3a 5e bf c7 81 f8 bc
       -0.06955201 0.28545758 -0.86807674 -0.03033532
000060 d7 4f 7f be b8 db 00 3e 57 5b 0c bb a2 45 08 3e
       -0.249328 0.12583816 -0.0021416747 0.13307813
000070 9d 8d 05 be 44 0a d7 3b 68 c8 71 be 52 b5 89 3d
       -0.13042302 0.006562503 -0.23611605 0.06724037
000080 6b 29 81 be 63 15 a8 3d 68 d4 9f bd ae a9 db bd
       -0.25226912 0.08207204 -0.07804185 -0.10725723
000090 f7 e9 3b be 4f 72 96 3e 72 c4 da 3d 7e 5c 1c 3e
       -0.1835097 0.29384086 0.10682 0.15269658
0000a0 e5 44 5a be 58 78 0e bf 25 ee 5c 3e c7 a3 80 bd
       -0.21315344 -0.5565238 0.2157522 -0.06281238
0000b0 27 91 c3 be 91 24 d8 3d 7e 3c d5 3d d0 4d 28 bd
       -0.3819668 0.105538495 0.104119286 -0.041089833
0000c0 d6 2f e7 bd 4a ac 60 3d 42 d2 23 bf 36 a8 84 3e
       -0.11288421 0.054851808 -0.639927 0.25909585
0000d0 b1 c8 37 3d 9f f1 b5 3e a7 32 f0 3b fd b2 00 3e
       0.04486913 0.35535905 0.007330257 0.12568279
0000e0 4a 3c 2d be 18 8d c6 3d 7b de 9f 3e 30 24 21 3d
       -0.1691753 0.0969488 0.31224427 0.03934115
0000f0 ec e9 06 be c7 12 3b be 7a 7d 9e 3e 6d 6b 83 be
       -0.13175172 -0.18268882 0.30955106 -0.25667897
000100 2c e3 91 be 07 e7 1e 3e 0c ca c1 bd 1f 5f 8f be
       -0.2849363 0.15517817 -0.094623655 -0.2800226
000110 f8 57 61 3e 79 a5 06 bd a4 ca 15 3e 0d 13 8b bd
       0.22006214 -0.03287265 0.14628083 -0.06790743
000120 67 9d 61 3e 0c 3e 9a be c2 af 8d be 92 18 ca bd
       0.220327 -0.30125463 -0.27673155 -0.09867968
000130 23 56 4a be b9 7b 1c be d9 84 fc 3d a9 f8 89 bd
       -0.19759421 -0.15281571 0.12330026 -0.06736881
000140 a1 98 e2 3d e5 e0 85 bc 0c d1 5b 3e b7 c7 38 be
       0.11064268 -0.01634259 0.21466464 -0.18044935
000150 2b af 40 be a9 9b 8d be 19 f0 4b be b5 49 69 be
       -0.18816821 -0.27657822 -0.19915809 -0.22782023
000160 66 e2 f8 3d ba 4b 16 3e 3c b3 18 3e c7 0d 8b bd
       0.12152557 0.14677325 0.14912122 -0.06789737
000170 8e 3f b5 bc bd dd f8 3d 37 0e b7 be ca 97 b1 be
       -0.022125032 0.12151668 -0.35753033 -0.34686118
000180 4d cc 5c bd 38 9f 9e 3e a6 f1 27 be 0d b3 e4 3d
       -0.053905774 0.3098085 -0.16400775 0.11166964
000190 a9 eb 60 be d1 b7 e0 3d f5 23 7c be 37 c9 25 bf
       -0.21964897 0.1097256 -0.24623092 -0.64760154
0001a0 bb b3 96 be 4e b5 8a 3e 73 57 40 be 56 60 c8 bd
       -0.29433998 0.2709145 -0.18783359 -0.097839996
0001b0 9c d7 92 be 1c 91 0a be 9e 0f 92 be dd 84 90 bd
       -0.28680122 -0.13531917 -0.2852754 -0.07056592
0001c0 06 40 e7 3e db 88 a4 3e 5a 28 a8 bd 18 0b d5 3e
       0.45166034 0.32135662 -0.082108214 0.41610026
0001d0 f4 03 25 3e 07 da f7 bb ba bb 2d 3d ce ac 8a bd
       0.16114789 -0.0075638327 0.042415358 -0.06771241
0001e0 1b 80 86 be 94 20 e4 be 93 fd 7e be e7 4c 52 3d
       -0.26269612 -0.44556105 -0.24901418 0.05134287
0001f0 53 3a 83 be fe 68 40 be ad 74 52 bc e2 06 28 3e
       -0.25630435 -0.18790051 -0.0128452005 0.16408876
000200 c5 9c 80 bd 60 ff a4 be e9 b2 4f be 48 b8 b7 3d
       -0.062799014 -0.32226086 -0.20283093 0.08970696
000210 af 18 01 3d 08 ef 8b bc f0 8e 50 3d df a9 2b 3e
       0.03151768 -0.017081752 0.050917566 0.1676402
000220 78 de 91 3e ff 70 a9 3c 39 9a 9b 3e db 29 cd 3e
       0.28490043 0.020683764 0.303911 0.40070996
000230 c5 ed 7c 3d f3 41 a2 be 22 2d f2 bd b6 09 2a be
       0.061750192 -0.3169094 -0.11825015 -0.16605267
000240 3d 99 74 be df 27 38 3e ee 17 b3 3e 7b 77 cb be
       -0.23886581 0.1798396 0.34979194 -0.39739594
000250 dc d8 aa 3d 93 43 08 3f 49 82 ea bc 13 6f 50 be
       0.08342144 0.5322811 -0.028626578 -0.20354871
000260 e6 af 46 3d 3f fe da bb 1c ec 01 bd 0f 83 28 3d
       0.048507594 -0.0066831405 -0.031719312 0.041140612
000270 e0 90 53 be df 2d 97 3d 29 65 32 be d8 ca 8e be
       -0.20660734 0.07381796 -0.17421402 -0.27889132
000280 59 a2 69 bb 32 50 12 3e 85 64 98 3d e9 70 2f 3e
       -0.0035649745 0.14288405 0.074410476 0.17132916
000290 99 55 a2 be c6 8c e3 bd 3e 25 ad 3e 23 79 6e be
       -0.3170593 -0.11110835 0.33817476 -0.23288397
0002a0 c3 06 49 be e4 0b e7 3d 32 ff 2f 3e 64 92 a1 3d
       -0.19631486 0.11281565 0.17187193 0.0788925
0002b0 8c 88 a6 be 1c 11 bf 3c d6 96 88 3e f0 ea be be
       -0.32526052 0.023323588 0.2667758 -0.37288618
0002c0 a9 76 4f 3d 48 5c 37 3e e2 fe be bc 6b d4 3e be
       0.050650273 0.17906296 -0.023314897 -0.18635719
0002d0 37 20 95 3e 5a 7f 02 3e 61 d0 0f bf b1 80 5c bb
       0.2912614 0.12743893 -0.56177336 -0.0033646042
0002e0 cf e0 94 bc 2c 66 e8 be f8 d1 d8 3d b2 14 b0 3c
       -0.018173603 -0.4539045 0.10586923 0.021494243
0002f0 7f ac 20 be c7 97 50 bc 28 f4 03 bf 4f 4a 28 bf
       -0.15690802 -0.012731499 -0.5154443 -0.65738386
000300 6d 79 4d 3c e8 b0 d3 3e 38 0d 35 3e b8 ed 91 3d
       0.012541157 0.41345906 0.17680824 0.071254194
000310 6e 11 40 3e 81 bb a0 3d 95 b0 ab bc af d6 51 be
       0.18756649 0.078482635 -0.020958224 -0.20492052
000320 34 19 77 3d 0f be 17 be 65 27 c8 3c 00 da 0f 3e
       0.06032677 -0.14818595 0.024432847 0.14048004
000330 bd f2 04 be 6c 6c 13 bd 04 42 21 3e 63 4b df be
       -0.12983222 -0.03599207 0.15747839 -0.43612203
000340 29 db 8c 3e f7 46 ac 3e 8f 24 c0 bd 95 35 89 bd
       0.27510956 0.33647892 -0.09381973 -0.06699673
000350 10 53 4a 3c 62 17 05 be cf 8d 2b 3d 56 48 ea 3b
       0.012348905 -0.12997201 0.041883286 0.0071497364
000360 32 15 c4 be 69 de 02 bd e2 13 5f 3e 58 19 b3 3e
       -0.3829742 -0.031950388 0.21784928 0.34980273
000370 34 07 56 3e 61 42 99 3d 04 f8 60 3c 8a e3 a9 be
       0.20901185 0.07483364 0.0137310065 -0.3318141
000380 35 ab 9b 3c 0f 18 a2 be 5c 78 0b bd de 16 cb 3c
       0.019002536 -0.3165898 -0.03405033 0.024791177
000390 cb de 31 3f c4 3c 85 3e 45 8c 3f bd 53 77 f1 bd
       0.6948058 0.26022923 -0.04676463 -0.117903374
0003a0 b2 8e 3a 3e f3 bf 25 be 38 c2 9f 3e 83 65 9a 3e
       0.18218496 -0.16186504 0.31202865 0.30155572
0003b0 65 a2 db bd 5f 96 9d 3e 10 da 8c be cc 9f 38 be
       -0.10724334 0.30778787 -0.27510118 -0.18029708
0003c0 0e 21 39 bd 9d f1 ad bc af 14 6d bd 7d 32 e9 bd
       -0.04519754 -0.021233374 -0.057881054 -0.11386583
0003d0 fb 90 f3 be 58 d7 e2 be ec 02 d8 bd 7b 50 02 bd
       -0.4757155 -0.4430492 -0.10547432 -0.031815033
0003e0 55 a0 9e be 54 83 85 be 8a c3 8a 3d 90 fa 02 bd
       -0.309817 -0.26076758 0.06775577 -0.031977236
0003f0 05 17 08 be 9b 5e 01 3f a4 05 f1 3d 71 b0 af 3e
       -0.13290031 0.5053498 0.11768654 0.34314302

features.7.bias f4 [8]
000000 4e 3a 76 3e 6d e5 1d be da 5d 8e 3d 0f c3 59 bd
       0.24045679 -0.1541955 0.069514945 -0.053164538
000010 49 a3 e3 3e 5e 4b 51 3c 73 d9 1d be 48 9a 8b be
       0.44460514 0.012774317 -0.15414982 -0.27266145

features.8.weight f4 [8]
000000 69 e9 54 3f 07 8f 55 3f 8b 82 97 3f 14 7b 43 3f
       0.83168656 0.8342137 1.1836714 0.7635968
000010 15 f3 85 3f 9e c7 69 3f 4d 53 4d 3f 1b 88 5c 3f
       1.0464808 0.91320217 0.8020523 0.8614518

features.8.bias f4 [8]
000000 ff bf 93 3f 8e d6 33 3f b1 b6 99 3e 61 79 a4 3e
       1.1542968 0.7024926 0.30022195 0.32123855
000010 24 df 0f be 36 41 77 be e1 c0 81 3d 2b c9 10 3f
       -0.14049965 -0.2414597 0.06335617 0.5655696

features.8.running_mean f4 [8]
000000 51 48 8e bf e0 e8 31 bf b4 ba 2b c0 96 67 93 be
       -1.1115819 -0.69495964 -2.6832705 -0.28789967
000010 9a 22 3c 3e 5f e9 76 bf ed a2 52 bf 7d d3 2b bd
       0.18372574 -0.96449846 -0.82279855 -0.041949738

features.8.running_var f4 [8]
000000 29 13 61 3f 13 c2 23 3f 97 1a ab 3f 14 47 3c 3f
       0.8791986 0.6396801 1.336749 0.73545957
000010 44 a2 b2 3f a5 f3 6c 3f 83 54 92 3f 1e 92 f4 3f
       1.395577 0.9255927 1.1432041 1.9107091

features.10.weight f4 [8, 8, 3, 3]
000000 6f b2 98 bd bd 4b c6 bd 6d c9 e3 3d 5d 8f 69 3d
       -0.074559085 -0.09682415 0.11122403 0.057021488
000010 04 a8 9f bc 47 f1 01 3e 78 cf 0f 3d c3 e3 2d be
       -0.019489296 0.12689696 0.035109967 -0.16981415
000020 75 03 71 bd 9e bf 98 be b9 22 b5 be 15 9d 27 3f
       -0.058841188 -0.29833692 -0.35378054 0.65474063
000030 7f d4 78 3d d2 ab ca 3e b5 3e 09 3e 3e a3 f8 3d
       0.060749527 0.39584213 0.13402827 0.12140511
000040 87 0b bd 3e cc 28 a3 3d 78 a2 a1 3e 81 cf e5 bd
       0.36922857 0.07966766 0.31569266 -0.11221219
000050 75 a6 7f bc 8c 4d 54 bd dd 43 0e be 6d 7a 88 3e
       -0.015603651 -0.051831767 -0.13893075 0.26655903
000060 29 74 ca 3d 90 0c e9 3d 75 a8 2d 3d 76 5d 54 3d
       0.09885437 0.11379349 0.04239698 0.051846944
000070 51 55 42 3c b2 7a b6 be a7 2b a4 3e 40 cf 2d bc
       0.011861161 -0.35640484 0.32064554 -0.010608494
000080 24 23 2e 3d 5e 64 c9 bb 62 c4 1d 3e f9 88 cd 3e
       0.04251398 -0.006145998 0.15406945 0.40143564
000090 73 ea 00 3e 6a dc 9e 3e 2f 40 2d 3d 0e 50 62 3e
       0.12589435 0.31027538 0.04229754 0.22100851
0000a0 0f 27 83 3e db b7 5f 3e a2 0a fc 3c 23 b7 bb bb
       0.25615737 0.21847479 0.030766789 -0.0057286187
0000b0 90 38 16 3e 53 81 37 3e 3e 1a fa 3e 49 21 f0 bd
       0.14670014 0.17920427 0.48848146 -0.11725099
0000c0 1f 3d c6 3e f4 fd 82 3e 1a 77 c7 3e e4 69 e8 3e
       0.38718507 0.25584376 0.38958055 0.45393288
0000d0 1c 59 00 3f 10 a5 e7 3e 80 07 6f 3d 01 d1 0d be
       0.5013597 0.4524312 0.058356762 -0.1384926
0000e0 55 c6 89 3e 63 6a 87 3e 46 27 a5 3e 24 c7 4b 3c
       0.26909128 0.26448354 0.32256526 0.012437616
0000f0 c1 0d ef 3e a4 bd 55 3e 86 30 c2 bd b0 a9 2b be
       0.4669018 0.20873123 -0.09481911 -0.1676395
000100 0d 48 91 3d a6 d7 61 bd 5f 17 64 bd 06 88 f0 3e
       0.07093821 -0.0551373 -0.05568635 0.46978778
000110 00 f1 81 3e 1e 0a dc 3e ff 95 e3 3c 41 cb 79 be
       0.2537918 0.4297647 0.027781485 -0.24393941
000120 29 10 2e be 9d a2 f7 be 42 42 af be 96 a2 a8 bd
       -0.16998352 -0.48366252 -0.34230238 -0.08234136
000130 a0 8f cb be 3f 93 0f bf 4f 0a ce 3c 39 ba 85 bd
       -0.39758015 -0.56084055 0.0251514 -0.0652966
000140 4f 70 4a be 23 a9 67 3e c2 0c 8a 3e 60 b0 33 3e
       -0.19769405 0.22623114 0.26962858 0.1754775
000150 87 4d a5 3d a5 9e 7d 3e 16 c0 d9 bd 30 d7 07 be
       0.08071428 0.2476755 -0.106323406 -0.13265681
000160 0c 19 bd bd c8 33 15 be 36 c2 b3 be a7 7a cb bd
       -0.09233293 -0.14570534 -0.3510911 -0.099355035
000170 0f 69 0e bd 8a e6 28 bf 1c ce d9 be 6c c9 1b bf
       -0.03476816 -0.65976775 -0.4254006 -0.6085422
000180 3b 69 82 be 96 15 42 be fa a7 a2 bd 63 7a ab 3e
       -0.2547091 -0.18953547 -0.07942195 0.3349181
000190 63 f3 15 3e 1a 00 1d bd 98 f8 63 b8 c6 8f a6 be
       0.14643626 -0.038330175 -5.435254e-05 -0.32531565
0001a0 5e e2 90 be e4 ce dd bc 0c 38 cb be 53 37 41 be
       -0.28297704 -0.027076192 -0.39691198 -0.18868761
0001b0 7b fa 2e 3e 4c 87 b5 bd 1f 8b 96 3d cb bc b3 3e
       0.17087738 -0.088636965 0.07350754 0.35104975
0001c0 2a ba 5a be e2 e0 05 be 31 4a bc bc ab d3 92 be
       -0.21360078 -0.13074067 -0.022984596 -0.28677115
0001d0 de 3d 04 3d fe 04 96 3e 23 3f 01 3e 05 8c 93 3d
       0.032285564 0.29300684 0.12621741 0.07204441
0001e0 00 85 1e be cc e8 fa 3d cf a2 3f be 93 25 3a be
       -0.15480423 0.12251434 -0.1871445 -0.18178396
0001f0 3a f5 35 3e 0f 03 8e 3d 02 6c 95 3e d1 9d d6 bb
       0.17769328 0.06934177 0.29183966 -0.006549575
000200 8f 7a 40 3e c3 14 15 be 6e 2a 37 3d a7 ad d4 bc
       0.18796752 -0.14558701 0.0447182 -0.02596171
000210 70 73 b0 be 6a 8a f4 bd da 2c b1 be af 47 09 be
       -0.34463072 -0.11940463 -0.34604532 -0.13406251
000220 86 d1 a1 3e f0 95 33 3f d6 a8 3e be b2 a1 0b 3e
       0.31605166 0.7015066 -0.18619093 0.136359
000230 fd e7 ee 3e 7e 07 bb 3e 67 a3 ff 3d b1 18 bb 3d
       0.46661368 0.36529154 0.124823384 0.09135569
000240 78 3a 38 3e 8b bd 87 3e 3d 99 34 be 4b 6e c4 bd
       0.17991054 0.26511797 -0.17636581 -0.09591349
000250 5d 54 98 be be 76 c0 3e 02 00 a9 bd 2b 60 51 3e
       -0.29751864 0.37590593 -0.082519546 0.20446841
000260 9b b6 0d be d0 d4 8f 3e b6 57 f7 bc 7c c7 ca bc
       -0.1383919 0.2809205 -0.030193191 -0.024753325
000270 ae 76 01 bf 9b 75 40 3e b1 e2 8a 3d 2f ab 8a 3e
       -0.50571716 0.18794863 0.06781519 0.27083728
000280 d6 da 49 3c 93 fd dc bd 7d 03 df 3d b2 59 c7 3d
       0.012320241 -0.10790553 0.10889337 0.09733905
000290 dd 19 2e be fc e3 88 be f8 01 0d bf 7b 7c fb bd
       -0.17002054 -0.26736438 -0.5508113 -0.12279602
0002a0 ad 1c 82 bd ab 14 e2 3d 0b 6e fb 3d e4 2d f3 bc
       -0.06353126 0.11039098 0.122768484 -0.029684968
0002b0 67 29 b7 3d be 6e 49 3d 7d 84 52 3e 8b 8c a3 be
       0.08943444 0.049177878 0.20558353 -0.31943163
0002c0 43 f1 81 be 78 2b 22 be a0 20 d3 3c 3f fc 96 3d
       -0.2537938 -0.15836895 0.025772393 0.07372331
0002d0 6b 7f 2c be 3a 5e 50 be 09 30 d5 be 55 81 bc be
       -0.16845481 -0.20348445 -0.4163821 -0.36817423
0002e0 e2 3f 42 be bd 05 bc be a5 23 89 be 5a 1c fa be
       -0.18969682 -0.36723128 -0.26785007 -0.48849756
0002f0 4f ae 91 be 75 e6 22 bd cd 44 cd bc 6e 06 b8 3d
       -0.284533 -0.039770562 -0.02505722 0.08985601
000300 f4 5f 5a 3e ed 3d 14 3e f4 86 3a bd c9 3c b8 be
       0.21325666 0.14476748 -0.045538858 -0.35983875
000310 77 43 01 bf cf da c2 bc f4 4c 36 be 52 e1 ee 3d
       -0.5049357 -0.023785977 -0.17802793 0.1166407
000320 fa 79 88 be 8a a1 98 be 88 a6 db 3b 4a c0 a4 3e
       -0.2665556 -0.29810745 0.0067032017 0.32177955
000330 ed 2a 4f 3e 85 d7 77 3e eb 8b fc 3d 14 cd 1a be
       0.20231219 0.24203308 0.12331375 -0.15117294
000340 e1 59 63 bc 73 3e 52 be ba 3c 3f bd 74 06 98 bd
       -0.013876409 -0.20531635 -0.046688773 -0.07423106
000350 3d 71 37 3e d8 21 9a 3d 18 78 17 3e 1e ec 68 bd
       0.1791429 0.075259864 0.14791906 -0.056865804
000360 89 e7 39 3e e6 23 ba bd bb e2 84 bd 00 a1 a1 3e
       0.1815473 -0.09088878 -0.06488558 0.31568146
000370 6d c9 3b bb 7a 29 91 3e eb ce 35 3e 90 b8 44 bd
       -0.0028653995 0.28351957 0.17754714 -0.048027575
000380 b9 ee ab bd 50 b6 d3 be 0b 3c 12 be df 10 0d be
       -0.08395142 -0.4135003 -0.14280717 -0.13775967
000390 52 c6 5a be 4d d0 42 be 4b 4e c0 be 95 ad 8b 3d
       -0.21364716 -0.19024773 -0.37559733 0.068202175
0003a0 0b 87 20 3e bb ff 1d 3d 5c 61 af be f5 ac b1 be
       0.15676515 0.03857396 -0.34253967 -0.34702268
0003b0 94 5c 47 be 2c 62 a5 be 32 f1 fe be ac 09 9d be
       -0.1946891 -0.32301462 -0.49793392 -0.30671442
0003c0 7c 20 10 3f 7e 76 17 3f e9 dd 97 3e 6c 5a 20 bd
       0.5629957 0.5916518 0.29661492 -0.039148733
0003d0 d5 2c 41 3e d6 f5 af 3d 3b a0 94 3d d9 2e e1 3d
       0.18864758 0.08591811 0.07257124 0.109952636
0003e0 9c 64 aa 3d d6 0e 78 3e 88 61 dd bc 09 32 36 3e
       0.08319971 0.2422441 -0.027024046 0.17792524
0003f0 9a 71 7f 3e b7 81 d8 3e 57 e4 2e 3e 06 47 b8 3e
       0.2494568 0.42286465 0.17079292 0.35991687

features.10.bias f4 [8]
000000 f2 21 60 3e 9b c9 6b bd 7b a1 d4 bc 68 cb 46 3c
       0.21887949 -0.057565313 -0.025955906 0.012133457
000010 21 5e f7 3b f4 e1 14 3d eb d2 2a 3d 9b 11 ea bc
       0.007549063 0.0363483 0.041705053 -0.028572848

features.11.weight f4 [8]
000000 b8 a2 5b 3f b1 4b 79 3f 7e 49 73 3f a7 db 73 3f
       0.85795164 0.9738112 0.95034015 0.9525704
000010 4c ea 87 3f ec 47 8b 3f 89 20 70 3f 4b 51 4c 3f
       1.0618377 1.0881324 0.93799645 0.79811543

features.11.bias f4 [8]
000000 6a c6 99 3e d8 a2 11 3f 46 a8 16 3f 26 a7 c2 3d
       0.3003419 0.56889105 0.58850515 0.09504537
000010 ca 0a 11 3f 95 7d 61 3f 80 40 88 bd 0e 69 1f 3e
       0.5665709 0.8808225 -0.066529274 0.15567419

features.11.running_mean f4 [8]
000000 51 a1 5a 40 6c a5 46 c0 b6 52 81 bf 70 c7 10 3f
       3.416096 -3.1038465 -1.0103366 0.5655432
000010 c4 fb 53 c0 a4 0b 9a bf 45 c1 10 3f 00 75 16 bf
       -3.3122416 -1.2034802 0.56544906 -0.5877228

features.11.running_var f4 [8]
000000 cd 88 dd 3f 90 2a 8f 40 07 64 94 3f 77 45 08 40
       1.7307373 4.4739456 1.1593026 2.1292398
000010 8c 02 90 40 6f b9 57 40 88 48 d5 3f 68 e7 05 40
       4.500311 3.370693 1.666276 2.092249

features.14.weight f4 [16, 8, 3, 3]
000000 29 3d 43 3d 65 b2 06 be 47 96 ab be c0 d7 0b 3d
       0.04766575 -0.1315399 -0.3351309 0.034141302
000010 58 78 c3 3d 4c 54 99 bd c1 10 3c 3e dd 02 88 bc
       0.09544438 -0.074867815 0.18365766 -0.016602928
000020 43 b8 48 bd 03 60 ca 3d 01 cd 1f be 35 2b 0f bf
       -0.04900385 0.09881594 -0.15605547 -0.55925304
000030 7b 43 8e 3e d8 23 a9 be 02 ec 1b be fa b9 e1 3d
       0.2778586 -0.3303516 -0.15226749 0.110218
000040 52 d5 16 3e 0b b9 44 3e 54 d8 e7 bd 26 ab 8d be
       0.14729813 0.19211213 -0.11320558 -0.27669638
000050 11 ca 30 3d d8 ae c4 be 4d 39 a6 be a9 58 11 be
       0.043161456 -0.38414645 -0.32465592 -0.14193977
000060 8e 3c ae 3c da e0 0e 3e 4e af 91 3e 11 5b 90 bd
       0.02126911 0.13952962 0.2845406 -0.070486195
000070 da 25 3c be 56 5f a8 be e7 46 a7 3e e7 3d 27 bd
       -0.18373814 -0.32885236 0.32671282 -0.04083052
000080 ef d4 95 bc df d0 ac 3c 85 d3 db 3d 6f 82 c2 bd
       -0.018290011 0.021095691 0.107337035 -0.094975345
000090 e4 6c 22 be 24 95 fb 3d 80 35 40 3d cb 72 dd 3b
       -0.15861851 0.12284306 0.04692602 0.006758069
0000a0 22 fe 83 3e e0 f0 e7 3d c1 dc 78 be 68 fe 67 bc
       0.25779825 0.1132524 -0.24302961 -0.014159776
0000b0 92 c0 dc 3d 40 0b 95 bc a4 03 65 be 76 57 eb 3d
       0.10778917 -0.018193841 -0.2236467 0.11491291
0000c0 c2 bf 4c be a9 d5 86 be 1c 6e b6 bd b1 fa 21 be
       -0.19995025 -0.26334885 -0.089077204 -0.15818287
0000d0 90 b2 6c 3d d4 e9 04 3e 75 c9 c8 3e bb 7f a0 3e
       0.057787478 0.12979823 0.392162 0.3134745
0000e0 f5 a3 38 be ae ee 37 3e 8d f6 22 3f 07 f7 37 3c
       -0.18031295 0.17962143 0.63657457 0.0112283295
0000f0 f7 57 cd 3d 4e 03 4c 3e 29 06 53 3e 39 b1 d9 bd
       0.100265436 0.19923136 0.20607819 -0.10629506
000100 7c 60 29 bf 4c c7 3e be fc da 4a be 2d 0e d1 be
       -0.6616285 -0.18630713 -0.19810098 -0.40831128
000110 34 ed 9a bb d7 b2 55 bd 1f e6 71 bd 6b b2 a2 bd
       -0.004727984 -0.052172508 -0.05905735 -0.07944187
000120 74 9f 19 bd 0a 43 8f 3c 30 d8 bb bb a5 7d 56 be
       -0.037505582 0.017488021 -0.0057325587 -0.20946367
000130 df c4 a0 bc 16 9d 63 bd a5 d1 84 bd bd 43 94 bd
       -0.019625125 -0.05556973 -0.06485299 -0.072394826
000140 e6 5b d7 3d 6d 0f 59 3e a9 d6 dc 3e 69 aa f5 3d
       0.10515575 0.2119729 0.43132523 0.11995394
000150 28 e3 59 3e 3a 38 3b 3e 55 1d 0a 3e 76 6f 6a bd
       0.2127806 0.18283167 0.13487752 -0.057235204
000160 ea e8 19 3d be 21 c2 bd 65 24 bc bb 0f 7c 28 3e
       0.03757564 -0.09479092 -0.0057416433 0.16453575
000170 86 b1 99 3e 84 de 18 3e 81 3d 04 3e 31 ec 42 3e
       0.30018252 0.14928633 0.12914087 0.19035412
000180 04 f0 cd 3d e0 af ac 3d d3 73 46 3e 91 50 2f be
       0.10055545 0.08431983 0.19380121 -0.17120577
000190 28 71 9c bd ad b4 9e be c5 5f 53 be 10 91 76 be
       -0.0763877 -0.3099722 -0.20642002 -0.24078774
0001a0 20 98 c6 be ef b8 3d bd b5 71 06 3e 24 58 9c 3e
       -0.38787937 -0.046318945 0.13129313 0.30535996
0001b0 01 d6 b7 be 1b e2 c6 be 28 ac 3c be b2 d9 93 be
       -0.3590546 -0.3884438 -0.18425047 -0.28877026
0001c0 93 b0 2f bf c1 09 55 be 61 c1 e3 3c 36 f1 96 be
       -0.68628806 -0.20804502 0.027802171 -0.29480904
0001d0 97 08 6b 3e 55 eb 1e 3d 32 e8 76 bb a6 61 5e 3d
       0.22952496 0.03879865 -0.003767502 0.054292344
0001e0 02 f8 3d 3e ce 82 a0 3b 36 01 ca 3d 8c d8 ea 3d
       0.18551639 0.0048984056 0.09863512 0.11467084
0001f0 81 a4 07 3d f3 c7 a2 3e 58 20 3b bd 0a cf 33 be
       0.033115868 0.31793174 -0.045685142 -0.17559448
000200 6f 99 73 bd 63 bb c6 bd 37 90 b2 be e5 5f 7b be
       -0.059472498 -0.0970371 -0.34875652 -0.245483
000210 e0 3b 18 3e cd dd d7 bc 54 92 f8 bd 32 47 36 3d
       0.1486659 -0.02635088 -0.12137285 0.04450149
000220 c9 92 8c bd 4b 5b d8 bd 7a 41 e3 bd 85 94 05 bf
       -0.068639345 -0.10564288 -0.11096473 -0.5217975
000230 36 3a 2d be ec 15 85 3e e1 81 17 3d 93 94 92 3e
       -0.16916737 0.25993288 0.036989097 0.28628978
000240 e1 e0 c6 3d 69 47 4d bd 39 61 36 bc ad d5 87 bd
       0.09710861 -0.05011693 -0.011131578 -0.06632552
000250 83 72 ed 3e 78 0a a8 3e 6f 46 ef 3d 72 88 23 3f
       0.46376428 0.32820487 0.11683356 0.63880074
000260 f5 13 cb 3d 55 f9 ae bd 76 ed 1f bd 65 c9 9c 3d
       0.09915916 -0.0854365 -0.03904482 0.076556005
000270 f4 92 22 3c 91 ef af bc 86 d5 9e bd cf d1 93 bd
       0.009922732 -0.021476539 -0.0775557 -0.07217752
000280 75 dd b7 3d 11 77 4e be aa 68 51 3e 44 04 5d 3e
       0.089777865 -0.20162608 0.20450082 0.21583658
000290 f5 36 0d 3e bb 3c 90 bd ee d3 2f 3f df 91 6f 3e
       0.13790496 -0.070428334 0.68682754 0.23395489
0002a0 27 83 9b 3e 61 73 d1 3e 65 70 76 be 6a ef 44 3e
       0.303735 0.4090834 -0.24066313 0.19231954
0002b0 6e f5 62 be f2 a1 c9 bd ec 85 c7 bc bd 4f 6e 3d
       -0.22163936 -0.09845342 -0.024355851 0.058181513
0002c0 31 20 13 3d af 39 ed 3d 53 9c 3c be 15 5f dd be
       0.035919372 0.11583268 -0.18419008 -0.43236604
0002d0 7c 5c 4e be 21 1b b2 3c 15 88 fa 3d fb 55 f3 bc
       -0.20152467 0.021741452 0.12232987 -0.029704085
0002e0 cb fc 82 3e 09 e7 20 3e fd f7 61 3e 77 58 9f 3e
       0.2558349 0.15713133 0.22067256 0.3112218
0002f0 70 56 13 3e ac 72 0d bd da 1f 23 be e9 8f 8a 3d
       0.14388442 -0.034533188 -0.15930119 0.0676573
000300 67 f0 59 be 22 b8 d1 3d bb 89 14 be b5 fb 6f bd
       -0.21283112 0.10240199 -0.14505665 -0.058589656
000310 67 c2 6f be 96 05 4c be df 81 c9 3d b4 1c c2 bc
       -0.23414002 -0.19924006 0.09839224 -0.023695327
000320 13 9f 18 3c 10 c6 f7 bd 19 03 4f bd 33 bc 99 be
       0.00931527 -0.12098324 -0.050540064 -0.30026397
000330 90 a8 2b 3e c2 ee 3f be 6f fe 57 be 10 fe 62 be
       0.1676352 -0.18743423 -0.21093152 -0.2216723
000340 6a 30 94 b9 a1 5d 4d bd 00 92 25 bd e5 96 6a be
       -0.0002826483 -0.05013812 -0.04042244 -0.22909124
000350 57 d7 a9 bd 24 3c 30 bd 98 1a 17 be 92 e3 a5 3d
       -0.08293026 -0.043026105 -0.14756238 0.08100046
000360 d0 9b 8c 3d fa 66 87 3e 81 f2 53 3e cb c0 87 3d
       0.068656564 0.26445752 0.20697977 0.06628569
000370 29 47 52 3e 11 8a 10 3e ae 9b 68 3e cd a1 00 3e
       0.20534958 0.14115168 0.22715637 0.12561722
000380 4b 2c 4a 3e c8 20 23 bd 34 d9 d3 be 57 2b 17 bd
       0.19743459 -0.039826185 -0.4137665 -0.036906566
000390 ab af a5 be 58 b6 4a bf 6c c9 40 be 13 a1 3a be
       -0.32360587 -0.79184484 -0.18826836 -0.18225507
0003a0 63 f6 e4 be 2f cf 51 3d 50 8e 78 3d 47 8a 0a 3e
       -0.44719228 0.051222976 0.060682595 0.13529311
0003b0 0b c9 0f be 2a de 9a bd a8 fe ea 3c 04 5f 8c 3d
       -0.14041536 -0.07561906 0.028685883 0.0685406
0003c0 e6 23 a4 3c d8 ab 70 3e 2c 57 f2 3c 88 cc ed 3c
       0.020036649 0.23503053 0.029582582 0.029028192
0003d0 9e a5 fe bc 37 c5 90 3d d4 c0 49 be fd f0 ed be
       -0.031084832 0.07068866 -0.19702464 -0.46472922
0003e0 74 d4 bb bc e4 e4 bd bd f6 9f d9 bd 75 05 05 3e
       -0.022928454 -0.09272173 -0.10626213 0.12990363
0003f0 54 8a b3 bd ad d7 83 bd fc 1d 94 be 1c 76 a5 3c
       -0.08766618 -0.06437621 -0.28929126 0.02019792

features.14.bias f4 [16]
000000 3c 99 47 3c 50 2c 73 3d 0e 72 01 bd 77 1e a8 3b
       0.01218253 0.05936843 -0.03160291 0.005130585
000010 a3 ae c4 bb dd 66 65 bd 0f fb 29 3b 79 c9 02 3b
       -0.0060022636 -0.0560063 0.0025936996 0.0019956513
000020 28 b8 84 3d 6f 87 8b bc e8 f8 1a 3e a6 c3 d7 bd
       0.064804375 -0.017032353 0.15134013 -0.10535364
000030 09 00 78 3c 1e e0 04 3b 80 59 b1 bd 84 11 29 3d
       0.015136727 0.0020275186 -0.08659649 0.04127647

features.15.weight f4 [16]
000000 5d 22 63 3f 19 f0 34 3f 14 9b 7e 3f 64 a7 70 3f
       0.8872431 0.7067886 0.9945538 0.9400542
000010 7f e8 bd 3f 91 7d 77 3f 4b 81 7d 3f 36 67 af 3f
       1.4836577 0.96675974 0.9902541 1.3703372
000020 c4 d5 5c 3f 27 30 85 3f 25 79 60 3f c9 9a 81 3f
       0.8626368 1.040532 0.8768485 1.0125362
000030 fd 41 87 3f 7a 45 4f 3f 30 9d 8b 3f 06 2f 6f 3f
       1.0567013 0.8096539 1.0907345 0.9343113

features.15.bias f4 [16]
000000 ba e0 b4 3d 6d e4 2e 3e 2b 09 c8 3c 79 29 24 3e
       0.08831926 0.17079325 0.024418434 0.16031446
000010 a4 78 1c 3d 7b 3a da 3d 04 3f 50 3e 74 5d c0 3d
       0.03820099 0.106556855 0.20336539 0.09392825
000020 f8 be 87 bd 69 aa 09 3e 0b 95 ca 3e fe 45 01 3f
       -0.06628221 0.13443913 0.39566836 0.50497425
000030 4b 40 a7 3e d2 6d 8f bc 8f 7a 04 3f e6 d3 5e bd
       0.3266624 -0.017508421 0.5174951 -0.0544013

features.15.running_mean f4 [16]
000000 fb 66 0c c0 3e 46 0f bf 26 47 05 40 4c 16 a1 be
       -2.1937854 -0.55966556 2.0824676 -0.31462324
000010 60 40 8a c0 9c 0e 45 c0 b1 94 a4 be 55 cb b7 c0
       -4.3203583 -3.0790167 -0.32144693 -5.743571
000020 55 4f d0 bf ef 98 10 c0 d1 4d 1d 40 85 41 1e 40
       -1.627421 -2.2593343 2.4578745 2.472749
000030 49 dc 93 bf fb 41 64 bf d5 28 c5 bf cc fa c7 3f
       -1.1551601 -0.8916318 -1.5403086 1.5623412

features.15.running_var f4 [16]
000000 90 04 53 40 ad ad 54 40 93 90 20 40 cf 88 5c 40
       3.2971535 3.3231003 2.508824 3.4458501
000010 37 2f c2 40 00 cc 5e 40 42 f8 5f 40 48 70 a1 40
       6.0682635 3.4812012 3.4995275 5.044956
000020 c2 40 7f 40 bc 53 39 40 4c 1b a1 40 fd 29 99 40
       3.9883275 2.8957357 5.034582 4.7863755
000030 dc 18 4f 40 72 a6 22 40 bb 23 88 40 6f 03 6f 40
       3.2358923 2.541409 4.2543616 3.7345846

features.17.weight f4 [16, 16, 3, 3]
000000 f6 c0 5a 3d 3f 55 d9 3d e3 13 5d 3e c1 46 8d bd
       0.05340668 0.106119625 0.21589617 -0.06898261
000010 97 73 4a bd 2e 07 fd 3d c1 17 85 3e 74 ea 03 be
       -0.04942664 0.12354885 0.25994685 -0.12882406
000020 4e e0 19 3e 4d 1c a8 3c 20 5c 74 3d 9f 9a b9 be
       0.15026972 0.020521307 0.05965817 -0.3625078
000030 bd d9 14 be 26 54 ad 3d 59 86 f3 3b 17 7e b8 3d
       -0.14536186 0.08463316 0.007431787 0.09008425
000040 a2 43 9b 3d 74 0f 6f 3d 32 a1 e1 3c c5 b1 63 bd
       0.07581259 0.058364347 0.027542684 -0.055589456
000050 4c cd 27 3e 27 5d 11 3d ea 5d d6 3d da 0a 74 3e
       0.16386908 0.035489228 0.104671314 0.23832265
000060 d7 ff 5a be 6e 9a b4 bc bf 76 04 bd 5c 45 66 3e
       -0.21386658 -0.022046294 -0.032339808 0.22487396
000070 56 0b a8 3d e5 be 1f 3d bb c5 d6 3c 78 27 67 3e
       0.08205287 0.03900041 0.026217332 0.2257365
000080 66 e1 02 bd 51 16 46 bd 91 78 d1 3e 8f 81 01 bc
       -0.031953238 -0.048361126 0.40912297 -0.007904424
000090 bc 49 2e 3d dd 28 02 bd 1b d0 72 be 4a c6 0c 3d
       0.042550787 -0.03177725 -0.23712198 0.03436879
0000a0 c7 02 01 bd 11 2f 34 bf b1 aa e3 bc 95 44 56 3e
       -0.03149679 -0.7038432 -0.027791353 0.209246
0000b0 f6 2c 32 bf 16 d1 e0 bc 97 0e 86 be 07 df 9e bd
       -0.69599855 -0.02744345 -0.26183006 -0.07757383
0000c0 e7 38 01 bd f2 b0 de 3c cc 0e a7 bd 54 af d6 bd
       -0.031548407 0.027183983 -0.08157119 -0.1048266
0000d0 d5 44 63 3d 47 4c cd 3d 24 6a 80 be 45 8d 9f bd
       0.055485565 0.100243144 -0.2508098 -0.07790617
0000e0 52 d7 e9 3c 4c 7f 1a bd 8d 43 f5 3d 91 a3 0d 3e
       0.028545056 -0.037719056 0.11975775 0.13831927
0000f0 9a 4b d2 3d 71 93 1f 3e ba c9 6e 3d 31 71 2f 3e
       0.10268326 0.15583588 0.05829785 0.17133023
000100 cc 26 6b be f9 0d d7 be 4d df 81 3e 16 ea 1d be
       -0.22964019 -0.42002848 0.25365677 -0.15421328
000110 da 68 42 be e1 d0 ef 3e a9 1d 67 3e d7 c1 aa 3e
       -0.1898531 0.4683905 0.22569908 0.33351013
000120 15 db 05 3d ee 21 94 3d 13 9b 6f 3e 8f 8b 3c bd
       0.032679636 0.07233034 0.23399 -0.04603153
000130 70 fe 47 3e 3d 6a 54 3e 34 9c 74 bc b2 d0 bb 3d
       0.19530654 0.20743652 -0.01492982 0.09170665
000140 61 b5 46 3e d2 12 88 3d 0f 7c 43 3e 3d 36 92 3d
       0.19405128 0.06644215 0.19090293 0.071392514
000150 6c 86 c6 3d 23 33 50 3d bb a0 91 3e 74 2b c6 3c
       0.09693608 0.050830018 0.2844294 0.024190642
000160 d5 53 d8 3e 49 78 16 3f 3a a4 19 be 49 0c 69 3d
       0.4225146 0.5877729 -0.15004054 0.05689648
000170 f7 54 61 3e cf 31 72 3e 61 7d 1a 3f b5 8e 2a be
       0.22005068 0.23651813 0.60347563 -0.16656001
000180 23 1f 7c 3d 86 42 17 3f 58 9b 01 be e1 55 19 be
       0.06155313 0.5908588 -0.12656915 -0.14974166
000190 6a 8d c4 be e1 e6 e2 bc b8 d4 00 bc 15 e1 7a be
       -0.3838914 -0.027697982 -0.007863216 -0.24499924
0001a0 2f d0 6f 3e 70 20 a5 be 34 4d 70 3d 9a c4 84 be
       0.2341926 -0.3225131 0.058667377 -0.25931245
0001b0 66 c7 3b 3e 6f 43 a9 bd 5d 2e 39 be 3a 76 03 be
       0.18337783 -0.08264815 -0.18084092 -0.12838069
0001c0 9c 4f 4f be 8c a6 e5 3d 14 45 2f be 8d 64 da bd
       -0.20245212 0.11213407 -0.17116195 -0.1066371
0001d0 e3 fc 97 3d b2 81 85 3e a3 22 ab be 9b 50 47 3e
       0.07421281 0.26075512 -0.33424863 0.19464342
0001e0 3f b7 a9 3e 90 bc 26 3d a9 89 dc 3e 43 9d 53 3b
       0.33147618 0.04070717 0.43073776 0.003228978
0001f0 13 f2 80 3e d4 b2 4d 3e 8f 2b 1e 3e 81 50 46 3e
       0.25184688 0.20087749 0.15446304 0.19366647
000200 55 ec 5b be e5 cd ee 3e 85 5a 34 3e 3e ae 89 be
       -0.21476872 0.4664146 0.17612655 -0.2689075
000210 a0 4d a2 3d cd 94 3d 3d aa 7f de be 5a c8 b7 3d
       0.07924962 0.046284486 -0.43456775 0.08973761
000220 bb f1 43 bd 61 3c 40 3e d4 29 cc 3c ec 40 3b 3e
       -0.047837954 0.18773033 0.024922289 0.18286484
000230 67 15 84 3d 8a 3d 72 3e 7f 82 11 3e c4 66 54 be
       0.06449395 0.23656288 0.14209937 -0.20742327
000240 7f 01 88 be 88 90 99 3a 11 04 5c 3d d0 31 27 be
       -0.2656364 0.0011716047 0.053714816 -0.16327596
000250 b8 77 1c be 03 91 51 bd 04 1f 68 3d 69 79 43 ba
       -0.15280044 -0.051163685 0.056670204 -0.0007456751
000260 41 c7 ab bc b0 16 80 3d d6 82 0b ba 25 90 00 3e
       -0.020969035 0.06254327 -0.0005321925 0.12554987
000270 ad db 76 3d 4b 38 c0 3e 79 5f c1 3e ef 96 05 3d
       0.060268093 0.37542948 0.37768152 0.032614645
000280 ec 89 87 3e 8c 04 cb 3d e4 4a 2b be ed 87 a3 be
       0.26472414 0.099129766 -0.16727787 -0.3193964
000290 2f 7c 21 be 33 a3 71 3d e2 cf e1 3c 45 2f 21 3d
       -0.15770029 0.05899353 0.027564947 0.03935172
0002a0 ae 77 91 bd aa dc 49 3e 4f e1 4d 3e d1 f0 ad bb
       -0.07102905 0.19713083 0.2010548 -0.0053082486
0002b0 41 41 e6 3c a2 31 05 3e c5 45 05 be 2c 5d 2b be
       0.028107287 0.13007215 -0.13014896 -0.16734761
0002c0 ed 44 09 be d3 f0 41 be d2 85 3a 3d 14 ac 1c bd
       -0.134052 -0.18939523 0.045537777 -0.038250044
0002d0 90 ab 41 be 37 f3 e7 3d 1d 7b f5 3d e0 6f d2 3d
       -0.18913102 0.113256864 0.119863726 0.10275245
0002e0 67 2b 95 3e 3b 82 ba 3d 68 72 e1 3d a4 42 12 3f
       0.29134676 0.09106871 0.110081494 0.57132936
0002f0 ff bb d2 3e df b8 9d be 4c 4d 99 be 53 69 13 be
       0.41159055 -0.30805108 -0.29941785 -0.14395647
000300 02 93 c8 bd a1 b2 41 be 40 d3 2e be 01 2c 1d be
       -0.097936645 -0.18915798 -0.17072773 -0.15348817
000310 86 5e 01 be 3c 95 81 be 38 ba e3 3c 3b b1 c8 3d
       -0.12633714 -0.2530917 0.027798757 0.09799429
000320 86 f8 2d 3e 9c 4a b2 3c 6e 4f 1a 3e bb de 97 3e
       0.16989335 0.021764092 0.15069363 0.29662117
000330 21 bd a0 3e 36 d7 93 3e 39 7e fc 3e 41 94 c8 bd
       0.31394294 0.2887513 0.4931505 -0.09793902
000340 56 e7 9a be 07 18 a2 be f9 02 4d be 7e ab 3b be
       -0.3025462 -0.31658956 -0.20020665 -0.18327138
000350 21 d4 83 3c b3 a1 c0 be 81 71 6b be 89 b4 91 be
       0.016092362 -0.37623367 -0.22992517 -0.2845805
000360 e9 e4 37 3e 3b d0 ae 3d 74 51 63 3d 37 6b 91 bd
       0.17958416 0.085358106 0.0554976 -0.07100528
000370 9c 2d c1 bd cf 83 8d bd 41 49 b1 bd c6 6b 43 3d
       -0.094325274 -0.06909906 -0.0865655 0.047710203
000380 b1 a4 73 3e 51 1b 13 bc bf ec d9 bc 5a 5c 48 bd
       0.23793294 -0.008978681 -0.026602147 -0.0489162
000390 3f ce eb bd 9e c3 4d be 89 4d 61 be 5c a7 37 3e
       -0.11513948 -0.20094153 -0.22002234 0.17934936
0003a0 07 ee 66 be 1d b1 57 bd 7d 8b c1 3e 7e f2 52 3e
       -0.22551738 -0.052659143 0.37801734 0.20600316
0003b0 89 18 95 3b 5c 20 a1 be e1 c4 0c be ce 1d 52 be
       0.004550044 -0.3147 -0.13746978 -0.20519182
0003c0 01 ef 73 be 48 48 4b 3e ef c5 48 3e 05 7d 0f 3e
       -0.23821642 0.19851792 0.19606756 0.14012535
0003d0 05 94 80 bd 13 55 e8 bc 9f 7a b2 be 59 85 97 bd
       -0.062782325 -0.028360879 -0.34859177 -0.07398481
0003e0 3c 38 db bd 9b 6a 2f 3e 72 55 21 3d 61 a4 04 3d
       -0.10704085 0.1713051 0.039388128 0.032383326
0003f0 b3 a3 97 be 2f 00 48 be 3c 1d 9b be f8 78 b8 bd
       -0.2961708 -0.1953132 -0.30295742 -0.09007448

features.17.bias f4 [16]
000000 b8 86 b9 bb a8 3a 72 3d c1 c6 8b 3c f8 8e 4a bd
       -0.0056618117 0.05913797 0.017062547 -0.049452752
000010 ae 0c b3 3d d9 ee a9 bd 24 dd 0e bd ad 36 fc 3c
       0.08742653 -0.0829751 -0.034878865 0.03078779
000020 34 cb 8e bd 58 8a e9 3c 62 ba 93 bd 73 f9 e7 bd
       -0.06972352 0.02850835 -0.07213284 -0.113268755
000030 22 4d 51 bb c6 3e 6c 3d 30 2e 94 3d bc b2 79 3b
       -0.0031936844 0.057677053 0.07235372 0.0038100919

features.18.weight f4 [16]
000000 aa 0a 82 3f a9 1a 6e 3f 1f b2 80 3f 31 2a 71 3f
       1.0159504 0.9300943 1.0054358 0.94205004
000010 c1 3e 89 3f bc 55 86 3f df f0 81 3f 29 d3 81 3f
       1.0722276 1.0494914 1.0151633 1.0142566
000020 ee 0b 93 3f 14 98 74 3f bf bb 78 3f c9 f6 84 3f
       1.1488016 0.9554455 0.9716148 1.0387813
000030 9f 23 72 3f 25 4f 81 3f e8 e5 89 3f fe dc 81 3f
       0.94585603 1.0102278 1.0773287 1.0145566

features.18.bias f4 [16]
000000 ba d4 88 3d 56 cd be 3e a5 72 1e be e1 9f 6b 3e
       0.06681199 0.37266034 -0.15473421 0.23010208
000010 eb 76 18 3e 2a d7 5b 3e 24 d4 75 3d ad 1f 80 3e
       0.14889114 0.21468797 0.060016766 0.25024167
000020 06 71 85 bc df 96 89 3e 55 7e a9 3d 17 41 0c be
       -0.016289245 0.26872918 0.08276049 -0.13696705
000030 d2 2a d4 3d 15 3c 33 be 4d c6 e3 bd 82 97 0d bd
       0.1035973 -0.17503388 -0.11121807 -0.034568317

features.18.running_mean f4 [16]
000000 a8 4b bf 3f 29 d5 10 3e 7a ca ab 3d 74 8b 08 c0
       1.4944963 0.14143814 0.08388229 -2.1335115
000010 a2 c9 87 c0 05 2d 0e c0 ae 58 7a c0 72 c7 9c 3f
       -4.2433634 -2.2214978 -3.9116626 1.2248366
000020 60 28 99 3f e0 a0 28 c0 ee b0 d2 bf c2 d1 4c bf
       1.1965446 -2.634819 -1.6460245 -0.80007565
000030 09 b6 1d be 66 ad 5e bf cb 9a 8d bf 6f a4 e0 bf
       -0.15401472 -0.86983335 -1.1062864 -1.7550181

features.18.running_var f4 [16]
000000 27 eb c2 40 78 58 b1 40 ef 00 b2 40 65 78 99 40
       6.091205 5.5420494 5.562614 4.7959466
000010 d6 86 da 40 1f ff cc 40 b9 c7 80 40 6a 58 08 41
       6.8289595 6.4061427 4.02438 8.521585
000020 12 fe b9 40 e0 95 a9 40 1c 33 cc 40 88 aa ba 40
       5.8122644 5.2995453 6.381239 5.833317
000030 c9 ae 90 40 1a 4c b9 40 05 fc b0 40 f5 16 8d 40
       4.521336 5.7905397 5.530764 4.4090524

features.21.weight f4 [32, 16, 3, 3]
000000 26 15 05 bd d4 b8 77 be b0 76 df bd 20 8e 29 3f
       -0.03249087 -0.241916 -0.1091131 0.6623249
000010 af 48 32 3e c8 b8 08 3f e5 73 fa 3b 92 ae 4f be
       0.17410539 0.53406954 0.0076432102 -0.20281437
000020 04 af 01 3e e0 20 8b bd 26 13 81 3c a8 09 88 3e
       0.1266442 -0.0679338 0.015756201 0.26569867
000030 92 56 4d bd 1a cb 7b be 7d ce cc 3d 8a 77 bb 3d
       -0.050131388 -0.24589196 0.10000322 0.0915366
000040 48 fc a3 3e 84 0d 37 3e e6 85 75 be 92 d5 6f be
       0.32028413 0.1787625 -0.2397686 -0.23421314
000050 e3 8e ac be 05 e5 f4 3d 6c 26 8d be 6f df 0e 3f
       -0.33702764 0.119577445 -0.27568376 0.5580968
000060 0f c5 30 3c 93 49 1f be 4b d4 c5 3e 9c c4 28 be
       0.01078917 -0.1555541 0.3863853 -0.1648125
000070 2e d4 30 be f7 ef 6d bc 5f d5 e3 3e f1 3e 9c 3d
       -0.1726844 -0.014522544 0.44498727 0.076291926
000080 ce c2 05 3e 00 8e a0 3d 36 c9 15 bc a7 55 d0 3d
       0.13062593 0.07839584 -0.009142211 0.10172587
000090 ee ba 35 3e 38 73 c6 bd d1 19 ba ba 76 6c ef bd
       0.1774709 -0.09689945 -0.0014198368 -0.11690609
0000a0 d9 26 2d 3e 5e 8f 64 3e 2c 3b 1c be 71 8a 63 3e
       0.1690935 0.22320315 -0.15256947 0.2222078
0000b0 0c 5b be 3c 28 df 26 3d 50 80 0b 3e 25 39 16 3d
       0.023236774 0.040740162 0.13623166 0.03667559
0000c0 2f 79 6f be 06 8c 18 3e 28 88 35 be 90 c1 7e bd
       -0.23386072 0.14897165 -0.1772772 -0.062196314
0000d0 23 d9 20 3e f0 49 7c be 67 ae d7 b9 fd 7f c6 3e
       0.15707831 -0.2463758 -0.00041137935 0.38769522
0000e0 2b c9 63 be fc 62 69 3d fb 48 4e 3e cb 56 a5 bd
       -0.22244708 0.056979164 0.20145027 -0.08073195
0000f0 6f b5 d4 3d 7c bb 9e bd 25 ec cd 3c 2c c1 8e 3e
       0.10386168 -0.077506036 0.025137017 0.27881753
000100 fd 36 4f be 0b 97 83 3e ad 04 76 3d 7c c3 ea bd
       -0.2023582 0.25701174 0.060063053 -0.11463067
000110 0b f6 28 3d 45 bd b6 bd 2f e0 a7 be c2 03 2e 3d
       0.04125027 -0.08922819 -0.32788226 0.042484052
000120 fa f0 cb be 1b 31 84 be c6 2c 8c bd 4c ed 58 3d
       -0.39832288 -0.25818714 -0.06844477 0.05296068
000130 f5 88 6b 3c 97 ba c6 3d d3 8d c8 bd 11 9e 78 bc
       0.014375915 0.09703558 -0.09792676 -0.015174405
000140 9f 84 39 bd a3 7a af 3d b8 46 09 3d 2c 70 f2 bd
       -0.045292493 0.08568313 0.03351471 -0.11837801
000150 65 b5 ce bd 85 0a 9c 3e d8 38 c6 be 1a 1c 16 bd
       -0.10093192 0.30476776 -0.38715243 -0.036647893
000160 ba 2d 6d 3e 34 4b 9d 3d 4e 95 12 3d 73 3b 98 3d
       0.23161975 0.076803595 0.03578692 0.07433214
000170 4a 0f 04 3e 94 30 14 be 3a 32 0c be ed d5 2b be
       0.12896457 -0.14471656 -0.13691035 -0.16780825
000180 46 3f 99 be ec e6 0c be 41 aa 55 be 32 70 f4 3d
       -0.29931086 -0.13759965 -0.20865728 0.11935462
000190 09 6f 33 3c d5 9e 3d be 85 10 1e be d4 1a 71 3d
       0.010951766 -0.18517621 -0.15435989 0.058863476
0001a0 b7 9c 74 be a1 27 99 be 25 26 bb 3d 18 6c 3d be
       -0.23887907 -0.29913047 0.09138135 -0.18498266
0001b0 2b cc 14 3e e8 c6 81 bc be 85 82 3d 9b 82 38 be
       0.14531009 -0.015841916 0.063731655 -0.18018572
0001c0 fa 5b f1 bb 5e e1 af 3e 79 75 f3 bd 6c 21 82 3d
       -0.007365701 0.3435163 -0.118876405 0.06354031
0001d0 0e 4c dd 3d 3a 4e 92 bd 9b ed 8a bd 49 76 7f 3d
       0.10805522 -0.07143827 -0.06783601 0.062368665
0001e0 be 6b 77 be 95 df 62 be 05 2a 9d be da cc 81 bd
       -0.24162194 -0.22155602 -0.3069612 -0.063379005
0001f0 78 ea d8 be 8c 55 08 be fa f1 7e bd a1 fd 1b 3d
       -0.42366385 -0.13313884 -0.062242486 0.038083676
000200 31 1e 33 bc ea 9c 4a 3d df 16 16 3e 34 0b dc bd
       -0.010932491 0.04946605 0.14657162 -0.10744324
000210 c5 ce 85 bc 09 d1 d2 3d 8b cd 14 bd df 8b 92 bd
       -0.016333947 0.102937765 -0.036328834 -0.071555845
000220 17 20 cc bb 6c 82 c3 bd c9 b4 ed bd 3b 9d 09 be
       -0.0062294113 -0.095463604 -0.11606748 -0.13438885
000230 20 f2 68 be cf 41 58 3e 64 a2 41 be e5 8f 72 be
       -0.22748613 0.21118854 -0.18909603 -0.23687704
000240 d3 a9 6f bd 7a 22 17 3d 64 06 a0 be fc 24 30 3e
       -0.058511566 0.036898114 -0.31254876 0.17201608
000250 55 a6 fe bc 4a f3 07 be 6b 56 55 3c 5f bc 22 3e
       -0.031085173 -0.13276401 0.013021092 0.1589217
000260 fc 3e 21 3e 3e 36 41 be 8e be ef 3c 3f bc 81 bc
       0.15746683 -0.18868348 0.029265668 -0.015836833
000270 3f d6 8a bd bc 25 86 bc ac da e4 bd 90 f8 24 be
       -0.067791454 -0.016375415 -0.11174521 -0.16110444
000280 14 57 04 3e 82 06 08 be 40 4f f1 3d 37 7d 3c 3e
       0.12923843 -0.13283733 0.11782694 0.1840714
000290 e1 f3 74 be 70 d6 04 bc 3e 6f 13 3e ab ce a9 3d
       -0.23921157 -0.0081077665 0.14397904 0.08291372
0002a0 a9 20 c8 bd a8 72 0b 3c b1 c1 57 be 35 4d 05 3e
       -0.097718544 0.008511223 -0.21069981 0.13017733
0002b0 88 a9 ed 3e 97 57 95 3e 04 2e 45 be dc d6 7b be
       0.46418405 0.29168388 -0.19255835 -0.24593681
0002c0 73 bb 2d be d0 d2 0e 3e 1c 01 15 be f3 af c5 3d
       -0.16966037 0.13947606 -0.14551204 0.096527
0002d0 12 ee 43 3e 42 3e 09 3e 92 2c 33 bc b0 81 45 3e
       0.19133785 0.13402656 -0.010935919 0.19287753
0002e0 fa 6e 2d be 61 88 99 3d e1 8c 74 3e d8 01 e8 3d
       -0.16936865 0.07496715 0.23881866 0.11328477
0002f0 d8 78 64 3e 2d c8 01 bd 35 00 87 3e 27 8a 3f 3e
       0.22311723 -0.031685043 0.26367345 0.18705045
000300 e2 e7 20 be b0 58 61 be da 2f ea be 41 29 9f bc
       -0.15713456 -0.22006488 -0.45739633 -0.019428851
000310 e9 3a 64 3b f5 62 c8 bc f7 fe 39 3c df a3 98 be
       0.0034825152 -0.024461249 0.011352292 -0.29812524
000320 77 72 4e bd 5b 0e 6d 3e 02 e4 85 be 08 4a 22 be
       -0.05040213 0.23150007 -0.2615052 -0.15848553
000330 27 c7 8c 3e f6 00 ab 3c 5a 76 ad 3d be b6 e2 3d
       0.2749569 0.020874482 0.084698394 0.110700116
000340 e5 a8 af 3e 8d e7 9c 3e 44 c8 7b bd 4b 9b f4 bd
       0.34308544 0.3064541 -0.061470285 -0.11943682
000350 82 ad fa 3d cf 83 19 3d d8 c8 63 bc 6a f5 31 3c
       0.12240125 0.037479218 -0.013902865 0.010861734
000360 e4 d8 c1 be 17 b6 59 be 78 5e 99 bc 99 80 7d be
       -0.37860787 -0.21260868 -0.018721804 -0.24756087
000370 6b d9 e9 3e 2b 8b ca bd d9 50 9d bd d5 7d 18 3e
       0.4567369 -0.098898254 -0.07681436 0.14891751
000380 c6 a4 2d be 03 d1 81 3e 1e dd b9 bc c3 52 60 be
       -0.16957387 0.25354776 -0.022688445 -0.21906571
000390 af ed 66 be 92 c7 d9 be ed ed 86 be a7 24 b1 bd
       -0.22551607 -0.42535073 -0.26353398 -0.08649569
0003a0 63 52 00 be de 41 f2 3d a3 6d c7 bd d0 6c 94 be
       -0.12531428 0.118289694 -0.097377084 -0.28989267
0003b0 c0 67 71 be d9 59 5a 3d 9c fb 97 bd 52 44 02 bd
       -0.23574734 0.05330834 -0.074210376 -0.031803437
0003c0 38 fe 21 3e bf f1 17 3e 70 94 e7 bd 23 84 77 3e
       0.15819633 0.14838313 -0.11307609 0.241715
0003d0 2e 89 9b be 31 36 8a 3e a0 0d 80 be 0e 70 c6 be
       -0.30378097 0.2699447 -0.25010395 -0.38757366
0003e0 46 9d 83 bd 3b 8d 33 be 5f ef 4b bd 8a 61 80 bd
       -0.06426482 -0.17534344 -0.04978883 -0.06268604
0003f0 06 03 65 3c 9d ee a8 3d d2 c0 2b be 61 3f 97 3d
       0.013977772 0.08248637 -0.16772774 0.073851354

features.21.bias f4 [32]
000000 6e 4f 03 bc d9 d2 61 3d 52 6f 32 bd 30 a8 2a bc
       -0.008014543 0.05513272 -0.043563195 -0.010416076
000010 59 79 0d 3d b5 a5 a6 bc d7 d1 8f bb 01 12 72 bd
       0.034539554 -0.020342687 -0.0043890285 -0.0590992
000020 8e c7 20 bd 33 4b 42 ba 2e 29 12 3d 50 b1 c9 3a
       -0.03925281 -0.0007411718 0.035683803 0.0015387926
000030 0d e9 bc 3b 36 4e 53 bc 6d 30 2c 3d 12 a6 d4 3c
       0.0057650865 -0.012897065 0.04203837 0.025958095
000040 b1 d0 9c bc 41 66 1e bd 9d d8 d9 bb 25 8a 51 3c
       -0.01914248 -0.038671736 -0.006648137 0.012789284
000050 e5 1f 5b bd 5b 63 9d bb 60 44 3b bd 10 77 be bc
       -0.053497214 -0.004803104 -0.045719504 -0.023250133
000060 af f7 cc bc c3 dc 2f 3d 37 7b a0 bb 5e ff 04 3d
       -0.025020448 0.042935144 -0.004897501 0.0324701
000070 ed 1e af 3b 18 4e d4 bc 17 49 83 bc f7 8f 0d 3d
       0.005344263 -0.025916144 -0.016026063 0.034561124
