logs/VGG13_XXXS/Cifar10/VGG13_XXXS_bs32_e20_id1.model (torch_old, 169046 bytes, 72 tensors)

features.0.weight f4 [4, 3, 3, 3]
-0.0052806935 -0.0031348155 -0.64717984 0.22840326 -0.46251637 -0.09102393 -0.35249302 -0.46252668
-0.30391014 -0.023916999 -0.27114055 0.398637 0.07082739 0.31393835 0.06312976 -0.10174117
0.29237235 -0.41589567 -0.09831498 0.24826007 0.20643845 0.22592513 0.47642654 0.5828505
-0.060369115 0.057303887 0.37043524 -0.2011621 0.0030895332 0.29865032 -0.5726931 0.11811604
0.30507773 -0.038718343 0.27314764 0.06491291 -0.52995646 -0.21830265 -0.032456443 -0.2491166
-0.044752847 0.04486459 0.18506023 0.18330699 0.10925823 -0.20422776 0.35828033 0.28249344
-0.31667367 -0.07837561 0.24747269 -0.037261747 0.23776263 0.029691597 0.128833 0.38565692
-0.6031396 -0.4454529 0.043073032 0.122976884 -0.03660904 0.09333464 0.09258968 0.26853433
0.33202842 -0.39780322 -0.3322865 0.24761498 -0.21691246 0.052760184 0.22508068 0.17391604
0.4423227 -0.038809117 -0.4604842 -0.11978387 0.46724182 0.06704447 -0.03711005 -0.18558566
-0.14143236 0.5682403 0.32009822 0.022044115 0.29197964 -0.32510918 -0.022800606 -0.40767872
-0.07472242 -0.09484472 0.2213293 -0.21292768 0.17781664 -0.5019047 -0.2624633 -0.23487033
0.03764144 0.024674641 0.1974711 0.06753484 0.02924771 -0.09191489 0.06446196 -0.21181011
0.055014033 0.06581049 -0.22925314 0.34353903
00000000: ab09 adbb 7a71 4dbb 94ad 25bf 8be2 693e
00000010: f2ce ecbe c16a babd f779 b4be 4cd0 ecbe
00000020: 1c9a 9bbe 95ed c3bc efd2 8abe 261a cc3e
00000030: f30d 913d 87bc a03e 2d4a 813d ad5d d0bd
00000040: d4b1 953e 47f0 d4be 5d59 c9bd e337 7e3e
00000050: 9a64 533e eb58 673e 2eee f33e b135 153f
00000060: 9b45 77bd 7bb7 6a3d b0a9 bd3e 70fd 4dbe
00000070: c479 4a3b b2e8 983e 049c 12bf d3e6 f13d
00000080: 2633 9c3e 2097 1ebd 02da 8b3e 0ff1 843d
00000090: 3aab 07bf bb8a 5fbe 0cf1 04bd 6c18 7fbe
000000a0: c34e 37bd efc3 373d 6e80 3d3e d4b4 3b3e
000000b0: c7c2 df3d 1521 51be 8570 b73e fba2 903e
000000c0: 0d23 a2be 6483 a0bd 7b69 7d3e c69f 18bd
000000d0: 0c78 733e cb3b f33c ccec 033e d374 c53e
000000e0: 5b67 1abf 6712 e4be 596d 303d 4edb fb3d
000000f0: 5cf3 15bd 3b26 bf3d a89f bd3d 557d 893e
00000100: a1ff a93e ddac cbbe 7521 aabe c88e 7d3e
00000110: 4d1e 5ebe 101b 583d 8d7b 663e 0c17 323e
00000120: 1f78 e23e 4ff6 1ebd 96c4 ebbe 3f51 f5bd
00000130: 523a ef3e 9c4e 893d b500 18bd 2b0a 3ebe
00000140: a5d3 10be 3278 113f eae3 a33e dc95 b43c
00000150: 5b7e 953e b674 a6be 56c8 babc 44bb d0be
00000160: 1108 99bd f33d c2bd 26a4 623e b709 5abe
00000170: 9115 363e d47c 00bf 9761 86be d981 70be
00000180: e92d 1a3d 7922 ca3c dd35 4a3e b54f 8a3d
00000190: e598 ef3c e03d bcbd a204 843d c0e4 58be
000001a0: 6556 613d a6c7 863d 56c1 6abe 59e4 af3e

features.0.bias f4 [4]
-0.04560681 -0.15965664 -0.2313965 -0.105051994
00000000: 35ce 3abd 087d 23be 34f3 6cbe 8025 d7bd

features.1.weight f4 [4]
0.72699296 0.58277404 1.0246038 0.85745084
00000000: 361c 3a3f ae30 153f 3826 833f e681 5b3f

features.1.bias f4 [4]
0.065617345 0.06773233 1.1168189 0.72611606
00000000: 6362 863d 3fb7 8a3d ecf3 8e3f bee2 393f

features.1.running_mean f4 [4]
-0.17037638 -0.20622994 -0.32382494 0.027174369
00000000: 2577 2ebe f12d 53be 62cc a5be c89c de3c

features.1.running_var f4 [4]
2.8370292 3.092875 1.1875328 1.1474581
00000000: e391 3540 aaf1 4540 1301 983f e8df 923f

features.3.weight f4 [4, 4, 3, 3]
0.029516486 -0.5584366 -0.047204327 0.27106303 0.21906057 -0.32790875 0.23188905 0.06347028
-0.123264775 0.017835278 -0.5522798 0.024009304 -0.39652553 0.0010962887 -0.0658761 -0.07062715
-0.521258 0.06801313 0.00084762997 0.22531015 -0.420214 0.057687797 0.08249663 0.5430892
0.13418648 -0.094903 -0.053933233 -0.28409624 -0.35132778 -0.665946 0.0962292 -0.21440674
-0.026260575 -0.15161344 0.08714906 -0.07099776 0.14341871 0.078388356 -0.2681072 0.29181013
-0.13043685 -0.36182424 0.2143626 0.1190785 -0.47528473 0.034207515 -0.42755505 -0.15353185
0.19418354 -0.17773198 -0.14255351 0.12515366 0.21956627 -0.4045929 0.06979567 -0.0982123
-0.030763835 -0.79553795 0.75851357 -0.15438992 -0.35733163 -0.2985103 0.67177486 0.12167807
0.22601017 -0.336493 0.20049548 -0.13359082 -0.14075124 0.16180275 -0.33577892 0.09518656
0.09476929 0.091171056 0.4778538 -0.3514786 0.076861046 -0.036503248 -0.14186653 0.0410343
-0.1454422 -0.03750495 -0.45469818 -0.112784415 -0.20519653 -0.07182903 0.32800514 0.20376532
-0.20721358 -0.25940746 0.14333999 -0.21964236 -0.050387707 0.4582793 -0.35411477 -0.011424403
0.12731358 -0.3990718 0.25912052 -0.12347522 0.040053595 -0.3821363 -0.24461548 0.9341871
0.43095377 -0.49026397 0.16559811 -0.0064584026 0.50121427 0.360179 -0.06253884 -0.13078767
-0.23121084 0.14536938 -0.42105728 -0.11999039 0.1342116 -0.18658535 -0.5034081 -0.4733135
0.21232744 -0.2260512 0.47159752 -0.015371743 0.32879502 -0.00030751576 0.16463761 -0.2667628
0.004297381 -0.72065914 0.6592213 0.15290232 0.2543113 -0.30557543 -0.27999702 0.09178256
0.05648188 -0.07495533 -0.105141364 0.5225496 0.24089594 0.17338164 -0.07279316 0.04666765
00000000: 8fcc f13c b3f5 0ebf 5359 41bd c6c8 8a3e
00000010: 6a51 603e a8e3 a7be 5374 6d3e b5fc 813d
00000020: 3e72 fcbd 4a1b 923c 3562 0dbf 29af c43c
00000030: 6505 cbbe 58b1 8f3a 0cea 86bd f8a4 90bd
00000040: 2a71 05bf 784a 8b3d 7c33 5e3a b4b7 663e
00000050: 4a26 d7be 0a4a 6c3d fef3 a83d e507 0b3f
00000060: 2e68 093e 815c c2bd 18e9 5cbd 1075 91be
00000070: 3ce1 b3be 707b 2abf d113 c53d 718d 5bbe
00000080: 6b20 d7bc 8e40 1bbe 357b b23d 4667 91bd
00000090: 5bdc 123e 138a a03d 5945 89be 2368 953e
000000a0: 3d91 05be 0741 b9be df81 5b3e 6edf f33d
000000b0: 8558 f3be 2e1d 0c3d 7fe8 dabe 7437 1dbe
000000c0: 0dd8 463e 5fff 35be 8cf9 11be 4828 003e
000000d0: fbd5 603e cd26 cfbe 08f1 8e3d 8823 c9bd
000000e0: 7004 fcbc 60a8 4bbf f22d 423f 6418 1ebe
000000f0: 2cf4 b6be 58d6 98be 70f9 2b3f 5a32 f93d
00000100: 366f 673e cf48 acbe b04e 4d3e 08cc 08be
00000110: 1821 10be 9faf 253e 37eb abbe 2cf1 c23d
00000120: 6716 c23d e4b7 ba3d 41a9 f43e 01f5 b3be
00000130: 5369 9d3d 6e84 15bd 7645 11be 9513 283d
00000140: cdee 14be ca9e 19bd 33ce e8be 84fb e6bd
00000150: 0a1f 52be 191b 93bd 4af0 a73e dba7 503e
00000160: cc2f 54be 0ed1 84be b8c7 123e ede9 60be
00000170: 5763 4ebd 96a3 ea3e 884e b5be 6b2d 3bbc
00000180: 7e5e 023e 2453 ccbe 72ab 843e 93e0 fcbd
00000190: 3d0f 243d 5ea7 c3be 7b7c 7abe e326 6f3f
000001a0: f9a5 dc3e e103 fbbe 8d92 293e 02a1 d3bb
000001b0: 944f 003f 6269 b83e 5d14 80bd 34ed 05be
000001c0: 89c2 6cbe b6db 143e d294 d7be 86bd f5bd
000001d0: c46e 093e 3b10 3fbe 5adf 00bf 2656 f2be
000001e0: 5d6c 593e f779 67be 3b75 f13e c3d9 7bbc
000001f0: d257 a83e 113a a1b9 c396 283e 2295 88be
00000200: 0bd1 8c3b 1e7d 38bf bac2 283f 6d92 1c3e
00000210: 1735 823e 6274 9cbe c55b 8fbe 7ff8 bb3d
00000220: 8b59 673d 2e82 99bd 5b54 d7bd d0c5 053f
00000230: 6dad 763e f58a 313e 9514 95bd 9426 3f3d

features.3.bias f4 [4]
0.06990954 -0.24834765 0.16475123 -0.1383314
00000000: bc2c 8f3d d94e 7ebe 8cb4 283e bfa6 0dbe

features.4.weight f4 [4]
1.1099559 1.0043769 1.0038743 0.88543946
00000000: 0913 8e3f 6c8f 803f f47e 803f 29ac 623f

features.4.bias f4 [4]
0.6167237 0.010316434 0.09318191 0.27315256
00000000: 9be1 1d3f 4306 293c 28d6 be3d a7da 8b3e

features.4.running_mean f4 [4]
-0.92283005 -0.90086806 0.26667076 0.14111461
00000000: 973e 6cbf 4a9f 66bf 1289 883e 5980 103e

features.4.running_var f4 [4]
1.12895 1.4033071 1.7995063 0.8497463
00000000: 6f81 903f 919f b33f 3956 e63f f988 593f

features.7.weight f4 [8, 4, 3, 3]
-0.35279855 -0.11618317 -0.09492435 -0.564407 -0.24384402 -0.43722004 -0.012627556 -0.32396528
-0.121736996 -0.51321316 0.08783785 -0.01920338 0.14178233 0.42139843 0.21038714 0.2077373
0.12401876 0.18934591 0.1580338 0.08169265 0.04130469 0.29110113 0.08685305 -0.2198374
0.03792722 -0.08982214 0.028214918 0.12117485 -0.04001967 -0.2406365 -0.4888171 0.12155869
0.27656564 -0.009366986 0.32700425 -0.16706282 -0.17446786 0.15777738 0.07352236 -0.29659405
-0.44731912 -0.1132109 0.35120067 0.23005377 0.08246736 0.2420562 0.075796016 -0.1489988
-0.06739339 0.08175084 -0.16405804 0.045582376 -0.24151868 -0.19469215 -0.018960906 0.17992806
-0.041478056 0.3134271 0.4913893 0.20201534 -0.027867427 -0.09041352 -0.24692157 0.21392478
0.031556044 0.026255434 0.065466546 0.46045882 0.2935229 -0.18803643 -0.56477886 -0.38370994
-0.03315893 -0.0096725505 0.203274 -0.02376764 -0.19585587 -0.183398 -0.019449385 -0.32723486
-0.4375938 0.32114464 0.30304682 0.07694766 0.053743508 0.39398682 0.1893592 -0.04184161
-0.06187585 0.015439711 -0.13068046 -0.78019476 -0.322238 -0.22209415 -0.59598464 -0.22733206
0.07801494 0.006413308 0.16940388 0.29416096 -0.17150214 -0.31448138 -0.1053195 -0.42210057
0.115578525 0.0036367213 -0.23725036 0.1598476 -0.19586845 0.028690755 0.23690826 -0.50649184
0.29607072 0.5074994 -0.07430014 -0.30494392 -0.0077368473 -0.1664393 -0.01831056 -0.048823487
-0.33096397 -0.57861465 -0.27206752 0.17976716 -0.047040403 -0.08646346 -0.0463576 -0.40080908
-0.09367517 0.28392372 -0.0006780431 0.08846605 0.050544456 -0.34688348 -0.13133961 0.098878466
-0.17173673 0.108706184 -0.061004903 -0.13466832 -0.038482677 -0.017456418 -0.06899263 -0.29787052
-0.028706314 0.09786927 -0.22550811 -0.37975246 0.14658491 -0.13593826 0.044670958 -0.2201296
-0.16821572 -0.06671658 0.18473084 0.03542821 -0.11437801 0.27944577 0.07264973 0.015728215
0.07203975 -0.20135115 0.44496083 0.2654438 0.38966212 0.18934877 0.14992344 0.4174379
0.20884234 0.04202222 0.14952537 -0.010447469 -0.24458712 -0.25150424 -0.0640603 -0.38670105
-0.72351354 -0.101484105 -0.1885081 -0.16832167 0.13801228 -0.3134901 -0.31621826 0.537652
0.15543246 -0.12123006 -0.23593584 0.56834155 0.28008753 0.20377904 0.17829373 0.105063476
0.20000191 0.1078612 -0.10469847 -0.046444803 0.3964528 -0.123329915 -0.28157717 -0.018246038
-0.220382 -0.4453254 -0.067371905 -0.37294564 0.015815102 0.07943204 0.11939062 -0.020767383
0.09128694 0.023645429 0.19436073 0.07167517 -0.017715914 -0.07324758 -0.031155929 -0.06702959
-0.008739147 0.18659969 0.08916718 0.0628894 -0.04771349 -0.026209408 -0.24126206 0.17105715
-0.22578834 -0.3491374 -0.3797783 0.20567603 -0.6018939 -0.91980565 -0.20587453 0.0652116
-0.01778205 0.0102334935 -0.15582952 -0.024566324 0.07239761 -0.051011432 -0.2793367 0.37135854
-0.1508515 -0.10321714 0.061537653 0.23703544 0.45834628 0.042965952 0.29281944 -0.10628665
0.15607472 -0.041966893 -0.034763105 0.17087513 0.34492412 0.14116149 -0.44731864 0.3579721
00000000: 03a2 b4be 71f1 edbd b367 c2bd fa7c 10bf
00000010: 3fb2 79be 4edb dfbe cfe3 4ebc c7de a5be
00000020: 3f51 f9bd f061 03bf 55e4 b33d 6850 9dbc
00000030: 632f 113e 89c1 d73e ba6f 573e 16b9 543e
00000040: 8cfd fd3d e5e3 413e 9dd3 213e 7a4e a73d
00000050: 1b2f 293d 350b 953e 03e0 b13d 0e1d 61be
00000060: 9359 1b3d acf4 b7bd f922 e73c 852a f83d
00000070: aaeb 23bd 6a69 76be 3c46 fabe c3f3 f83d
00000080: 039a 8d3e fd77 19bc 1a6d a73e 8412 2bbe
00000090: b4a7 32be 6590 213e e492 963d 2ddb 97be
000000a0: 0307 e5be 1edb e7bd 93d0 b33e 3793 6b3e
000000b0: a6e4 a83d 95dd 773e f13a 9b3d 2493 18be
000000c0: 8c05 8abd fc6c a73d d5fe 27be 96b4 3a3d
000000d0: ac50 77be 615d 47be e753 9bbc 103f 383e
000000e0: e5e4 29bd 8479 a03e 6197 fb3e 1cdd 4e3e
000000f0: 3b4a e4bc b92a b9bd 02d9 7cbe 190f 5b3e
00000100: e940 013d a315 d73c 5313 863d 42c1 eb3e
00000110: a248 963e 9f8c 40be 5995 10bf a175 c4be
00000120: a8d1 07bd 9e79 1ebc 0f27 503e 5bb4 c2bc
00000130: 718e 48be afcc 3bbe 5154 9fbc 548b a7be
00000140: 4b0c e0be 126d a43e f428 9b3e bc96 9d3d
00000150: 2722 5c3d a4b8 c93e 61e7 413e 1c62 2bbd
00000160: 8871 7dbd d7f6 7c3c 19d1 05be d8ba 47bf
00000170: 61fc a4be a66c 63be 7392 18bf bcc9 68be
00000180: 4cc6 9f3d ba26 d23b 3678 2d3e 449c 963e
00000190: 429e 2fbe b403 a1be c0b1 d7bd 911d d8be
000001a0: 6fb4 ec3d 0f56 6e3b c2f1 72be 17af 233e
000001b0: bd91 48be e008 eb3c 1498 723e 73a9 01bf
000001c0: 9596 973e 7beb 013f ac2a 98bd 9c21 9cbe
000001d0: 6185 fdbb 106f 2abe 0700 96bc 23fb 47bd
000001e0: 1c74 a9be 1720 14bf 6f4c 8bbe e214 383e
000001f0: 70ad 40bd c113 b1bd 77e1 3dbd d936 cdbe
00000200: c4d8 bfbd 735e 913e b4be 31ba b02d b53d
00000210: b407 4f3d b69a b1be e47d 06be cb80 ca3d
00000220: c1db 2fbe 59a1 de3d 47e0 79bd 7ee6 09be
00000230: 03a0 1dbd c300 8fbc 024c 8dbd 7c82 98be
00000240: 8129 ebbc af6f c83d 99eb 66be ea6e c2be
00000250: 5b1a 163e 6633 0bbe e5f8 363d a769 61be
00000260: be40 2cbe b4a2 88bd 152a 3d3e 2c1d 113d
00000270: 053f eabd 8413 8f3e 62c9 943d 75d8 803c
00000280: 9489 933d ff2e 4ebe e8d1 e33e 40e8 873e
00000290: cb81 c73e a5e4 413e 8885 193e 6cba d53e
000002a0: c4da 553e 7e1f 2c3d 2e1d 193e dc2b 2bbc
000002b0: 0c75 7abe 2ac5 80be 0c32 83bd aefd c5be
000002c0: 2f38 39bf e6d6 cfbd 4408 41be 845c 2cbe
000002d0: 1753 0d3e c681 a0be 5ce7 a1be 90a3 093f
000002e0: b029 1f3e 7747 f8bd 2a99 71be d57e 113f
000002f0: a267 8f3e 74ab 503e a292 363e 852b d73d
00000300: 4dcd 4c3e 55e6 dc3d 276c d6bd e83c 3ebd
00000310: ddfb ca3e 6594 fcbd e22a 90be b778 95bc
00000320: d2ab 61be b101 e4be 48fa 89bd bbf2 bebe
00000330: ac8e 813c 44ad a23d 1283 f43d 5c20 aabc
00000340: a6f4 ba3d 0fb4 c13c 8006 473e 6eca 923d
00000350: f720 91bc d402 96bd b83a ffbc cf46 89bd
00000360: a42e 0fbc fd13 3f3e 489d b63d 28cc 803d
00000370: 386f 43bd 1db5 d6bc 670d 77be 9b29 2f3e
00000380: 0f35 67be 23c2 b2be 4d72 c2be bd9c 523e
00000390: b815 1abf 6278 6bbf c6d0 52be a98d 853d
000003a0: a9ab 91bc 62aa 273c c691 1fbe 513f c9bc
000003b0: 3345 943d 5df1 50bd 3805 8fbe b522 be3e
000003c0: d178 1abe 8263 d3bd e80e 7c3d 6bb9 723e
000003d0: 5dac ea3e 11fd 2f3d 6eec 953e d1ac d9bd
000003e0: 0dd2 1f3e 7ae5 2bbd c263 0ebd e4f9 2e3e
000003f0: e599 b03e a38c 103e f306 e5be 1e48 b73e

features.7.bias f4 [8]
0.055898122 -0.06663973 0.17447807 0.101702675 -0.05843397 -0.13382733 0.113573916 0.07203251
00000000: 6ef5 643d 697a 88bd 61aa 323e 7e49 d03d
00000010: 7558 6fbd 080a 09be 7199 e83d c885 933d

features.8.weight f4 [8]
0.68688226 0.9931754 0.92793334 1.1747335 0.9212893 0.7984341 0.9294398 1.14794
00000000: 84d7 2f3f be40 7e3f 0a8d 6d3f ab5d 963f
00000010: 9ed9 6b3f 2d66 4c3f c4ef 6d3f b3ef 923f

features.8.bias f4 [8]
0.41447103 0.072432406 0.23661073 0.38649413 0.8328837 0.35267127 0.3637858 -0.21554019
00000000: 8c35 d43e 7157 943d 154a 723e 8fe2 c53e
00000010: de37 553f 5491 b43e 2242 ba3e 91b6 5cbe

features.8.running_mean f4 [8]
-1.7429239 0.046350684 -2.0837088 -1.5837882 -1.0574565 0.6095731 -0.65319574 -1.058479
00000000: 2118 dfbf 37da 3d3d 7c5b 05c0 92b9 cabf
00000010: bc5a 87bf fc0c 1c3f d637 27bf 3d7c 87bf

features.8.running_var f4 [8]
1.9412502 3.1417387 2.100323 1.7764332 1.456887 1.500842 1.733532 1.3503367
00000000: e37a f83f 3f12 4940 b16b 0640 2a62 e33f
00000010: 467b ba3f 971b c03f 60e4 dd3f d5d7 ac3f

features.10.weight f4 [8, 8, 3, 3]
-0.11743016 -0.055055905 -0.014509616 0.3791671 -0.42013732 0.18261898 0.011956001 -0.041506447
0.2576433 -0.5135478 0.043531112 -0.08657257 -0.28939968 -0.32181266 -0.074067496 -0.023406914
-0.20233227 -0.23935673 -0.14674006 -0.22776784 -0.02624949 -0.22100252 -0.4600291 -0.10507078
-0.12736095 -0.47507384 0.12670924 0.094914824 -0.2942154 0.0605197 -0.15410227 -0.74771696
-0.064150855 -0.12563173 -0.2627583 -0.16711147 0.3893532 0.10442063 -0.15435109 0.6788224
0.24449813 0.21995834 0.12808053 0.023539703 0.13363712 0.05856746 0.14626558 0.22274578
-0.2598027 0.18116151 -0.044962414 -0.1017669 0.18148917 -0.29140478 0.26208138 -0.43854097
-0.3399757 -0.045345325 -0.542017 -0.19184716 -0.32196197 -0.24209532 -0.101180255 -0.13344271
-0.1304918 -0.003118175 -0.33330902 -0.08178528 -0.057717588 0.08583158 0.06954148 -0.0014536544
0.115790784 0.33265415 0.122742094 0.100138955 -0.06750537 0.35740724 -0.12974465 -0.18800634
0.050596524 0.123114154 -0.026330795 0.07650077 -0.07129901 -0.30664074 0.45967758 0.32227167
-0.3957165 0.13045757 -0.097530715 0.38644043 0.20411587 0.015853036 0.15710403 0.6832661
0.023276206 -0.08029863 0.10682393 -0.2793361 -0.08686173 0.1234982 -0.4162666 -0.5330887
0.2527085 0.18990745 -0.24920839 0.105263166 -0.12049299 -0.077096 0.39407817 0.3906807
-0.2835754 0.070984185 0.15150662 0.35824856 -0.23033169 0.22271463 -0.4747186 0.040048465
-0.034622267 0.08333351 -0.27663636 0.063054286 0.23753315 0.04608877 0.12239804 -0.0367139
-0.39830148 0.16433759 0.28483963 -0.15501185 -0.6160024 -0.27795082 -0.15902302 0.04630743
-0.093903586 -0.08059591 0.5332735 0.32900646 -0.031639263 0.24287648 0.46310386 0.32126826
0.09458721 0.15411063 0.36633247 -0.105451286 0.36897776 0.46730345 0.2785397 -0.28438488
-0.056322128 -0.36077842 -0.2295179 0.023178505 -0.1552995 -0.26510602 -0.09202681 0.021984497
0.1044185 0.18371978 0.22182535 0.16967922 -0.53330904 -0.02365639 -0.40827778 -0.6788225
-0.20344268 -0.4459526 0.019774007 0.009178465 -0.13502727 0.032452464 -0.07649887 -0.088638954
-0.3256397 -0.24780379 -0.1943933 0.4225703 0.17595166 -0.020824824 -0.1768188 0.0135786785
-0.078193404 -0.16609618 -0.30262884 -0.14128023 0.18823457 -0.064906366 -0.47644183 -0.40230703
-0.27941316 -0.2824547 0.087377705 -0.10877365 0.011481762 0.12288234 -0.17950177 0.11224358
0.06463516 -0.070003465 -0.104365356 0.08506301 -0.08143205 -0.13543023 -0.07279786 0.15644838
0.21531914 0.27964875 -0.041392915 0.16411875 -0.03897216 0.37380007 0.4043223 -0.1447211
-0.10472695 -0.040359072 -0.15293269 -0.15196292 -0.19135839 -0.026471047 0.25368786 -0.08279503
0.028708784 0.1648341 0.1884162 0.48562014 0.30987632 0.17926875 0.16213709 0.25677705
0.14425652 -0.064405724 0.0012378662 0.3622499 0.029993327 -0.36074904 -0.28405738 -0.2287378
-0.4361732 -0.44933495 -0.46706194 0.13127197 -0.12139169 0.19717912 0.48491406 0.22720799
0.093594715 -0.3214935 -0.38407284 -0.53266394 -0.010293787 0.37370518 -0.20846671 -0.31750453
00000000: 397f f0bd 4d82 61bd beb9 6dbc 3122 c23e
00000010: 3d1c d7be 7800 3b3e 1ae3 433c aa02 2abd
00000020: d3e9 833e de77 03bf ae4d 323d f64c b1bd
00000030: 322c 94be a1c4 a4be b3b0 97bd dbbf bfbc
00000040: 3130 4fbe ee19 75be 0743 16be f93b 69be
00000050: 2c09 d7bc 7c4e 62be ef88 ebbe 592f d7bd
00000060: e96a 02be e13c f3be 11c0 013e b462 c23d
00000070: 67a3 96be 81e3 773d fccc 1dbe 616a 3fbf
00000080: 8661 83bd 9ba5 00be 4288 86be 451f 2bbe
00000090: 4d59 c73e 7cda d53d 360e 1ebe 4ec7 2d3f
000000a0: b85d 7a3e c23c 613e 8b27 033e 56d6 c03c
000000b0: 2bd8 083e 6fe4 6f3d a5c6 153e 7817 643e
000000c0: dc04 85be 6782 393e 822a 38bd 2a6b d0bd
000000d0: 4cd8 393e 0233 95be 882f 863e 7188 e0be
000000e0: 4c11 aebe 05bc 39bd a0c1 0abf 9573 44be
000000f0: 33d8 a4be d6e7 77be 9837 cfbd 35a5 08be
00000100: a49f 05be 4c5a 4cbb 7ba7 aabe 0a7f a7bd
00000110: 4769 6cbd 78c8 af3d c36b 8e3d 8c88 beba
00000120: b823 ed3d a551 aa3e 3560 fb3d a715 cd3d
00000130: 4140 8abd 15fe b63e c8db 04be bc84 40be
00000140: 4d3e 4f3d 4623 fc3d aeb3 d7bc 70ac 9c3d
00000150: 3705 92bd 0400 9dbe dc5a eb3e cb00 a53e
00000160: 5a9b cabe ab96 053e 2fbe c7bd 85db c53e
00000170: c003 513e 3ade 813c e1df 203e 87ea 2e3f
00000180: bead be3c 9c73 a4bd 81c6 da3d 2405 8fbe
00000190: 90e4 b1bd a0ec fc3d e520 d5be 8078 08bf
000001a0: 0263 813e 1977 423e 7c30 7fbe 3794 d73d
000001b0: 07c5 f6bd 82e4 9dbd 9dc4 c93e 4d07 c83e
000001c0: cb30 91be 2860 913d 8d24 1b3e 5b6c b73e
000001d0: 12dc 6bbe 4e0f 643e 510e f3be dc09 243d
000001e0: 14d0 0dbd c2aa aa3d 48a3 8dbe 9b22 813d
000001f0: e43b 733e 94c7 3c3d d3ab fa3d 5061 16bd
00000200: 2cee cbbe 1d48 283e 80d6 913e 6dbb 1ebe
00000210: 55b2 1dbf 924f 8ebe eed6 22be dcac 3d3d
00000220: 8650 c0bd 780f a5bd 9d84 083f 8973 a83e
00000230: 2c98 01bd 9db4 783e f31b ed3e 467d a43e
00000240: f0b6 c13d 2dcf 1d3e ee8f bb3e d8f6 d7bd
00000250: a7ea bc3e 6642 ef3e c19c 8e3e e59a 91be
00000260: 08b2 66bd f3b7 b8be be06 6bbe d9e0 bd3c
00000270: d506 1fbe fabb 87be 8d78 bcbd d518 b43c
00000280: 5ed9 d53d 0a21 3c3e 2f26 633e 64c0 2d3e
00000290: f186 08bf 0ccb c1bc c909 d1be 50c7 2dbf
000002a0: 4753 50be e653 e4be 19fd a13c 4661 163c
000002b0: 9744 0abe e0ec 043d 71ab 9cbd 5788 b5bd
000002c0: 3fba a6be 47c0 7dbe 0a0f 47be 225b d83e
000002d0: ac2c 343e d298 aabc fd0f 35be 1b79 5e3c
000002e0: dd23 a0bd 1e15 2abe 2bf2 9abe c4ab 10be
000002f0: 90c0 403e a1ed 84bd 2ff0 f3be 30fb cdbe
00000300: 3e0f 8fbe e79d 90be 15f3 b23d b8c4 debd
00000310: 001e 3c3c bca9 fb3d 50cf 37be f6df e53d
00000320: 705f 843d fa5d 8fbd 81bd d5bd 8435 ae3d
00000330: d9c5 a6bd 39ae 0abe 0b17 95bd 0134 203e
00000340: 9f7c 5c3e 1f2e 8f3e 9e8b 29bd bf0e 283e
00000350: 46a1 1fbd b962 bf3e 5503 cf3e c531 14be
00000360: 157b d6bd 8e4f 25bd 639a 1cbe 2b9c 1bbe
00000370: 74f3 43be cfd9 d8bc 60e3 813e 7190 a9bd
00000380: af2e eb3c 45ca 283e 2df0 403e 34a3 f83e
00000390: 1ca8 9e3e 3a92 373e 4407 263e 4878 833e
000003a0: fbb7 133e 26e7 83bd e63f a23a d278 b93e
000003b0: 91b4 f53c 19b4 b8be f86f 91be 3e3a 6abe
000003c0: 1852 dfbe 3b0f e6be be22 efbe 296c 063e
000003d0: 359c f8bd 53e9 493e a846 f83e 36a9 683e
000003e0: 96ae bf3d cc9a a4be 32a5 c4be aa5c 08bf
000003f0: 46a7 28bc 4956 bf3e 4c78 55be f48f a2be

features.10.bias f4 [8]
0.051763467 -0.078682445 0.03827986 0.11470267 -0.090212755 -0.16683707 -0.10786018 0.116050564
00000000: ee05 543d 4324 a1bd 58cb 1c3d 3ce9 ea3d
00000010: 77c1 b8bd 56d7 2abe cce5 dcbd ebab ed3d

features.11.weight f4 [8]
1.128489 1.0174737 0.8653115 0.8712265 0.9475119 0.94558465 0.8540619 0.9814342
00000000: 5472 903f 943c 823f 0e85 5d3f b308 5f3f
00000010: 2490 723f d611 723f cda3 5a3f 463f 7b3f

features.11.bias f4 [8]
0.8256731 0.029603653 0.5329235 0.33829615 0.43094844 0.5490267 0.30146766 0.6117198
00000000: 505f 533f 5c83 f23c ad6d 083f 2735 ad3e
00000010: 46a5 dc3e 048d 0c3f f859 9a3e ab99 1c3f

features.11.running_mean f4 [8]
-2.0409522 0.7633577 -1.8368925 -0.4407768 -2.2904046 -4.843092 -0.23759536 -2.8278577
00000000: f69e 02c0 696b 433f 4b1f ebbf 7fad e1be
00000010: fd95 12c0 9cfa 9ac0 334c 73be 9ffb 34c0

features.11.running_var f4 [8]
4.67765 2.867723 1.6270409 3.0216506 2.8652663 2.7785077 2.6065824 2.1731524
00000000: 4faf 9540 c688 3740 e042 d03f b962 4140
00000010: 8660 3740 12d3 3140 3fd2 2640 ee14 0b40

features.14.weight f4 [16, 8, 3, 3]
-0.23016284 -0.07361189 0.23904315 -0.53970313 -0.5349996 -0.7245687 0.2405441 0.020874582
-0.30239472 -0.15170515 0.12909722 0.120789364 0.14651544 0.05623404 -0.18700933 0.20505676
0.4383003 -0.2432123 -0.39059716 0.039373234 -0.28926608 -0.29434666 -0.037492085 -0.26531672
-0.17149544 0.18520723 -0.017437965 -0.43227997 0.071774475 -0.27768368 0.03338003 -0.0862798
0.22519505 0.08066035 -0.08117821 0.087245286 0.032777533 0.13154505 -0.051981844 -0.07755962
-0.33534843 -0.3660143 -0.11830134 -0.15318395 -0.34610185 0.023510518 0.10915526 -0.1617283
0.1773157 -0.055076975 -0.08410636 -0.166078 0.031417623 0.09170774 0.044134676 0.09905729
0.03546153 0.13616565 0.11150959 0.028026354 -0.041183107 0.033349454 -0.017569777 0.18798603
0.09880357 0.16540308 0.092751734 0.13277428 -0.22664885 0.03906421 0.30126438 0.21669641
-0.07622628 0.011979728 0.09287806 -0.0048172455 0.15559667 0.27054977 -0.13185903 -0.18665957
0.079745114 -0.083982885 0.0463696 0.028046187 -0.14673184 -0.038550373 -0.10442769 -0.049911827
-0.15343173 -0.00896356 -0.2736054 0.031592105 -0.22592466 0.15790886 0.2997369 -0.12267746
0.31499758 0.38626468 -0.15830559 -0.3589732 -0.10045804 -0.032475144 -0.16872664 -0.12724383
0.07839261 -0.1935978 -0.3016445 -0.08601361 -0.20745093 -0.34310675 0.16621502 -0.08220834
-0.025341107 0.339196 -0.10786107 -0.15471287 0.08545485 -0.039097458 -0.47489193 -0.1461058
0.1309823 -0.4905753 -0.16422978 0.08664383 -0.08045159 0.018435834 0.092179924 0.061588548
0.31965023 -0.12335168 -0.44760722 0.4074299 -0.29274142 -0.39201748 -0.11823721 -0.020620361
-0.2504354 -0.10176466 -0.1831371 -0.45233178 0.031962704 0.038350396 -0.39991373 0.06891715
-0.0869504 0.100334175 -0.08004475 -0.4340512 0.36091223 0.09217209 -0.5167086 0.46718073
0.02405019 -0.11667114 0.011364054 -0.016576137 -0.38419482 0.20322786 0.34850138 -0.32651797
0.32158363 -0.07137682 0.04050202 0.28591663 0.13816127 0.09591712 0.6168672 0.06622614
-0.046995185 -0.10109829 -0.07189884 -0.026526 -0.3138585 0.11956256 0.25763232 -0.20423432
-0.20729984 0.00944158 -0.10348281 -0.16309334 -0.1914468 -0.052812885 0.036560357 0.046659477
0.20043598 0.04354122 -0.07856434 0.26258716 0.11525402 0.03756376 0.2956513 -0.023388587
0.24888672 0.030574199 -0.047172755 0.32102773 -0.26548868 -0.4131919 0.061990555 0.13802187
0.26843444 0.03409722 -0.136857 -0.03303859 0.058841962 -0.22930524 -0.04374908 -0.22409852
0.02844237 0.08881553 -0.15952812 -0.058728255 0.084073946 -0.14504035 -0.06959601 -0.09812236
-0.012855361 -0.19520417 -0.09741713 0.12151357 -0.12740962 0.065891266 0.35574725 0.03666455
0.29170927 0.08445797 0.004969464 -0.0052033244 0.18626413 0.26276582 0.16992617 -0.20430754
-0.08915626 0.14799151 -0.22555012 -0.2041143 -0.06424311 0.57939756 0.24429108 0.04400602
0.010381128 0.103163995 -0.27114996 -0.1191206 -0.13588105 -0.042009886 0.023620566 0.20781189
-0.023466399 0.19861455 0.025208557 -0.040265914 0.11144916 0.32457772 0.2764705 -0.101683356
00000000: cfaf 6bbe d5c1 96bd bac7 743e fc29 0abf
00000010: bcf5 08bf 567d 39bf 3151 763e 2c01 ab3c
00000020: 7bd3 9abe 9858 1bbe 1032 043e 6a60 f73d
00000030: 2508 163e aa55 663d 607f 3fbe 66fa 513e
00000040: e668 e03e a50c 79be 5afc c7be d445 213d
00000050: af1a 94be 9bb4 96be 4d91 19bd 98d7 87be
00000060: 809c 2fbe f7a6 3d3e 10da 8ebc cd53 ddbe
00000070: 7ffe 923d 8e2c 8ebe 80b9 083d 77b3 b0bd
00000080: 8899 663e 4131 a53d c340 a6bd a8ad b23d
00000090: bc41 063d bfb3 063e eaea 54bd 94d7 9ebd
000000a0: cab2 abbe 3a66 bbbe f947 f2bd 41dc 1cbe
000000b0: 4334 b1be 2199 c03c cb8c df3d 1a9c 25be
000000c0: 3f92 353e 6598 61bd f53f acbd 5a10 2abe
000000d0: c4af 003d 45d1 bb3d 90c6 343d 8cde ca3d
000000e0: 1c40 113d 026f 0b3e 245f e43d 8697 e53c
000000f0: 9eaf 28bd 7099 083d 7eee 8fbc 697f 403e
00000100: 8759 ca3d 6d5f 293e 9ff4 bd3d fbf5 073e
00000110: a316 68be cb01 203d 533f 9a3e aae5 5d3e
00000120: 861c 9cbd 9f46 443c da36 be3d fcd9 9dbb
00000130: bc54 1f3e 8085 8a3e 0e06 07be b023 3fbe
00000140: 6851 a33d 38ff abbd 0dee 3d3d 1ec1 e53c
00000150: df40 16be ffe6 1dbd 2fde d5bd 5870 4cbd
00000160: 351d 1dbe e5db 12bc 0216 8cbe b966 013d
00000170: cb58 67be dcb2 213e 1d77 993e 523e fbbd
00000180: 5d47 a13e 7cc4 c53e dc1a 22be 56cb b7be
00000190: f2bc cdbd a804 05bd adc6 2cbe 354c 02be
000001a0: 4e8c a03d 803e 46be 2671 9abe e727 b0bd
000001b0: 046e 54be b0ab afbe 4534 2a3e d95c a8bd
000001c0: 2798 cfbc 19ab ad3e 44e6 dcbd 0d6d 1ebe
000001d0: f402 af3d a824 20bd 0925 f3be c29c 15be
000001e0: 3920 063e b02c fbbe da2b 28be 5272 b13d
000001f0: cec3 a4bd bf06 973c d4c8 bc3d 4644 7c3d
00000200: 32a9 a33e ce9f fcbd c62c e5be a79a d03e
00000210: 34e2 95be 84b6 c8be 5a26 f2bd 08ec a8bc
00000220: 1239 80be fd69 d0bd 4b88 3bbe 0898 e7be
00000230: 53eb 023d 4e15 1d3d 7ec1 ccbe 6f24 8d3d
00000240: 0d13 b2bd 017c cd3d 80ee a3bd f53b debe
00000250: 7dc9 b83e b9c4 bc3d 0447 04bf 5032 ef3e
00000260: e704 c53c 47f1 eebd 4c30 3a3c aeca 87bc
00000270: 2fb5 c4be f71a 503e c66e b23e 5d2d a7be
00000280: 9ca6 a43e 032e 92bd 72e5 253d aa63 923e
00000290: 267a 0d3e 3270 c43d 02eb 1d3f 92a1 873d
000002a0: 067e 40bd 9f0c cfbd b33f 93bd 0e4d d9bc
000002b0: 10b2 a0be 37dd f43d 62e8 833e cd22 51be
000002c0: 6946 54be dbb0 1a3c ccee d3bd f101 27be
000002d0: a10a 44be 5352 58bd 50c0 153d 021e 3f3d
000002e0: 173f 4d3e 4758 323d 57e6 a0bd d371 863e
000002f0: 4d0a ec3d 75dc 193d 9b5f 973e 6c99 bfbc
00000300: 29dc 7e3e be76 fa3c 3838 41bd bf5d a43e
00000310: 22ee 87be e48d d3be cfe9 7d3d 9b55 0d3e
00000320: 3d70 893e 87a9 0b3d 3e24 0cbe 7953 07bd
00000330: 4504 713d fece 6abe 3c32 33bd 157a 65be
00000340: f9ff e83c ebe4 b53d 575b 23be 0a8d 70bd
00000350: f62e ac3d 7585 14be 5a88 8ebd 60f4 c8bd
00000360: 4b9f 52bc 9ae3 47be a282 c7bd 1bdc f83d
00000370: ab77 02be 00f2 863d 8124 b63e 912d 163d
00000380: eb5a 953e 4df8 ac3d e3d6 a23b a680 aabb
00000390: 06bc 3e3e 3e89 863e 2001 2e3e ff35 51be
000003a0: 8f97 b6bd 168b 173e 9cf6 66be 5703 51be
000003b0: e491 83bd 6653 143f 7127 7a3e a83f 343d
000003c0: 9b15 2a3c a547 d33d 2bd4 8abe 80f5 f3bd
000003d0: 6724 0bbe 8f12 2cbd eb7f c13c a4cc 543e
000003e0: 9b3c c0bc 9d61 4b3e 2d82 ce3c dfed 24bd
000003f0: 753f e43d 0d2f a63e 8b8d 8d3e 5d3f d0bd

features.14.bias f4 [16]
0.021024069 -0.0727386 0.056184206 0.1035192 -0.044156216 0.041791145 0.023885595 0.002123777
0.067989945 -0.0489477 -0.059763547 0.0075801546 0.09881535 -0.021615868 -0.04657196 -0.02142089
00000000: ab3a ac3c faf7 94bd 6921 663d e001 d43d
00000010: 26dd 34bd 312d 2b3d b9ab c33c 112f 0b3b
00000020: 503e 8b3d 627d 48bd 9fca 74bd f262 f83b
00000030: b45f ca3d c313 b1bc 3dc2 3ebd dd7a afbc

features.15.weight f4 [16]
1.1280562 1.1759235 1.1700927 0.9078079 1.0018156 1.1552501 0.81962246 0.9255922
0.9893502 1.0794561 0.99757785 1.0709517 1.0441242 0.8472756 0.94197744 0.95018923
00000000: 2564 903f a984 963f 99c5 953f 1966 683f
00000010: 7e3b 803f 3cdf 933f c7d2 513f 9cf3 6c3f
00000020: 0e46 7d3f 9e2b 8a3f 4361 7f3f f214 893f
00000030: dda5 853f 0ee7 583f 6f25 713f 9a3f 733f

features.15.bias f4 [16]
0.012437744 0.19508873 0.024922471 0.1249771 0.067247145 0.120959155 0.0010134154 0.35003528
0.08762361 0.26599473 0.06151603 -0.031084776 0.4008821 0.049212698 0.29894102 0.14509115
00000000: aec7 4b3c 57c5 473e 362a cc3c fef3 ff3d
00000010: dfb8 893d 6fb9 f73d 94d4 843a d337 b33e
00000020: 0274 b33d 7630 883e 3cf8 7b3d 80a5 febc
00000030: 6b40 cd3e 4193 493d cc0e 993e c692 143e

features.15.running_mean f4 [16]
-3.1585808 -3.7910507 1.0530006 1.3275841 1.5974066 -3.2695096 0.5595729 -1.6509295
1.0170349 2.1050122 -1.0709378 0.2325977 0.45269066 0.92040324 1.9402716 0.15366058
00000000: 3026 4ac0 93a0 72c0 b9c8 863f 47ee a93f
00000010: d277 cc3f a53f 51c0 2b40 0f3f a851 d3bf
00000020: 332e 823f 85b8 0640 7d14 89bf 172e 6e3e
00000030: 12c7 e73e 8c9f 6b3f d25a f83f 3359 1d3e

features.15.running_var f4 [16]
3.5913887 4.684622 3.3761756 2.7248242 5.456378 5.1888895 2.8685105 4.453321
3.95479 4.3400936 3.391321 4.9342346 3.273643 2.6996257 5.3288684 4.980744
00000000: 50d9 6540 6ce8 9540 4313 5840 8563 2e40
00000010: a69a ae40 620b a640 ad95 3740 9b81 8e40
00000020: 481b 7d40 0ce2 8a40 670b 5940 40e5 9d40
00000030: 5e83 5140 abc6 2c40 1786 aa40 4162 9f40

features.17.weight f4 [16, 16, 3, 3]
-0.14884217 -0.13931546 0.065665 -0.0012817649 -0.22373517 -0.004577544 0.24280006 0.0014305637
-0.07120925 0.14060211 0.33245918 -0.21357457 0.115612574 0.28697497 -0.13628118 0.32161355
0.37505484 0.25396448 -0.1550282 0.23244861 -0.25219378 -0.16246918 0.0020258545 -0.020385934
-0.09285138 0.07307693 -0.048220012 0.18689589 0.3320973 -0.16588263 0.23003133 0.22646713
-0.01740466 -0.29710472 0.1656012 -0.11918188 0.031296875 -0.20066446 -0.18357782 0.07406151
0.22187346 0.12617974 0.07127658 -0.034206074 -0.09987079 -0.24941224 -0.2874679 -0.012608415
-0.0560337 -0.12018879 -0.22506139 -0.026083784 -0.13150239 0.15450677 0.1703714 -0.10093329
0.1221661 0.08177188 0.11672244 -0.05238617 -0.42777738 -0.021967437 -0.109808184 0.082951844
-0.055625252 -0.21403387 0.026816 0.24089082 0.27397016 -0.13779552 0.109290846 0.075374894
0.0015028527 -0.13325132 -0.05322959 0.21261878 0.473078 0.006994881 0.30819076 0.18547256
-0.026173674 0.08406153 0.055305 0.028924491 0.006370854 0.036279842 0.071414724 0.013664117
0.001291521 0.21763402 -0.104774065 0.12280985 -0.41543666 -0.08075033 -0.08004919 0.30453908
-0.09010537 0.006106878 0.3979613 -0.08008486 -0.16546842 0.35466987 -0.38040298 -0.2755939
-0.13173658 -0.21033444 -0.38036808 0.046061363 -0.0069251033 0.0615153 0.21087432 0.151501
0.13887826 -0.060203925 0.46000326 0.09561173 -0.15115078 0.29914418 0.31725284 0.12487001
0.13642251 0.10409413 0.15162538 0.26890433 0.28740996 0.2858375 0.38242468 0.08606378
-0.34759444 0.026931822 -0.26909488 -0.34894463 -0.019182367 -0.028439607 -0.57122356 0.06713768
-0.06484685 -0.27642027 -0.009208497 0.22322239 -0.14019567 0.5095401 0.17969838 0.38685304
-0.02782822 0.5727102 0.20942788 0.21291456 0.26126975 -0.19126676 0.06250896 0.27219316
-0.30907217 -0.2735983 0.007859201 0.16684978 -0.28767303 -0.18943626 0.26782185 0.06905841
-0.00804228 0.014711822 -0.063117355 -0.23927854 -0.14692043 -0.074541606 0.14164469 0.1476438
-0.048104916 -0.020611394 0.13177973 -0.41435748 -0.2704035 -0.033461317 0.06894904 -0.34176052
-0.002691911 0.2694446 -0.075663716 -0.0020936073 0.37110966 0.032054342 0.21340992 0.47888088
0.1825344 0.17702563 -0.08055684 0.26747224 0.2539374 -0.20934036 0.30716243 0.5861115
-0.16012637 0.31085134 0.2816393 0.07985246 0.108494036 -0.036463793 -0.1960174 -0.1559002
-0.2644124 -0.004198894 -0.267614 -0.34532347 -0.19774482 -0.052790195 -0.3077999 -0.04743236
-0.17673656 0.21410185 0.0845128 0.21658297 -0.07454325 -0.019080225 0.020818146 0.24636921
-0.0989374 0.13152929 -0.064249285 -0.12513661 -0.007174548 0.15633902 0.43033406 0.021333065
0.25677255 0.21128906 0.12024968 0.28832528 0.15444916 0.20419067 0.103551485 0.0032802448
-0.051583227 -0.070262454 0.24590592 0.16534929 -0.31338271 -0.05857615 0.1903236 -0.15451413
-0.2692416 0.04067675 0.061907984 -0.23014428 -0.32393047 -0.047252722 0.38745305 0.28795904
0.017721212 0.088033184 0.21431223 0.24993826 0.1794078 0.14208676 0.16519965 0.08608003
00000000: 156a 18be b6a8 0ebe 5f7b 863d e500 a8ba
00000010: d51a 65be 39ff 95bb 94a0 783e c181 bb3a
00000020: 28d6 91bd 00fa 0f3e 1738 aa3e 4bb3 5abe
00000030: 49c6 ec3d 62ee 923e 4b8d 0bbe 88aa a43e
00000040: 3007 c03e a207 823e b6bf 1ebe 0207 6e3e
00000050: 8b1f 81be 525e 26be 33c4 043b 6700 a7bc
00000060: dd28 bebd 5ca9 953d 5982 45bd a361 3f3e
00000070: a808 aa3e 23dd 29be 558d 6b3e 00e7 673e
00000080: 3894 8ebc 1c1e 98be 5c93 293e a115 f4bd
00000090: 2731 003d fc7a 4dbe d3fb 3bbe 90ad 973d
000000a0: cc32 633e 4335 013e 75f9 913d ab1b 0cbd
000000b0: 0f89 ccbd ec65 7fbe fe2e 93be 8793 4ebc
000000c0: 9883 65bd 8a25 f6bd 7e76 66be a9ad d5bc
000000d0: 90a8 06be 0637 1e3e d775 2e3e 1db6 cebd
000000e0: 3832 fa3d 0478 a73d 2d0c ef3d e192 56bd
000000f0: a305 dbbe 0ef5 b3bc 1de3 e0bd a8e2 a93d
00000100: 4ed7 63bd b22b 5bbe 3aad db3c 15ac 763e
00000110: d145 8c3e 451a 0dbe e1d3 df3d 275e 9a3d
00000120: 5efb c43a 0973 08be 4507 5abd bdb8 593e
00000130: 4837 f23e 5135 e53b 2ecb 9d3e 85ec 3d3e
00000140: 2c6a d6bc 7428 ac3d 7f87 623d 0ef3 ec3c
00000150: 99c2 d03b 2c9a 143d e241 923d 76df 5f3c
00000160: 4148 a93a 74db 5e3e c993 d6bd bb83 fb3d
00000170: 1db4 d4be 6e60 a5bd d4f0 a3bd 8cec 9b3e
00000180: 2a89 b8bd 351c c83b 95c1 cb3e 8803 a4bd
00000190: 8e70 29be 4a97 b53e 2ec4 c2be a51a 8dbe
000001a0: f4e5 06be e961 57be 9bbf c2be d7aa 3c3d
000001b0: faeb e2bb 78f7 7b3d 70ef 573e 1423 1b3e
000001c0: 1a36 0e3e 6498 76bd 8c85 eb3e 15d0 c33d
000001d0: 45c7 1abe 6d29 993e f76e a23e d9bb ff3d
000001e0: 58b2 0b3e 4e2f d53d af43 1b3e d4ad 893e
000001f0: 6627 933e 4b59 923e 2bcd c33e 3542 b03d
00000200: e6f7 b1be 20a0 dc3c cec6 89be dfa8 b2be
00000210: 5724 9dbc 2efa e8bc b53b 12bf 7b7f 893d
00000220: 6dce 84bd f586 8dbe 3cdf 16bc 6994 643e
00000230: 748f 0fbe 3871 023f da02 383e 9a11 c63e
00000240: 02f8 e3bc 239d 123f 4374 563e 4606 5a3e
00000250: 26c5 853e 6fdb 43be b304 803d e75c 8b3e
00000260: b53e 9ebe 1415 8cbe e1c3 003c abda 2a3e
00000270: e149 93be 94fb 41be f21f 893e 7f6e 8d3d
00000280: c4c3 03bc db09 713c ac43 81bd 6f05 75be
00000290: 4f72 16be 45a9 98bd 4e0b 113e f02f 173e
000002a0: a909 45bd 3ad9 a8bc 44f1 063e aa26 d4be
000002b0: 5472 8abe bc0e 09bd 2735 8d3d 3cfb aebe
000002c0: c66a 30bb a5f4 893e 94f5 9abd e734 09bb
000002d0: 1602 be3e 6a4b 033d 2188 5a3e e02f f53e
000002e0: 4cea 3a3e 3546 353e fcfa a4bd 1ff2 883e
000002f0: 1504 823e 525d 56be 6544 9d3e 670b 163f
00000300: 2bf8 23be e827 9f3e 0733 903e b089 a33d
00000310: 1f32 de3d 0f5b 15bd c9b8 48be 4da4 1fbe
00000320: 1061 87be e096 89bb b404 89be 3dce b0be
00000330: 9e7d 4abe 883a 58bd f397 9dbe 6f48 42bd
00000340: 6efa 34be 843d 5b3e 0c15 ad3d edc7 5d3e
00000350: 22aa 98bd 224e 9cbc d18a aa3c 3648 7c3e
00000360: b19f cabd 9daf 063e 2195 83bd d023 00be
00000370: 7918 ebbb 5617 203e bf54 dc3e aec2 ae3c
00000380: b177 833e 295c 583e 7745 f63d 5f9f 933e
00000390: ec27 1e3e 5c17 513e cd12 d43d 60f9 563b
000003a0: ef48 53bd c3e5 8fbd c3ce 7b3e 5351 293e
000003b0: b373 a0be 8ced 6fbd 31e4 423e f438 1ebe
000003c0: 09da 89be aa9c 263d 3a93 7d3d f1aa 6bbe
000003d0: 37da a5be 128c 41bd 3f60 c63e 5e6f 933e
000003e0: 132c 913c be4a b43d aa74 5b3e d1ef 7f3e
000003f0: aeb6 373e 317f 113e 192a 293e ba4a b03d

features.17.bias f4 [16]
0.03677351 -0.065067545 -0.028530277 0.09528875 -0.04027014 -0.00055625325 -0.026384743 0.04588757
0.013008058 -0.08696703 0.0053101582 0.02320837 0.081533626 -0.05738238 0.03569418 0.017462678
00000000: d29f 163d 2242 85bd 54b8 e9bc c026 c33d
00000010: 4df2 24bd 86d1 11ba d124 d8bc 9bf4 3b3d
00000020: c01f 553c c51b b2bd d600 ae3b 7b1f be3c
00000030: 1afb a63d c909 6bbd 0f34 123d e40d 8f3c

features.18.weight f4 [16]
0.7976356 1.0777303 0.9482052 1.085873 0.8681784 1.2269309 1.037857 1.0076442
0.9702633 1.0070585 1.0520048 0.9612364 0.9943182 0.97806877 1.1837156 0.96430576
00000000: d931 4c3f 11f3 893f 93bd 723f e3fd 8a3f
00000010: f140 5e3f 120c 9d3f 80d8 843f 7cfa 803f
00000020: 2d63 783f 4be7 803f 18a8 863f 9713 763f
00000030: a38b 7e3f b762 7a3f fe83 973f bedc 763f

features.18.bias f4 [16]
0.22719339 0.13340946 0.070087135 0.17000253 0.23430087 0.10971741 -0.10489297 0.17764995
-0.14435335 0.30519852 0.4923598 0.13755712 -0.049743477 0.15963493 0.070774086 0.2913099
00000000: 62a5 683e 7d9c 083e d889 8f3d 2515 2e3e
00000010: 91ec 6f3e 85b3 e03d 20d2 d6bd dee9 353e
00000020: 5dd1 13be fb42 9c3e 9516 fc3e c6db 0c3e
00000030: d1bf 4bbd 5777 233e 01f2 903d 9226 953e

features.18.running_mean f4 [16]
1.8163764 1.3666455 -1.5982175 2.3075407 2.1995165 -3.3501875 -0.08760759 -0.5977943
1.3539099 -0.62923646 1.1822222 -0.24052447 3.3159523 -1.4604657 -1.7828287 -0.13055937
00000000: 067f e83f 3dee ae3f 6492 ccbf bfae 1340
00000010: e1c4 0c40 7969 56c0 9c6b b3bd 0c09 19bf
00000020: eb4c ad3f a415 21bf 0f53 973f 0c4c 76be
00000030: 9038 5440 8af0 babf bb33 e4bf 5bb1 05be

features.18.running_var f4 [16]
4.327468 3.8775513 3.185264 7.9972143 4.54283 4.145161 3.536658 5.309892
4.3487673 5.2946596 4.421018 3.4703 3.9497123 4.640688 4.1079445 6.4252214
00000000: 9e7a 8a40 cd29 7840 5edb 4b40 2ee9 ff40
00000010: dd5e 9140 29a5 8440 9b58 6240 a3ea a940
00000020: 1a29 8b40 da6d a940 fb78 8d40 6519 5e40
00000030: 16c8 7c40 8480 9440 4874 8340 6a9b cd40

features.21.weight f4 [32, 16, 3, 3]
-0.11734624 -0.08205242 0.23030204 -0.059332598 -0.28456324 0.05719569 0.10725622 -0.013147936
0.16785848 0.034336805 -0.22204514 -0.35747617 -0.32217756 -0.09383265 -0.11573569 -0.053973917
0.1837608 0.08201136 0.22602937 0.19821371 0.011449653 0.03496245 -0.13176441 0.31227475
-0.033624724 0.017573994 0.18414356 0.13872255 -0.024335489 -0.2242307 0.26645538 0.0043605077
0.2448864 0.14687154 0.0060228393 0.053714294 0.21220346 0.25189227 0.31266183 -0.33965775
-0.3689644 0.15703219 -0.13272417 -0.08322196 -0.14838567 -0.06755042 0.20796384 -0.22563909
-0.37098098 0.18666473 0.16687159 -0.47024417 0.062622175 -0.21391086 0.1983904 -0.1143973
-0.09425483 -0.454962 0.025315735 -0.03509761 -0.06900285 -0.016764503 0.11910245 -0.0017519587
0.054874495 -0.0166882 0.14243713 0.030630039 0.07905044 -0.056966804 -0.08717141 0.12189103
-0.086857714 -0.21530344 -0.089167394 -0.33032247 -0.09396436 0.174869 -0.16626199 -0.29867664
0.28904143 0.36786214 0.102768585 -0.006862273 -0.21632935 -0.16974106 -0.07823312 0.19594793
0.27724993 0.09109474 0.4468806 0.07556715 -0.036396503 0.010890301 0.12602688 -0.15937476
-0.24204224 -0.2426221 -0.16049208 -0.1725247 0.065416716 0.19051011 -0.109123304 -0.043803036
-0.048239447 0.036896944 -0.060991924 -0.1576409 0.2517198 0.1704564 -0.028916517 -0.010222024
-0.11634585 0.16603461 -0.005148307 0.016699906 0.13195445 -0.11235976 -0.29119712 -0.4187378
-0.04909823 -0.35860795 -0.07837448 -0.007351547 0.17606778 -0.07182769 -0.110504426 -0.13204463
-0.093218826 -0.1487861 -0.20539773 0.0657104 0.008259204 -0.059382528 -0.009190829 0.07143164
-0.30956116 0.05284308 0.24240609 0.11619401 -0.19320938 0.6914795 0.32685873 -0.09968093
-0.07613499 0.3222373 0.12943448 -0.30900812 -0.017395318 0.42934495 -0.063097514 -0.23164591
0.044418912 -0.04899219 -0.09233948 0.068382174 -0.44313645 -0.15954459 -0.3403336 0.084846795
0.15518546 -0.19252129 0.07385231 0.030729456 0.31591567 -0.17690541 -0.22575016 -0.18479522
-0.014982768 -0.15972401 0.11456287 0.20289496 0.24441779 0.22619133 -0.08483193 0.00059699884
-0.073164925 -0.06549197 0.16827163 -0.04272 -0.04286065 0.024773166 -0.27009475 -0.17241889
-0.058778644 -0.102570176 -0.039180804 -0.014142248 0.20885624 -0.12732323 -0.21126862 -0.23067938
-0.089660764 0.32532212 0.047578428 0.2648408 0.12788579 0.17983606 0.14425342 -0.44271353
-0.029228946 -0.26844728 -0.080973655 0.2273253 -0.06419875 -0.19294181 -0.16024421 0.30330777
-0.13544805 -0.16363353 -0.10299115 0.02781071 -0.11905232 -0.019458113 -0.0500828 -0.41195795
0.14186952 0.09762555 0.09885013 0.08095633 -0.101373315 -0.07691496 -0.32237887 -0.14960809
0.14014505 -0.0940028 -0.085672066 0.07366944 0.06561497 -0.08198771 0.16551186 0.24556175
0.110888526 -0.12109777 -0.122295834 -0.0848348 -0.06987941 0.06866523 0.111172825 0.07070336
0.060840808 0.1218275 0.017470691 0.23902483 0.021598402 0.29585132 -0.13584931 -0.101018675
-0.10540419 0.18740442 0.012484306 0.052483186 -0.50591147 -0.13731954 0.09219005 -0.34762514
00000000: 3a53 f0bd 190b a8bd 4cd4 6b3e bd06 73bd
00000010: 46b2 91be 0746 6a3d 26a9 db3d 716a 57bc
00000020: 18e3 2b3e c0a4 0c3d cd5f 63be 1e07 b7be
00000030: 75f4 a4be 552b c0bd d506 edbd c113 5dbd
00000040: cb2b 3c3e 92f5 a73d 3e74 673e 89f8 4a3e
00000050: 5397 3b3c c934 0f3d 40ed 06be 7ae2 9f3e
00000060: 14ba 09bd 56f7 8f3c 2190 3c3e 490d 0e3e
00000070: 385b c7bc bc9c 65be d76c 883e 97e2 8e3b
00000080: 80c3 7a3e 7e65 163e 3d5b c53b 8503 5c3d
00000090: dd4b 593e 06f8 803e 3615 a03e 9fe7 adbe
000000a0: e7e8 bcbe 0ccd 203e d8e8 07be 4670 aabd
000000b0: 6af2 17be e057 8abd 79f4 543e ef0d 67be
000000c0: 38f1 bdbe 0a25 3f3e 63e0 2a3e d8c3 f0be
000000d0: 0e40 803d 730b 5bbe da26 4b3e 2249 eabd
000000e0: ad08 c1bd c7f0 e8be f262 cf3c 83c2 0fbd
000000f0: 5e51 8dbd b655 89bc fceb f33d fba1 e5ba
00000100: 14c4 603d b1b5 88bc 0adb 113e d9eb fa3c
00000110: 32e5 a13d 0656 69bd ed86 b2bd 01a2 f93d
00000120: 75e2 b1bd 8178 5cbe 659d b6bd 0720 a9be
00000130: 6370 c0bd dc10 333e 9540 2abe 25ec 98be
00000140: 3dfd 933e 6d58 bc3e 5678 d23d ebdc e0bb
00000150: 7185 5dbe 9ad0 2dbe b038 a0bd 93a6 483e
00000160: b4f3 8d3e e18f ba3d 89cd e43e f3c2 9a3d
00000170: 8014 15bd 3c6d 323c 310d 013e 2333 23be
00000180: ecd9 77be ee71 78be 0958 24be 51aa 30be
00000190: 33f9 853d 1515 433e 0a7c dfbd d06a 33bd
000001a0: ba96 45bd 4021 173d abd2 79bd 9e6c 21be
000001b0: 6be1 803e 1f8c 2e3e 55e2 ecbc 477a 27bc
000001c0: bc46 eebd fa04 2a3e 21b3 a8bb 3ece 883c
000001d0: 111f 073e e01c e6bd ca17 95be cd64 d6be
000001e0: 3a1b 49bd 769b b7be cd82 a0bd 3fe5 f0bb
000001f0: 1d4b 343e 651a 93bd 2550 e2bd b536 07be
00000200: 83e9 bebd 625b 18be c853 52be 2d93 863d
00000210: 9d51 073c 183b 73bd 2195 16bc c04a 923d
00000220: cd7e 9ebe fc71 583d 4d39 783e 20f7 ed3d
00000230: aed8 45be cd04 313f 075a a73e 8425 ccbd
00000240: a9ec 9bbd 4afc a43e 798a 043e 5036 9ebe
00000250: a080 8ebc 1ad3 db3e 4539 81bd 9634 6dbe
00000260: 9bf0 353d 09ac 48bd 7b1c bdbd f40b 8c3d
00000270: c8e2 e2be a85f 23be 3540 aebe 28c4 ad3d
00000280: f0e8 1e3e 4d24 45be e13f 973d 57bc fb3c
00000290: b3bf a13e b126 35be 0d2b 67be f53a 3dbe
000002a0: 497a 75bc b18e 23be f09f ea3d b2c3 4f3e
000002b0: a848 7a3e b39e 673e 5dbc adbd ea7f 1c3a
000002c0: 7ed7 95bd a720 86bd 664f 2c3e 2bfb 2ebd
000002d0: a68e 2fbd 18f1 ca3c dc49 8abe 948e 30be
000002e0: e0c1 70bd 5010 d2bd 0d7c 20bd e3b4 67bc
000002f0: 69de 553e 0561 02be cd56 58be 3737 6cbe
00000300: 10a0 b7bd 9f90 a63e 99e1 423d 3799 873e
00000310: 7ef4 023e f226 383e 2bb7 133e 59ab e2be
00000320: 8b71 efbc ec71 89be 84d5 a5bd f7c7 683e
00000330: a27a 83bd 8a92 45be 0f17 24be 284b 9b3e
00000340: e5b2 0abe 8c8f 27be 06ed d2bd 49d3 e33c
00000350: b4d1 f3bd 9f66 9fbc 9f23 4dbd 27ec d2be
00000360: 3e46 113e e8ef c73d f071 ca3d 6fcc a53d
00000370: d09c cfbd 9785 9dbd d80e a5be dd32 19be
00000380: 2f82 0f3e 8a84 c0bd d674 afbd 01e0 963d
00000390: 2461 863d 2ce9 a7bd f17b 293e 8a74 7b3e
000003a0: 8619 e33d 1c02 f8bd 3d76 fabd debd adbd
000003b0: f01c 8fbd 5ba0 8c3d 94ae e33d eccc 903d
000003c0: 3634 793d b280 f93d b21e 8f3c edc2 743e
000003d0: 22ef b03c d379 973e 151c 0bbe e1e2 cebd
000003e0: 27de d7bd f2e6 3f3e f98a 4c3c 9cf8 563d
000003f0: 6a83 01bf 7e9d 0cbe 23ce bc3d ecfb b1be

features.21.bias f4 [32]
-0.015380714 0.00686061 -0.030106224 -0.034981467 0.02900081 -0.00865797 -0.0044787726 -0.0019860878
0.0030975945 0.041368164 0.064401254 0.08252649 -0.010106208 -0.018058818 0.0069206166 -0.0061598397
0.012172344 -0.035920303 -0.022068322 0.02037884 -0.039749432 0.028976206 -0.03322983 -0.008034822
-0.009949773 -0.020625625 0.025845667 0.011641971 0.07251767 0.004389062 0.055534557 0.0112273935
00000000: 64ff 7bbc f8ce e03b 54a1 f6bc ba48 0fbd
00000010: 1b93 ed3c 28da 0dbc abc2 92bb 0629 02bb
00000020: 0301 4b3b aa71 293d cee4 833d a603 a93d
00000030: 8294 25bc 16f0 93bc 57c6 e23b 7bd8 c9bb
00000040: 836e 473c 2b21 13bd a0c8 b4bc 86f1 a63c
00000050: 4dd0 22bd 825f ed3c 011c 08bd 7ca4 03bc
00000060: 5f04 23bc 12f7 a8bc 4bba d33c f7bd 3e3c
00000070: 2584 943d 1fd2 8f3b 3478 633d 1af3 373c

features.22.weight f4 [32]
1.0068752 1.0464869 1.0812048 0.8852569 1.0075345 0.90507287 0.9796747 0.96498126
1.1237885 0.9870282 1.0051649 1.155888 1.0397066 1.0008707 1.1492989 1.1463534
1.0381179 1.1422635 1.1247578 0.9349764 0.95799017 1.0407219 1.0467865 1.2003837
0.94936717 0.96131784 1.0308899 0.97123855 1.1901081 0.9287299 0.9931191 0.88154554
00000000: 49e1 803f 48f3 853f eb64 8a3f 32a0 623f
00000010: e4f6 803f dbb2 673f f6cb 7a3f 0309 773f
00000020: 4dd8 8f3f e1ad 7c3f 3ea9 803f 23f4 933f
00000030: 1b15 853f 881c 803f 3a1c 933f b5bb 923f
00000040: 0ce1 843f b135 923f 10f8 8f3f 9d5a 6f3f
00000050: d83e 753f 6036 853f 1afd 853f 2ca6 993f
00000060: ba09 733f ed18 763f 33f4 833f 17a3 783f
00000070: 7655 983f 3ec1 6d3f 0e3d 7e3f f8ac 613f

features.22.bias f4 [32]
-0.19182588 0.038282104 0.00844096 -0.100134276 -0.13537313 -0.09794337 0.009449953 0.034691833
-0.18556245 -0.11725829 0.31264657 -0.19999227 0.025365043 -0.048640672 0.06451044 -0.091777846
-0.3267043 -0.3292446 -0.19455618 -0.041185364 0.09927777 -0.03953562 -0.14270146 -0.18344092
-0.16994978 -0.11437496 -0.058512058 -0.27012894 -0.021652434 -0.18980917 -0.034908455 -0.17922725
00000000: 016e 44be b2cd 1c3d f44b 0a3c 3313 cdbd
00000010: 419f 0abe 8996 c8bd fad3 1a3c 0619 0e3d
00000020: 1504 3ebe 1d25 f0bd 3613 a03e c6ca 4cbe
00000030: 5aca cf3c 713b 47bd 0d1e 843d 06f6 bbbd
00000040: c945 a7be c092 a8be bc39 47be fcb1 28bd
00000050: 2552 cb3d 1af0 21bd 5520 12be f0d7 3bbe
00000060: 5107 2ebe 6b3d eabd 57aa 6fbd 574e 8abe
00000070: 7260 b1bc 565d 42be 2bfc 0ebd 5987 37be

features.22.running_mean f4 [32]
-1.6598333 -0.4299324 -1.8693155 -3.3625512 -0.042970162 -0.4521127 -6.0532575 -1.1986277
-1.7266808 1.7652004 -2.5031967 -2.5695126 2.2467842 -1.5846386 -3.652982 -1.0213476
-1.4558989 -1.9340138 -2.1125128 1.5671446 0.052333478 -2.040067 0.49060076 -1.1089746
1.8899288 -1.0252361 -2.5935576 3.9342628 -4.2915473 1.5296016 -0.2697082 -2.3019834
00000000: 6b75 d4bf 1920 dcbe bb45 efbf 0a34 57c0
00000010: 7b01 30bd 517b e7be 49b4 c1c0 a26c 99bf
00000020: e003 ddbf 16f2 e13f 6034 20c0 e572 24c0
00000030: 50cb 0f40 70d5 cabf 75ca 69c0 85bb 82bf
00000040: e55a babf c48d f7bf 6933 07c0 3298 c83f
00000050: a15b 563d 7590 02c0 0630 fb3e e1f2 8dbf
00000060: 30e9 f13f f03a 83bf d9fc 25c0 f6ca 7b40
00000070: 5b54 89c0 fcc9 c33f 3117 8abe b253 13c0

features.22.running_var f4 [32]
4.5082283 5.455816 7.7489586 7.3799205 7.6184883 6.8634458 8.108563 5.2032013
6.618429 6.07489 7.35351 5.6994886 6.750154 7.003901 5.4429283 6.3405485
6.5631323 6.022742 6.301869 4.668405 7.5097017 5.2820415 4.077983 6.171483
3.857182 6.017435 6.287493 6.810952 7.19316 5.1238275 8.564363 6.038154
00000000: 6843 9040 0b96 ae40 78f7 f740 4f28 ec40
00000010: a8ca f340 59a1 db40 adbc 0141 a080 a640
00000020: 2cca d340 8065 c240 f44f eb40 3662 b640
00000030: 4301 d840 f51f e040 782c ae40 c6e5 ca40
00000040: 2e05 d240 4dba c040 e9a8 c940 9363 9540
00000050: 7a4f f040 7c06 a940 d67e 8240 ca7c c540
00000060: 12dc 7640 d48e c040 2533 c940 52f3 d940
00000070: 5e2e e640 65f6 a340 a107 0941 8f38 c140
