logs/VGG19_XXXS/Cifar10/VGG19_XXXS_bs32_e20_id2.model (torch_old, 345454 bytes, 108 tensors)

features.0.weight f4 [4, 3, 3, 3]
00000000: 7f47 7c3e d476 89bb 0d1f ce3e 1d0d 19bc
00000010: 9e69 a83d 3a76 3d3f 358c aa3d 03af 12bf
00000020: 94b1 eabe b47b 933d 6eb0 b9be 3e05 603e
00000030: a19b 9f3d 72f3 cbbe 77e9 943e ce7d b13d
00000040: bb0a 0ebf bcce 90be 974d 98bd 9839 98be
00000050: e0b0 813e ca86 f5bd c543 bb3e 3411 1a3d
00000060: b0cf 36be 3a79 e13a 8dd1 9c3e 9f9e 223c
00000070: 4292 97bc 1772 e4bd b7d6 b6bd 8e1e e93e
00000080: 6a0e 82bd 005b d8bd 182e 863e cd51 da3d
00000090: 290b 9c3e 6897 babd ed2b 00bf c6c1 48bd
000000a0: 6a7c 523d 3c30 5abe be20 b7bd a45f 00be
000000b0: 0278 6bbe d497 553e ee0f 933d c266 dabe
000000c0: fc70 b83e 2321 9b3e 242f 83be 225a 223d
000000d0: c5ad d83e 59ec 043b 9353 803e 73fb 953e
000000e0: 4aff ac3c db7b 243f a56b 00bf 363a 203e
000000f0: 6dcd 53be 8c37 85be ce1f 9e3d 2aae 9d3e
00000100: 0a43 f3be ffd6 153d 0d8f 2bbe 5bc3 02bf
00000110: 56fc 8b3d 7c91 8ebe 731a 69bd 5eb7 843e
00000120: dddc 6bbe 275f 153e 9951 923d 10f5 0c3b
00000130: af4d 20bf 7a5a 593e 182c da3c a621 793e
00000140: 2463 963e d222 063f 45f4 26bf c0ff e53e
00000150: 7e9d 98be 861e 2ebe 5fb2 51bc 6a90 97be
00000160: 9e47 afbc a61a bbbd 0cc0 01bd b5f3 4fbe
00000170: 0aab ea3d 9e7b 7cbd 1479 e5be ec42 dc3d
00000180: a7b0 ecbd f55c 043e 579f 5f3e aba5 8e3e
00000190: abd6 c2be d07f e1be 6252 a43c 3678 a23e
000001a0: b012 0a3d deb7 003f 627f 7fbd 9d27 e63e
0.24636649 -0.0041950736 0.40258065 -0.009341505 0.0822327 0.74008524 0.083275236 -0.57298297
-0.45838606 0.07201329 -0.36267418 0.21877 0.07793356 -0.39834172 0.2908437 0.086665735
-0.55485123 -0.28282726 -0.07436674 -0.2973144 0.25330257 -0.119885996 0.36575142 0.037614062
-0.17852664 0.0017202266 0.30628625 0.0099255135 -0.018502358 -0.111545734 -0.08927672 0.45531124
-0.063504055 -0.10564232 0.26207042 0.106601335 0.30477265 -0.0911091 -0.50067025 -0.04901292
0.05138818 -0.21307462 -0.08941792 -0.12536484 -0.22994998 0.20858699 0.07180773 -0.42656523
0.360237 0.3029872 -0.25621903 0.03963674 0.42320076 0.0020282476 0.25063762 0.29293403
0.021117825 0.6425149 -0.5016425 0.15647206 -0.20683832 -0.2601894 0.0772091 0.3079694
-0.47512084 0.03658199 -0.16753788 -0.5107934 0.06835239 -0.2784537 -0.05690999 0.25921148
-0.23033471 0.14587079 0.0714447 0.0021508373 -0.62618536 0.2122592 0.026632354 0.24329242
0.29372513 0.5239688 -0.65216476 0.44921684 -0.29807657 -0.17003831 -0.012798875 -0.29602367
-0.021396454 -0.09135942 -0.03167729 -0.2030781 0.11458404 -0.061641328 -0.44818938 0.10754952
-0.11557131 0.12926085 0.21838127 0.2786077 -0.38054404 -0.44042826 0.020058814 0.3173234
0.033709228 0.5028056 -0.06237734 0.44952098

features.0.bias f4 [4]
00000000: 904c e73d c6e9 6abe 2420 de3c b7e1 d63d
0.112939 -0.2294074 0.027114935 0.104922704

features.1.weight f4 [4]
00000000: 0c9a 713f fb37 6e3f 6741 883f ac52 553f
0.9437568 0.9305417 1.0644959 0.8332927

features.1.bias f4 [4]
00000000: 7ae2 3b3d 8ffd cf3e 516c 743d 4ae5 233f
0.04587028 0.40623137 0.05967361 0.6402174

features.1.running_mean f4 [4]
00000000: 23ff 1f3e 84bb a9be eaa1 313e 8fca 533e
0.1562467 -0.33150876 0.17346922 0.20682739

features.1.running_var f4 [4]
00000000: 2496 1340 c1e6 ed3f 0fde a73f b1a1 a13f
2.3060389 1.8586046 1.3114642 1.2627469

features.3.weight f4 [4, 4, 3, 3]
00000000: 117c d9bd 2c44 83be 6069 743e 2cce 78be
00000010: efda d13c c327 033e 913b 55ba c3af b8bb
00000020: 083f 8abd 3c89 a43d d825 663e a68b 61be
00000030: 1421 f0bd 66c4 a53e 479d c7be ff6f 8d3b
00000040: 7699 0abf 6d20 093f 5fe0 84be d0ae d83e
00000050: bc3e 2dbe 83ad f93e 8ad2 75be 437b eebd
00000060: 4f98 563d 25aa a4bd 60da ddbc 2750 fabd
00000070: 788e 283c aca2 4d3e b9d3 8dbe 9ee3 e43e
00000080: 48e1 2fbe 6058 aa3e 99d5 f6be 9607 e43d
00000090: cfe4 d03e c271 7dbd 0c95 bdbd ea3f 36be
000000a0: cfa0 9d3e 3aa9 a23e dca2 753e 0948 3dbe
000000b0: 56c4 0bbe d41f 863d 7928 8b3e e45a 9d3e
000000c0: a872 2f3e 60f0 a4be b471 14be 19b6 a9be
000000d0: f08b 983d e40e 0f3d ddab 7d3d 634f 1b3e
000000e0: 3bd6 0f3e f024 47bf 2650 16bf a2c6 22bf
000000f0: 1592 513e 5715 08be d261 9ebd 0e39 d73e
00000100: 258f 163f 9de1 fa3e d8e5 9dbe c6f8 5ebe
00000110: 2c12 f43d 380c a3be 372e b5bb 1655 963d
00000120: 0598 afbe 5fb3 d6be 30fb e8be 9d67 8fbf
00000130: 7dd7 38bd fc79 8abe 0712 b93d 87ec 1f3e
00000140: b31c f7bc ac68 ed3d b405 b03e 1248 303e
00000150: 7271 6bbe 0339 013f d8c2 013e 22f6 113e
00000160: 22d2 8e3e 131d 243e 19ab f4be 0395 e43c
00000170: cd0e f7be e2ed 1b3c a85a b9be b2be 1dbe
00000180: 8551 bebd de3b ba3d 6977 72be 86aa 303d
00000190: 1b77 1f3d a5e8 a3be c93d 4cbe 04b1 43be
000001a0: 9917 b2bd c104 76be b9b6 11bd f20e 18bc
000001b0: 1bf1 edbd 5bd1 24bf 7e5f ee3c 72d5 273e
000001c0: 5be5 fe3c 4684 b43e 9dd4 a53d 2cf3 89bb
000001d0: fc18 f1bc f8e3 04bf 1e47 2a3f d1b6 debe
000001e0: fbbb 643e 429d 973e 3493 abbd 87d0 fdbe
000001f0: 1441 ff3e 0710 02bf ed1a 8a3c 531f 95be
00000200: dad3 013e c328 6b3e 731a 7f3d bc6f a53e
00000210: c270 aa3d 54d2 e0bd a479 6c3d ed10 163f
00000220: a877 8abe 2230 c23e c6e7 4f3c 8f00 0abf
00000230: 0436 a03d 7156 943e 8f5d fdbe 7522 023d
-0.10619367 -0.2563795 0.23868322 -0.24297398 0.025617091 0.12808137 -0.0008134181 -0.005636187
-0.067503035 0.08033988 0.22475374 -0.22025928 -0.11725059 0.32376403 -0.3898718 0.0043163295
-0.5414041 0.535651 -0.25952432 0.4232087 -0.16918463 0.4876519 -0.24006096 -0.11644604
0.052391347 -0.08040265 -0.027081668 -0.12222319 0.010287873 0.20081586 -0.27700594 0.44704908
-0.17175782 0.3327055 -0.48209837 0.111342594 0.40799567 -0.061876066 -0.09256944 -0.17797819
0.3078675 0.31769735 0.23987907 -0.1848451 -0.13649115 0.065490395 0.27179316 0.30733407
0.17133582 -0.32214642 -0.144965 -0.33146742 0.07448566 0.03492631 0.06193148 0.15167002
0.14046566 -0.7779074 -0.58716047 -0.6358434 0.20465882 -0.1328939 -0.077335015 0.42035717
0.5881217 0.49000254 -0.3083942 -0.21774587 0.119175285 -0.3184526 -0.005529191 0.073404476
-0.3429567 -0.41933724 -0.4550414 -1.1203495 -0.04512738 -0.27046192 0.090366416 0.15617572
-0.030165052 0.1159223 0.3437935 0.17214993 -0.22992495 0.5047762 0.12671983 0.14254048
0.27894694 0.16026716 -0.47786787 0.027903086 -0.4825348 0.009517165 -0.36201978 -0.15404776
-0.09292892 0.0909345 -0.23678364 0.043131374 0.038931947 -0.3201343 -0.19945444 -0.19110495
-0.08695907 -0.24025251 -0.03557465 -0.009280907 -0.11618253 -0.6438195 0.029098269 0.16390017
0.031115225 0.35257167 0.080971934 -0.0042098965 -0.029430859 -0.5191035 0.66514766 -0.43498853
0.22337334 0.29612166 -0.08377686 -0.49573156 0.49854338 -0.50805706 0.016858542 -0.2912546
0.12678471 0.22964768 0.062281083 0.3231181 0.08322288 -0.10977617 0.057733193 0.58619577
-0.27044415 0.37927347 0.012689536 -0.539071 0.07822803 0.289722 -0.49485442 0.031771142

features.3.bias f4 [4]
00000000: 8647 db3c a212 c43c 2988 2c3e 7cc8 32be
0.026767503 0.023934666 0.16848816 -0.17459291

features.4.weight f4 [4]
00000000: e0af 563f ef55 4b3f e02d a03f c286 813f
0.83862114 0.79428 1.2514 1.011925

features.4.bias f4 [4]
00000000: 40dd 37bc f9b9 a3bc 0791 7a3f 938f 3ebc
-0.011222184 -0.01998614 0.97877544 -0.01163091

features.4.running_mean f4 [4]
00000000: 2d67 65bd 47a1 443e 1fc4 69bf d8be 87be
-0.0560066 0.19202147 -0.9131488 -0.2651279

features.4.running_var f4 [4]
00000000: 6766 733e 1e76 ad3f c64f 7f40 d0d2 4440
0.23769532 1.3551672 3.989244 3.075367

features.7.weight f4 [8, 4, 3, 3]
00000000: e80b 973e c401 653b ed99 963d bc43 d9bd
00000010: eb7b babe 22cc 91bd d8a9 4cbe 4dd4 033e
00000020: 3159 9a3c 3fb9 fd3c 3f69 3bbd 28e6 e3bd
00000030: 3102 e73e f9b8 593d f1ce aabe 407b dbbc
00000040: 13d8 9e3c a83d 60be d5ba e4bc 3edf 1dbe
00000050: 711a 20be e7c0 c33e 43e8 0b3f 7ee0 8e3d
00000060: 3b71 b7bd 564d cf3e a87e a2bd d11b 23be
00000070: 7bcc 8bbd 8818 7c3d 91a8 2abf de3b ecbe
00000080: 37b3 dbbe dca9 bdbe 18b7 56ba 5ba8 97bc
00000090: 2278 f53d bb28 bdbc e0c4 fbbb b5a4 46be
000000a0: 2cbf 07bf 0c99 5abe 3767 c5be 5820 00bf
000000b0: e99b 22bf a14d 9fbe 530c 633d 7996 e3bc
000000c0: 8244 893e 0815 3b3e eea8 8c3e ec78 47be
000000d0: c4e7 c1bd 0de4 b2bd a222 303e 51a6 08be
000000e0: 19db 70be bcd7 bf3c 10b7 9e3d 8cec 4e3e
000000f0: c447 17bd 7151 7ebd c988 dcbd 9721 963e
00000100: ca96 6a3d d81a 3d3e 8300 afbd 3984 dd3d
00000110: bfca ccbc ddd9 ec3d 1c15 b6bd 2255 543e
00000120: 6818 06bd f03a f9bd 123a df3d 5703 473e
00000130: 3952 3fbe 7fc4 d03c e081 ccbc 29bb 463d
00000140: b543 7abd b1ae 5bbd 8c4b 02be 4b39 8d3e
00000150: 22ed 823d 30e9 5bbe 3af7 79bc f5d6 9e3e
00000160: 5135 113d 77cc a1be 3a9c b8be 1589 a7be
00000170: ba53 7d3e 0c89 303f 37d6 22bf c5be 88be
00000180: c2fc 84bc 2b7a 8c3e 5276 1bbe c895 d13d
00000190: b408 10bd 650c 933a 2b62 89be 41f5 e3be
000001a0: 0d58 8f3e ce20 93bd cb46 9d3e 9f4c 92be
000001b0: 1711 7c3d 46db 003e edc6 5f3e c65b 9ebd
000001c0: 5eda efbd e754 19be 191e 013e 0272 3fbd
000001d0: 6884 1c3e 4af5 483e 9436 08be 820b 25be
000001e0: de6d 833e e46e 4cbd 7ef2 1b3e ace1 853e
000001f0: 3468 923d 5637 c03d f7aa ab3e 0bf8 c83c
00000200: c7f9 feb9 deac bdbe f4bd 47bf 5517 d73d
00000210: 3397 cbbd 6c02 113c 3a3d a2bd 341f 48bc
00000220: 97af 053d 5ccc 953b bdb6 15bf 38fa 00bf
00000230: 44c3 09be f2c7 94be d767 a7be 670c db3d
00000240: 5866 9ebe e91b 71be a3bd 62be 25d9 7bbc
00000250: 9149 03bf 47ee d6be c2ad de3e 2980 0fbf
00000260: d484 00be 137c f4bd 66b2 dbbd 10b7 6cbd
00000270: c6b9 8ebe bf1b c33c 9f08 d8bd c195 e33d
00000280: f6c7 053d b78c 5f3e 4d39 bf3b f8a7 263d
00000290: d9e5 033e 44ab b5be f9a7 86be 51e8 ea3d
000002a0: df29 e7bc e64b c4bd 0fc2 1d3e 3de6 23bd
000002b0: 493c 323e bddd fc3d 834a 61bd fc39 22be
000002c0: fa4a c0bc 2ad7 fd3d eb1f ef3d e02d 86be
000002d0: 51d0 933e 5e95 103e 2ee4 0b3e fc76 2c3e
000002e0: 617e 713e 6e26 483e 31e9 363e b4dd 0ebe
000002f0: 7bf3 9d3e f874 a7be 8959 ae3c 8085 26bd
00000300: 3242 c4be 47cb 6abe 60a3 233c 888a 08bf
00000310: afa5 f0bd 778d da3b 671b 50bb 54fa 123e
00000320: 2bb8 19be 8f27 8fbe 276f 493e 44d7 a7bb
00000330: 2548 b23d 0f66 29be 7d8c 113e c968 55be
00000340: 95c7 a4be 37d6 d5bd 977e d0be b040 e6be
00000350: 8c08 ecbe 467c d73e a682 c2be 6761 57bd
00000360: d6f2 b0bd 31bc ee3b dd8c 403d c2ef 8b3d
00000370: 0130 bb3d 3979 7e3d 8ab0 f43d 4cfa 263e
00000380: a52b ddbd c2d1 953d 9985 16be 4046 92be
00000390: 3284 e63e 3991 0c3f 214b 8fbe d46d 373e
000003a0: 6377 1cbe d955 f33d 064b 87bd a4ac 903e
000003b0: 11d9 df3e aef8 01be 1cdf 483f 567b 5b3e
000003c0: 137c 433c bcc0 6bbe 9734 dcbe 5835 4e3e
000003d0: 58ed 39be 67e7 e8bd 9678 66be 394f 793e
000003e0: ce4c 8e3d d8f7 cb3d b843 47be e055 57bc
000003f0: 30fe 473d 85e8 5a3e 41db 263d c3e0 c53e
0.2950127 0.003494368 0.07353578 -0.106086224 -0.36422667 -0.07119013 -0.19986665 0.12873955
0.018841358 0.030972121 -0.045754667 -0.11127883 0.4511886 0.05315492 -0.3336101 -0.026792169
0.019390142 -0.2189852 -0.02792112 -0.15417191 -0.15635087 0.3823311 0.5465128 0.06976412
-0.08957144 0.4048869 -0.07934314 -0.1592858 -0.06826111 0.061546832 -0.6666346 -0.46139425
-0.42910168 -0.37043655 -0.0008190735 -0.018512895 0.11985804 -0.02309071 -0.0076833814 -0.19398768
-0.5302608 -0.21347445 -0.3855531 -0.5004935 -0.6351915 -0.31113914 0.055431675 -0.027781712
0.2681008 0.18269742 0.27472633 -0.19479722 -0.09468034 -0.087349035 0.17200711 -0.13344695
-0.23521079 0.0234183 0.0774976 0.20207423 -0.036933675 -0.062089387 -0.10768277 0.29322502
0.05727271 0.18467271 -0.085450195 0.10816235 -0.02499902 0.115649916 -0.08890745 0.207356
-0.03273812 -0.121694446 0.10899748 0.19434868 -0.18683709 0.025484322 -0.024964273 0.048518334
-0.061099727 -0.053633396 -0.12724131 0.27582774 0.06392886 -0.21475673 -0.015256697 0.31023374
0.035451237 -0.31601307 -0.3605669 -0.32721773 0.2473897 0.68959117 -0.63608116 -0.26708046
-0.016233806 0.27436957 -0.15181854 0.10233647 -0.03516455 0.0011218904 -0.2683271 -0.4452305
0.27996865 -0.071839914 0.30718073 -0.28574082 0.061539736 0.12583646 0.21853228 -0.07732348
-0.11711572 -0.14973794 0.12609138 -0.046739586 0.15284884 0.1962482 -0.1330207 -0.16117671
0.2566976 -0.04991044 0.15229222 0.26148736 0.071487814 0.093855545 0.33528873 0.024532339
-0.00048632754 -0.3704595 -0.7802422 0.10502497 -0.09940948 0.008850675 -0.07921834 -0.012214471
0.03263816 0.0045714807 -0.5848196 -0.50381804 -0.13453394 -0.29058796 -0.3269641 0.10695725
-0.30937457 -0.23545803 -0.22142653 -0.0153715955 -0.5128413 -0.41978666 0.43491942 -0.5605493
-0.1255067 -0.11937728 -0.10727386 -0.05779177 -0.2787611 0.023816941 -0.10548519 0.11112548
0.0326614 0.21831022 0.005835688 0.04068753 0.12880649 -0.35482228 -0.26300028 0.11470092
-0.028218208 -0.09584789 0.15406059 -0.040014494 0.1740581 0.12346981 -0.0550027 -0.15842432
-0.023473252 0.12394555 0.1167601 -0.26206875 0.2886987 0.14119479 0.13661262 0.16842264
0.23583366 0.1954591 0.17862393 -0.1395176 0.30849823 -0.32706428 0.021282928 -0.04065466
-0.38331753 -0.22929107 0.009987682 -0.5333638 -0.11750352 0.006669696 -0.0031754614 0.14353305
-0.15011661 -0.27959868 0.19671308 -0.005122097 0.08705167 -0.16542839 0.14213748 -0.20840754
-0.3218352 -0.10441249 -0.4072158 -0.44971228 -0.4610027 0.42087 -0.37990302 -0.052583124
-0.08640067 0.0072856178 0.047009338 0.068328395 0.091400154 0.062127326 0.11947735 0.16306418
-0.1079934 0.07315399 -0.14699401 -0.28569221 0.45022732 0.5490909 -0.27987006 0.1791299
-0.15279917 0.118816085 -0.066061065 0.28256714 0.43720296 -0.1269252 0.7846544 0.21433768
0.011931437 -0.23022741 -0.43008873 0.20137537 -0.18156946 -0.113722615 -0.22506937 0.24346627
0.06948243 0.09959382 -0.19459426 -0.013143033 0.048826396 0.21377762 0.04073644 0.38648042

features.7.bias f4 [8]
00000000: 3f58 ff3c 198d c6bd 74bb 833e 8151 e7bd
00000010: 7bbf f8bc 17f4 d3bd 25ba 1f3d cc0f 1bbe
0.031170009 -0.09694881 0.25728953 -0.112948425 -0.030364743 -0.10349291 0.03899588 -0.15142745

features.8.weight f4 [8]
00000000: 77c0 833f 9beb 9f3f 723c 723f cce3 8b3f
00000010: 571b 443f f963 593f 1502 5f3f 4378 573f
1.0293111 1.2493776 0.9462348 1.0928893 0.7660422 0.8491817 0.8711255 0.8416788

features.8.bias f4 [8]
00000000: bc89 093f b7a8 9abd 8b76 89bd e17d f43e
00000010: 2a86 f63e 82cc c33d c66b 043f e992 adbc
0.5372579 -0.07551711 -0.067120634 0.47752288 0.48149234 0.09560491 0.5172695 -0.021188216

features.8.running_mean f4 [8]
00000000: f6bb 323b 577f 9ebf d548 58bf a2dc f4bf
00000010: 4a24 ebbf ac34 89bf c48d de3f 0e27 22bf
0.0027272678 -1.2382611 -0.8448613 -1.9129832 -1.837045 -1.0719199 1.7387013 -0.6334084

features.8.running_var f4 [8]
00000000: f4c1 0e40 2096 c43f 9722 803f 34e7 b63f
00000010: 33f0 c33f bcb9 e03f 005a 9e3f 60f5 a63f
2.230588 1.5358315 1.0010556 1.4289308 1.5307678 1.7556682 1.2371216 1.3043633

features.10.weight f4 [8, 8, 3, 3]
00000000: ad49 383d 2252 b2be 08bb 213e ad9f c6bc
00000010: aa92 fa3e a12e 873e 0dad 043f 0f83 bb3e
00000020: f5c2 e9bb 2f7e 22be b6c1 43be 3a80 1f3e
00000030: 02fd 9c3e 6697 153f f45e b3bd 962f a13e
00000040: 8338 b33e bd50 63be cee3 28be 0835 0ebe
00000050: a424 48be be79 183d a604 5ebe 3574 31be
00000060: 1a16 89be 48cf 4bbe df56 e0bd c49c 833e
00000070: dbac fe3e cbae 03bf 0487 063f de2d a9bc
00000080: 990a 24bd 9e1d e7bd e5b3 efbd ecc0 e93d
00000090: 9b03 b5be ffb5 f4bd e3bc 68be 9590 01be
000000a0: 1679 79be fb05 41be 015f ee3c 7559 9dbd
000000b0: 13fd 433e 6f6f 9b3d 122d 60be bd99 873c
000000c0: 7241 0abe 193e 86bd 106d 62be 0ed5 343e
000000d0: 79dc ab3e eb40 05bd 967e 0cbf 2294 0fbe
000000e0: d78e 9d3e 4f94 873e 4208 913e 119f 2b3c
000000f0: 178e b83d 556a 2d3d 64b3 483e 6b1f 55be
00000100: 7764 313e d708 e33e 1413 863e 5ba6 993e
00000110: 0d36 bd3d c55c 563e ed88 c53c cb0e cd3e
00000120: 724c 173e 1c46 393e 3c06 3abe e9c0 3b3d
00000130: 99a0 f6be c405 2dbe d227 3dbe eafd a1be
00000140: a825 51be 787a 313e a6df 1fbd ef12 043d
00000150: 5229 14bf 15d0 fbbe d711 f7bd 0776 8abe
00000160: 893d f3be da71 6b3e edfb 163e 68e5 11ba
00000170: e2e7 11be 03f1 b63b 4586 54be 7234 36bd
00000180: 3df9 67be c4fd 68be 6e51 02be 232a d73d
00000190: ebf6 afbd 99a0 803e ea8c 6cbe 4e84 dfbd
000001a0: 3d82 f2bd cfe0 0dbe 2792 52be d790 36be
000001b0: 85be 133e e0ce c9be b63f a63e 748b c6bd
000001c0: b26d 00bf 45f9 2c3c 8168 15bf 2199 2cbd
000001d0: 3560 74be 0205 f33d 15a6 63bd fa56 393e
000001e0: b414 12bd cdba 953e 7a9c d63e 7cb0 233d
000001f0: 75fd dbbd 0b94 983d 2d12 c23d 9c8b 8e3e
00000200: 8e9f 10be 9eb9 953d ee16 c1be f0e3 3bbe
00000210: 22b6 193d 15e3 0fbe f34d 34be 5090 dd3e
00000220: 0805 1abc 6956 bb3e 09fc 2b3e ee98 14bd
00000230: 6000 0b3f d2ae 09be a39f 4f3e 51b1 043e
00000240: 0b30 e9bd 8728 94bc 6ec2 a3bd cd68 79bd
00000250: d045 84be b18d d63d 98ac d93d a787 dc3e
00000260: 491e 9b3e b41b 1e3e 0c8e 21bd b72f 09be
00000270: d02d 92be 730e 9a3e d3d6 b43e 9613 543e
00000280: aae1 903d abff c53c 0935 233e 85c1 1a3e
00000290: 1ce5 073e fbdd db3e 3023 1e3e 530f ba3d
000002a0: ba1f a03e 2b2c fc3e d26e b03e 3cb8 593e
000002b0: 1799 5abd bd3f 3d3e ed62 983e 0532 1a3f
000002c0: 242f 5c3e 94f1 8dbe aa52 2bbd 335f b03e
000002d0: 5c3e 94bc 698f 043d a230 80be 84f9 1e3c
000002e0: 4cc1 f63d 7c88 293e 8ecf 9bbe 0623 28bd
000002f0: df4a 51bd 33b8 97bd 1fba c5bd 18e5 99bd
00000300: 9c6a 09be d1cb afbe f2d1 64be 6ce8 e13d
00000310: 7a64 4cbe 7978 1abe f083 ae3e 2155 0bbe
00000320: 3281 92be e3af 93bc 01ab bb3e 9989 773e
00000330: 06ef 623e 0906 113e 85b0 f8bd 64e5 60be
00000340: c9ad 00bd 2bdd 343d 2135 a93d 4dec 86be
00000350: f085 8a3c 0190 e8bc 6bf0 26bd d757 59be
00000360: 1aed c93d da5b c9be c9c4 2bbe 65ca 1fbd
00000370: 384f 35bf 0d0b f0be a4fb 48be 3281 8ebe
00000380: 2ddf 96be 0e24 a3bc 8af3 bebe 6af8 92be
00000390: e2fd 03bd 857f a0be f696 1b3e 2644 803c
000003a0: 150d bc3c bcdd fb3d 0d30 b13e a655 59bd
000003b0: 6dbf 053f 6fb6 42b9 a6e5 7f3e 52f3 21be
000003c0: 63ad 303e ced5 093e bcd5 88be 4715 c7bd
000003d0: 419f 913d 70bb 97bd 2305 a1bd cc4a 2c3e
000003e0: 3e5c 80be 9660 683d b0af 933b 6a69 83be
000003f0: 742c 753d 5cae b23c 43a5 8cbc e2b1 48be
0.044992138 -0.34828287 0.15794003 -0.024246061 0.4894002 0.26402763 0.51826555 0.36623427
-0.0071338364 -0.15868448 -0.19116864 0.15576258 0.3066178 0.5843414 -0.08758345 0.31481618
0.35004053 -0.22198768 -0.1649315 -0.13887417 -0.19545227 0.037225477 -0.2168146 -0.17329486
-0.26774675 -0.1990329 -0.10954069 0.2570554 0.49741253 -0.5143859 0.5254977 -0.020651754
-0.04004917 -0.11284946 -0.11704234 0.1141375 -0.35354313 -0.119487755 -0.22728305 -0.1265281
-0.24362597 -0.18849938 0.029098036 -0.07683078 0.19139509 0.07589614 -0.21892193 0.0165528
-0.13501528 -0.06554813 -0.22111917 0.17659399 0.33566645 -0.032532614 -0.54880655 -0.14021352
0.3077304 0.26480338 0.28326613 0.010474936 0.090114765 0.042337734 0.19599682 -0.20812766
0.1732348 0.44342682 0.2618643 0.30009732 0.09238825 0.20933826 0.024113143 0.4005035
0.14775255 0.18093151 -0.1816644 0.04583827 -0.481694 -0.1689673 -0.18472221 -0.31639034
-0.20424521 0.17331874 -0.039031647 0.03224462 -0.5787555 -0.49182191 -0.120639496 -0.27043173
-0.47507885 0.2299265 0.1474454 -0.0005565495 -0.14248613 0.00558293 -0.20754345 -0.04448361
-0.2265367 -0.22753054 -0.12726375 0.10506084 -0.08592018 0.25122526 -0.2310063 -0.10913907
-0.11841247 -0.13855289 -0.20563565 -0.1782869 0.14428146 -0.39415646 0.32470483 -0.09694567
-0.5016738 0.010557477 -0.58362585 -0.042138223 -0.23864825 0.118661895 -0.05557831 0.18099585
-0.035664275 0.2924408 0.41916257 0.03996323 -0.107417025 0.07450112 0.09476123 0.27840889
-0.14123365 0.07310794 -0.37712806 -0.1834867 0.03752721 -0.14051469 -0.1760786 0.43274164
-0.009400614 0.36589363 0.16795363 -0.036278658 0.5429745 -0.13445595 0.2027574 0.12958266
-0.113861166 -0.018085731 -0.07996069 -0.06089096 -0.25834513 0.10476244 0.10628623 0.43072245
0.30296543 0.15440255 -0.039442107 -0.13397108 -0.28550577 0.3008915 0.35320148 0.20710596
0.07074292 0.024169764 0.159382 0.15112884 0.13270992 0.42942795 0.1544311 0.09084954
0.31274205 0.49252447 0.3445955 0.21261686 -0.053368654 0.18481345 0.29762974 0.60232574
0.21502358 -0.27723372 -0.04182688 0.3444763 -0.018096142 0.03236333 -0.25037104 0.009703044
0.12048587 0.16555971 -0.3043179 -0.041049026 -0.051096793 -0.0740818 -0.096546404 -0.07514399
-0.13419574 -0.34335187 -0.22345713 0.11030659 -0.19960204 -0.15085019 0.34085035 -0.13606693
-0.28614193 -0.018028205 0.36653903 0.24173583 0.22161493 0.14162458 -0.121430434 -0.21962506
-0.031415734 0.044156235 0.08262087 -0.26352158 0.01690957 -0.028388979 -0.040756624 -0.21224914
0.09859677 -0.3932789 -0.16774286 -0.039011378 -0.70824003 -0.4688343 -0.19627243 -0.27832943
-0.29467145 -0.019914653 -0.3729518 -0.2870515 -0.032224543 -0.3134729 0.15194306 0.015657496
0.022955457 0.12298152 0.34606972 -0.053060196 0.5224522 -0.00018569244 0.24989948 -0.15815476
0.17253642 0.13460466 -0.26725566 -0.09720855 0.071104534 -0.07408798 -0.07862308 0.16825408
-0.25070375 0.056732737 0.0045070276 -0.25666362 0.059856847 0.021811657 -0.017168647 -0.19599107

features.10.bias f4 [8]
00000000: 3914 24be 50df 83bd f163 06be b6f5 f03b
00000010: 42e0 bd3b 7e92 56be 0808 e7bd 95ca b1bc
-0.1602334 -0.06439078 -0.13124062 0.00735351 0.005794556 -0.2095432 -0.11280829 -0.021703044

features.11.weight f4 [8]
00000000: 6784 813f 114b 813f 015e 483f 4474 9a3f
00000010: 0a16 483f 0ac2 793f 2bd2 833f 0feb 4f3f
1.0118531 1.0101033 0.7826844 1.2066731 0.7815863 0.97561705 1.0298513 0.81218046

features.11.bias f4 [8]
00000000: d571 913e 8644 423f 8492 893e 9131 e43d
00000010: db43 3a3f 0a4e 66be 1a91 1d3f 9718 0d3f
0.2840716 0.7588581 0.26869595 0.111422665 0.7275979 -0.22490707 0.6154953 0.55115646

features.11.running_mean f4 [8]
00000000: 774a b53f b948 27c0 8a37 e13f 20eb 58c0
00000010: dd18 48c0 09fa c83e cb44 9ebf 24ca 41c0
1.416335 -2.6138136 1.7595074 -3.389351 -3.1265175 0.39253262 -1.2364744 -3.0279627

features.11.running_var f4 [8]
00000000: 7f6a 1b40 b28b 2240 659f c93f 2123 a640
00000010: 1831 2840 ae9c 0840 46e6 6b40 bbb4 1a40
2.428375 2.5397763 1.5751768 5.191788 2.6279964 2.134563 3.6859298 2.417281

features.14.weight f4 [16, 8, 3, 3]
00000000: eff3 12be 9f57 85bd 8664 b9be 4ebe cbba
00000010: 6573 223e 4fbb 0e3e 2354 963d 36fd 1a3e
00000020: bd11 123f 31b3 fc3d 6c35 a03d a5f6 993e
00000030: b7cd 8bbe 168f abbe 4881 60bd 5c55 273d
00000040: d02f 73be aace 2ebd 878d 843c 5b00 b1bd
00000050: 294c 20be 9c10 3dbd 6245 8b3d 5c1f 82bc
00000060: 4057 41b9 d04d 6ebc f49b 49bd 6346 86be
00000070: 749e 8fbe 9d6e 87bd da65 babd 9112 e4bc
00000080: 4c8b 663e 9aea cabd 20ca 01bf c780 c43c
00000090: 2fb8 2b3e e1f4 7e3e d3ca 303e 12a2 dbba
000000a0: 3986 efbd 2dd7 803c 3917 c9bd 8b2e f7bd
000000b0: f6b2 dd3e 5911 15be e403 303d 7e39 453d
000000c0: 8460 c8bc f955 8bbe f7dd 5b3e b3a6 d6be
000000d0: 1601 13bf d000 2abe 70af d7bd b51f 0bbe
000000e0: 3b66 b5bd 3ea1 28be da67 94be 7686 183e
000000f0: 2478 56be 9857 9fbe 6a91 603e eab6 49bd
00000100: 668c 49bd d655 e43d 2021 223e 1de2 203e
00000110: 1ce3 df3d 33f2 ea3c d959 ac3c 504b d2bd
00000120: f769 57be 966c b2be 672d dabe 15be bfbe
00000130: 75f6 53be b904 3b3e f89b a2bd c50d 353e
00000140: 8c20 1a3d e335 8b3e b662 a9bd e854 683e
00000150: 5840 81be cf76 95be 1fd7 eebd 57d1 47bd
00000160: 60c2 25be e570 ed3d c3b9 81bd 77fe 1fbe
00000170: c947 25be 4dae 813b c756 a6be 6601 89be
00000180: 97ec 8c3e f4b6 2dbe 30f7 a5bb f3ec bb3d
00000190: 184b 703e 60a7 c73e edba 313c fe46 b43d
000001a0: 72c8 163d b713 e2be c306 8cbe cc21 02be
000001b0: c932 c43e 23ef d93d 3449 8c3e b6c1 c0bb
000001c0: 033a 09be 945b 58be 821c 12be 25ba 9cbc
000001d0: d5de 913e 23b3 983c 2b3c efbd 3ad9 8e3d
000001e0: 9386 e2be d1a3 97be 4220 6b3d 4c79 95be
000001f0: 7545 133e f3a1 4e3d 8cf7 2dbe c9cc 8bbd
00000200: 8513 b83c 6390 c9bd d842 73be 10a3 aabe
00000210: 79ae 293e 825f 86bd 2fce 6d3d c578 1b3e
00000220: 7cfa 69be 509b e83d 59ca 593e 0a24 38be
00000230: 0f65 2cbc fbf5 64be 2047 86bc 4dae 1c3e
00000240: 4344 11bb 1cc8 ae3e 705b 3cbc daeb adbd
00000250: 46e4 203e ac1c 6cbe f3ff 26be c843 aa3d
00000260: e9ec 4abe 88e5 823e 99b7 a83e 0a24 5cbd
00000270: 683e f83d a2f4 8f3e f620 4dbe bbc6 bdbe
00000280: 552b a33c 8f34 6f3d 13ab 0dbe 4b75 933e
00000290: 503b 123e 1d83 d1bc 2244 ce3d 3473 f5bd
000002a0: 5f7e 833d 52a6 753c 1dc9 2e3e 55a4 f73d
000002b0: 5851 9fbd 6fa2 f23d 9775 783d 09a2 8d3e
000002c0: 08d8 1a3c a1ba 6b3c b438 37bd 6d57 653d
000002d0: 0dbe 313d 15ae ed3c 6041 6cbe bc95 1fbe
000002e0: 7085 6dbe d03b bfbe 274a 623e e4c0 bd3d
000002f0: 7c6b 83be b36a f2bd 901a 203e 041e 78be
00000300: b26e f73d f5fa 8e3d 4b62 3f3d 1736 5d3d
00000310: 40e1 963e 3713 04be 28ab 8fbd c782 cb3e
00000320: e9f1 783e 86a5 e8bc 2df2 963e f2d0 d8be
00000330: e970 1a3d 1765 983e 1ff6 0fbf c391 56be
00000340: 5889 1ebe f1e3 e0bc 7f6f a23d 00eb 1e3e
00000350: ccf0 39be 2b92 193e dadc 293f 95f4 a4bd
00000360: b98e aabd 862c 53be 5e6c 3c3e 1ffa 9cbc
00000370: 1dc2 7d3e b3d3 633e c09b a73d 77a3 74be
00000380: cd04 bbbd 975c 05be 153a e33b 0786 a8be
00000390: 309a c9bc 1cc8 36be df3f 09bf b621 c73d
000003a0: f5ae 59bd ebaa c3bd 5fc7 1abe f448 493d
000003b0: 8f72 da3d 03ab 2dbe d813 ffbc bff7 be3d
000003c0: e64a cfbd ac30 c8be 5991 c63e 915a 563e
000003d0: 7193 133e 4089 21be 2bb3 b13e a4e4 92be
000003e0: 6c7b 4fbe a454 54bd 22b9 b7be dd41 53be
000003f0: fca8 65be d9b6 72be 75e9 a1be 1b3b bd3d
-0.14350866 -0.06510853 -0.36209506 -0.0015544386 0.15864332 0.1393864 0.073402666 0.15135655
0.57058316 0.123388655 0.078226894 0.30070987 -0.27305385 -0.33507603 -0.054810792 0.04085289
-0.23748708 -0.04267756 0.016180767 -0.08642646 -0.15654053 -0.046158418 0.06800343 -0.015884094
-0.00018438417 -0.014544919 -0.049220994 -0.26225576 -0.28050578 -0.06612895 -0.09101458 -0.027840884
0.22514075 -0.09908028 -0.50699043 0.023987187 0.16769479 0.24898101 0.17264871 -0.0016756675
-0.11695523 0.015727604 -0.098188825 -0.12069424 0.433006 -0.14557399 0.04297246 0.048150532
-0.024460085 -0.2721403 0.21471392 -0.41924056 -0.5742353 -0.16601872 -0.10531509 -0.13586314
-0.088573895 -0.16467759 -0.28985482 0.14895043 -0.20944268 -0.31121516 0.21930471 -0.049246706
-0.04920616 0.111491844 0.15832949 0.15711255 0.109319896 0.028679943 0.021038936 -0.10268271
-0.21036516 -0.3484847 -0.42612764 -0.3744971 -0.20699485 0.1826352 -0.07939905 0.17681034
0.037628695 0.2718955 -0.08270781 0.22688639 -0.25244403 -0.29192206 -0.11662125 -0.048783626
-0.1618743 0.115937985 -0.06334259 -0.15624414 -0.16140665 0.003957546 -0.3248808 -0.2675888
0.27524254 -0.16964322 -0.0050648674 0.09176054 0.23466146 0.38994884 0.010847789 0.08802603
0.036812253 -0.44155666 -0.2734891 -0.12708205 0.38319996 0.10641315 0.273996 -0.005882467
-0.13401036 -0.21128684 -0.14268687 -0.01913173 0.2849032 0.018640107 -0.11681398 0.069750264
-0.44243297 -0.2961717 0.05740381 -0.29194105 0.14381965 0.050447416 -0.16988963 -0.06826169
0.022470245 -0.09841993 -0.23755968 -0.33327532 0.16570462 -0.065611854 0.05805796 0.15182789
-0.22849458 0.113577485 0.21268596 -0.17982498 -0.010522141 -0.22359459 -0.016391337 0.15300865
-0.0022165931 0.34137046 -0.01149641 -0.08492251 0.1571208 -0.23057812 -0.16308574 0.083137095
-0.19816937 0.25565743 0.32952574 -0.053745307 0.12121278 0.28116328 -0.20032105 -0.37065682
0.019918123 0.058399733 -0.13834791 0.28800425 0.14280438 -0.025575215 0.10071589 -0.11984864
0.06420588 0.014993267 0.17068906 0.12091891 -0.07779187 0.11847388 0.060659017 0.27662686
0.00945092 0.0143877575 -0.04473181 0.05599158 0.043394137 0.029013673 -0.23071814 -0.15584463
-0.23195434 -0.3735032 0.220986 0.092653066 -0.25667942 -0.118367575 0.15635133 -0.242302
0.1208166 0.0698146 0.0467246 0.054006662 0.29468727 -0.12897955 -0.07015067 0.39748213
0.24311031 -0.02839924 0.2948164 -0.42346913 0.037705336 0.29764625 -0.56234926 -0.20954041
-0.1548208 -0.027452441 0.079314224 0.15519333 -0.18158263 0.14997165 0.6635262 -0.08054463
-0.083280034 -0.20622453 0.18400714 -0.019162236 0.2478108 0.22248726 0.08184004 -0.23890482
-0.09131775 -0.13023601 0.006934414 -0.32914755 -0.024609655 -0.17849773 -0.53613085 0.09723227
-0.053145368 -0.095540844 -0.15115117 0.04914184 0.106663816 -0.16959767 -0.031137392 0.093245976
-0.101217076 -0.39099634 0.38782766 0.20932986 0.14411713 -0.15775013 0.34707007 -0.28690064
-0.20261925 -0.051838532 -0.35883433 -0.20630594 -0.22427744 -0.23702563 -0.31623426 0.09239789

features.14.bias f4 [16]
00000000: 9946 7e3d 8226 43bd 4160 373d a10b febc
00000010: c2b5 0dbc 67af 4c3d 19b4 91bd 4f26 4c3d
00000020: f656 98bd a520 61bb 1ee7 c3bc ad08 33bd
00000030: a7d6 4e3d 1c7d 1f3c 931e 74bd db5d 50bc
0.062079046 -0.047644146 0.04476953 -0.031011404 -0.0086492915 0.049971964 -0.07114429 0.04984122
-0.074384615 -0.0034351733 -0.023913916 -0.043709446 0.050497677 0.009734418 -0.05959947 -0.012717689

features.15.weight f4 [16]
00000000: 3eee 563f 2c06 683f ef8e 7b3f ed8d 6d3f
00000010: 6e08 473f 9cc9 8d3f 9ba0 913f 104f 9d3f
00000020: 7b93 6d3f 0f04 583f 57c5 7a3f 3c9b 7d3f
00000030: 8b70 953f 0c59 753f c5c8 8b3f 220c 743f
0.8395728 0.9063442 0.98264974 0.92794687 0.7774724 1.1077151 1.1377138 1.2289753
0.9280316 0.8438119 0.97957367 0.99064994 1.167497 0.95839 1.0920645 0.95331013

features.15.bias f4 [16]
00000000: 7801 cf3e 5bbe 923e 9754 70bc 1ba3 163f
00000010: 2d1c f33e b5ce 0d3f 4781 333e b592 6a3e
00000020: 37f3 c93d e2a2 8abe 7fc5 293e 9fc8 563e
00000030: 08ea 9dbc 48bb 39bd 1bbd dd3d af15 7f3e
0.40430808 0.28660855 -0.014668605 0.5884263 0.47482434 0.55393535 0.17529784 0.22907527
0.09860843 -0.27077395 0.16579245 0.20974968 -0.019276634 -0.04534462 0.10827085 0.24910615

features.15.running_mean f4 [16]
00000000: d2fe e9bf f272 54c0 007a ab3f 8895 1dbf
00000010: e924 a13f e91c 2ec0 1d1c f43e a010 4040
00000020: ac8c 6bbf d537 91bf 398e f13e 130e b93e
00000030: 84ed 17c0 67d7 4940 0e00 08c0 c1a5 c5bf
-1.828089 -3.3195157 1.3396606 -0.6155629 1.2589389 -2.7205145 0.476777 3.0010147
-0.92011523 -1.1345164 0.4717882 0.3614355 -2.3738718 3.153772 -2.1250033 -1.5441209

features.15.running_var f4 [16]
00000000: 7559 4b40 de2f 2040 a6aa 2b40 bbf2 2c40
00000010: 97aa 4140 f4b7 5540 9163 9b40 2128 8840
00000020: e197 5240 6e51 5640 d086 6740 6aa9 2440
00000030: 81a7 7540 0591 9140 b883 3140 6022 4b40
3.177335 2.5029216 2.6822906 2.702315 3.026037 3.3393526 4.855904 4.2548985
3.29052 3.34872 3.6176033 2.5728402 3.8383486 4.5489526 2.7736645 3.173973

features.17.weight f4 [16, 16, 3, 3]
00000000: 3690 393d 3b55 26be 4c92 353e cff4 6dbd
00000010: c619 afbe f69f debe 7e22 363e beaf 153d
00000020: 0bf3 2bbe 78a0 01be dff0 84be 7a77 973e
00000030: 1fb0 ac3d 63a2 9cbe 4d78 563c 26d1 40be
00000040: 6456 73bd ea42 8abe ee3a 00be 4a8e 2bbd
00000050: 4016 333d 27c8 313e 349c c73e 3ba3 213e
00000060: 38b4 be3d c573 be3b e832 033e 01d3 9c3d
00000070: 36e4 373e 7d18 213e ecf1 00bd 1c17 84be
00000080: 27bb a8bc eb25 5bbe bb6f ccbe c2db 763e
00000090: 01fe 29bd ac29 80bd c6b5 25be 6230 cf3d
000000a0: 8580 6ebd 2da5 60bc c334 dabd 98a0 2d3e
000000b0: fe26 8fbe 3616 e93d 0651 42be 586d b3bc
000000c0: ed4b 1d3e d99f 05be 3380 c13d ad02 7639
000000d0: acb0 0abf e84b 4b3e 2a16 4cbd 9c12 63bd
000000e0: 7b71 863e 0396 50be 6d0c 46be 8318 9bbe
000000f0: 8332 623e d2d4 a83e 738b 723e 452e f1bc
00000100: 122e 2ebe 600b 90be 0352 fa3d 699f 44be
00000110: 1cff 8ebd 6413 753e 08aa 0d3f 9f91 323f
00000120: 2a15 8abd d083 0d3e 0b69 06be a560 e03d
00000130: 7ae5 1d3d f2d5 18be 31b5 9bbd 5e4d 923e
00000140: 3512 ab3d 1459 0fbe 5563 26bd 6acf 8fbe
00000150: 6d53 4ebe daa7 8dbe 9e41 68be 33cd ff3a
00000160: 3c99 acbe 8697 efbd 24f3 223e 25c2 2bbe
00000170: 2e27 c83e 13a1 ffbc a7ae 5ebe f864 ac3c
00000180: 046a 3c3e ffb1 87be d30b b8be d542 e3bd
00000190: d317 9a3d 46af e63d ea30 25be f313 1ebe
000001a0: f0d2 673d ec10 bfbe 3691 7fbe 0e84 25be
000001b0: 2873 ba3d ffa8 c8bd 22de e23d b4eb 61be
000001c0: d0bc 5dbe 36dd 83bd ce57 8cbd 04bb 1cbf
000001d0: 4620 573e c7ea 19bd 0a08 86bc 8d17 6e3e
000001e0: fbe1 8f3e 9848 cd3d 2195 863e b817 85bd
000001f0: c450 72bd d727 3a3e 17a4 09be 50e8 303d
00000200: a492 57be d5b6 8dbe e6ae 52be 6a69 c4be
00000210: ee89 83be 284a bebe b45c 823e 2158 b43d
00000220: a00b a93e 86f4 2bbd 3352 5cbe 6b4b 35bd
00000230: e198 2fbc 56e7 76bd 7e66 783c 8710 fc3c
00000240: e215 833e e531 213e d51e f6bc d965 58be
00000250: 84a1 b83d 6c35 a1bc a8bc 2dbd 4170 cd3d
00000260: b491 003e 2455 153e 30a0 513b 415f 9b3e
00000270: b32a e33d 4dbc 933e f2cc 7e3e 659f 793d
00000280: c682 463e 27dd ae3e 8318 b7bd 45d0 34be
00000290: 0380 013f 1f20 a4be 2132 e7be ba49 143e
000002a0: 9e33 96be bc5c 0abe ab47 c63c 581b 153e
000002b0: f2e7 693d 9507 b2bd 53d0 30be 09f0 753e
000002c0: ef8c 9bbe c848 4ebe 7e03 2c3e 390d 70ba
000002d0: edd2 25be 4319 f23d 24ca bf3d b8a9 4b3d
000002e0: bef1 ab3b ec5c 94bc 26d6 9cbc de6b 19bd
000002f0: 1762 543e 8738 0dbe 380f 7b3b b101 01ba
00000300: 1a92 0e3d 6266 1b3e a80e 3c3e 52a5 23be
00000310: 30f1 d23d ba93 9dbe dd00 adbd 4725 c83d
00000320: cad8 023e af9b d5bd b454 213e c180 5d3d
00000330: f0d5 60be e82a e9be 97ad 0e3e d204 76be
00000340: 1280 d83d 64d6 1ebd 9776 b5be d49c 403e
00000350: 6ce9 b9be 36a2 d43e 8d67 ba3e 06c5 843d
00000360: 22cc ab3d 428a b8bd 8fa0 7e3a 0a95 ac3e
00000370: 0251 dd3d 6960 da3e 582a 013d e91c b4bd
00000380: 36ea ddbc 8fbc b1be 4e4f 57bd c1ad a0bd
00000390: 2b96 b2bd 2266 183e 31bc 28be 39a4 b33d
000003a0: c453 14be 5d96 ddbd 3297 413e 9c3f ebbd
000003b0: a09b ce3c 1e70 37bc 23cf d23c 7f4b fc3e
000003c0: 4475 c4be 5af1 dcbe 5ae1 5abe abfa a23c
000003d0: 14dc 4cbd e01d 6abe ce7b 6a3d 0978 2fbe
000003e0: 956d fcbe d72f 8abe 0c9a 19be 624d 0cbf
000003f0: b112 3d3e b0c6 c9bd 4232 c23d 8932 a73e
0.045303546 -0.1624345 0.17731589 -0.058094796 -0.3419935 -0.43481416 0.17786595 0.036544554
-0.16791932 -0.1265887 -0.2596502 0.2958334 0.0843203 -0.3059264 0.013090205 -0.18829784
-0.05940856 -0.27004176 -0.1252248 -0.041883744 0.04372239 0.17361508 0.3898636 0.15784924
0.09311718 0.0058121406 0.12812388 0.07657433 0.1795815 0.15731998 -0.031480715 -0.2579888
-0.020597054 -0.21401183 -0.39928994 0.24107268 -0.041502003 -0.06257948 -0.16182622 0.1011665
-0.058228035 -0.013711256 -0.10654595 0.16955793 -0.27959436 0.113811895 -0.1897622 -0.021902725
0.15360995 -0.13049258 0.0944828 0.00023461385 -0.5417583 0.19853175 -0.049825825 -0.05543767
0.26258454 -0.20369725 -0.19340678 -0.30292138 0.22089581 0.3297487 0.23686008 -0.029441008
-0.17009762 -0.28133678 0.12222674 -0.19201435 -0.06982252 0.23933178 0.5533757 0.6975345
-0.06742318 0.13819814 -0.13126008 0.109559335 0.038548924 -0.14925364 -0.07602919 0.2857465
0.08353082 -0.13998824 -0.040622074 -0.28087932 -0.20149012 -0.27667123 -0.22681281 0.001951611
-0.3371066 -0.11698823 0.15913063 -0.16773279 0.39092392 -0.031204736 -0.21746312 0.02104424
0.18399817 -0.26502988 -0.3594652 -0.110967316 0.07524075 0.112638995 -0.1613194 -0.15437298
0.05659765 -0.37317598 -0.24957737 -0.16163656 0.091039956 -0.097978584 0.11077525 -0.2206257
-0.21654058 -0.06438677 -0.06852685 -0.61222863 0.21008405 -0.037577417 -0.016361255 0.23251171
0.28102097 0.10023612 0.2628565 -0.064986646 -0.059159055 0.1817926 -0.13441502 0.0431903
-0.21052033 -0.27678552 -0.20574531 -0.38361675 -0.2569117 -0.37165952 0.25461352 0.08805872
0.33016682 -0.041981243 -0.21515732 -0.044261377 -0.0107176015 -0.060279213 0.015161155 0.0307696
0.25602633 0.1574169 -0.030043999 -0.21132602 0.09015182 -0.019678794 -0.042416245 0.10031176
0.12555581 0.1458326 0.0031986348 0.3034611 0.110921286 0.288546 0.24882868 0.060943026
0.19385824 0.341531 -0.08940222 -0.17657574 0.50585955 -0.32055756 -0.45155433 0.1448125
-0.29336256 -0.13511938 0.024204096 0.14561212 0.057105966 -0.086928524 -0.1726697 0.24017347
-0.3038096 -0.20144951 0.16798207 -0.0009157244 -0.16193743 0.118212245 0.09364727 0.049722403
0.005247324 -0.018110715 -0.019145083 -0.037456386 0.20740543 -0.13791095 0.0038308632 -0.00049212115
0.034807302 0.15175775 0.18364966 -0.15981033 0.10299909 -0.3077677 -0.0844743 0.09772735
0.12778011 -0.10430085 0.15754968 0.054077867 -0.2195661 -0.45540547 0.13933407 -0.24025276
0.105713025 -0.038778678 -0.3544204 0.18809825 -0.363109 0.41530007 0.36407128 0.06482892
0.083885446 -0.090107456 0.0009713256 0.33707458 0.10806467 0.4265168 0.031534523 -0.08794577
-0.02708922 -0.3471417 -0.052565865 -0.07845641 -0.087200485 0.1488271 -0.1647804 0.08771557
-0.14485079 -0.10819695 0.18905333 -0.11486742 0.025220692 -0.011196164 0.025733536 0.4927635
-0.38370717 -0.43152887 -0.21375027 0.019894918 -0.05001457 -0.22862959 0.057246976 -0.17135634
-0.49302354 -0.26989624 -0.1500017 -0.54805577 0.18464161 -0.0985235 0.09482242 0.32655743

features.17.bias f4 [16]
00000000: fee0 cebb 34d1 87bd ca80 f13c 307a f2bd
00000010: db37 123d b33c 95bd d7e7 24bd d632 c03d
00000020: 9570 bebc 6fcb 643d 2b2e 323d 0a6b 363a
00000030: f77e 543c 2484 273d dc41 003c abb8 5dbc
-0.0063134423 -0.06631699 0.029480357 -0.11839712 0.0356978 -0.07286968 -0.040260162 0.09384696
-0.023247043 0.055858072 0.04350106 0.0006958699 0.012969724 0.040897503 0.007828202 -0.013532798

features.18.weight f4 [16]
00000000: b9f5 8f3f 6e49 4e3f 29e7 943f 64e5 833f
00000010: 2b06 813f 094b 8d3f f4e1 713f 4899 713f
00000020: f3d0 6c3f 2540 953f cc30 723f 00f0 733f
00000030: 68a3 823f 4e49 8c3f 541b 783f 122a 773f
1.1246864 0.80580795 1.1633044 1.030438 1.0080007 1.1038524 0.944854 0.94374514
0.9250633 1.16602 0.9460571 0.95288086 1.0206118 1.0959871 0.969167 0.9654857

features.18.bias f4 [16]
00000000: a81c babd 68c6 ed3d 72fc 76be 7ade 243d
00000010: 4a0b a03e 2c3d 853e 0b58 bfbd 91b2 573e
00000020: 569f a83e 35d8 ce3d c18d 3d3e 1328 343e
00000030: aafc bb3e f2ed 963d 7799 453e 8062 d33e
-0.09087497 0.116101086 -0.24119738 0.040251233 0.31258613 0.26023233 -0.09342965 0.21064211
0.32934064 0.10099832 0.18511106 0.17593412 0.36716205 0.07369603 0.19296823 0.41286087

features.18.running_mean f4 [16]
00000000: 4524 01c0 24b5 833e 2017 04c0 79dc 24c0
00000010: 1805 933c 2226 f9be 9d75 53bf 302c 0940
00000020: a334 383f c274 52bf 6dfc b03f 1586 d2bd
00000030: d7bb 48bf 77b8 27bf febe 64bf cf22 bf3e
-2.0178387 0.25724137 -2.0639114 -2.5759566 0.017946765 -0.48661906 -0.8260134 2.143322
0.7195532 -0.8220941 1.3827034 -0.1027948 -0.7841162 -0.65515846 -0.8935393 0.37331244

features.18.running_var f4 [16]
00000000: 510c bd40 59de 8f40 f3b6 8040 ec50 ba40
00000010: 2ed4 a840 277a 8940 913a 9240 c033 6b40
00000020: 1a34 5c40 896a 8d40 0224 a440 d327 8f40
00000030: ab33 9b40 8332 b440 612b 9540 ebcb 8a40
5.9077535 4.495892 4.0223327 5.822378 5.275901 4.296161 4.569649 3.6750336
3.44068 4.419255 5.1293955 4.4736114 4.850057 5.631166 4.6615453 4.3373923

features.20.weight f4 [16, 16, 3, 3]
00000000: 66ef e5be 4453 5abe 76f6 813e 2cb6 f3be
00000010: 554a bebe c183 40be a8e2 17bf 3dbe a5be
00000020: 3677 30be 349b 44be 413f 9bbe 456f f3be
00000030: b755 b33e 4256 813d 5a12 b33d fadf bc3e
00000040: 41ce 18be 9565 d43b 33c2 d23d 1093 113e
00000050: 6c28 ccbd 3172 acbd 58c1 483d 92ef e6bd
00000060: 7bf8 efbe 79f6 c2bd 7077 84be 61b2 573d
00000070: 39a1 da3d 16dc eabd 8a3c 153e c9f2 a63e
00000080: d358 66be 5aea febd 89b7 3dbe 9657 8abe
00000090: 5e16 a1be 64dc 5d3d c3e0 fcbd 6a5b 6bbe
000000a0: 6714 72bd 501d 8abe ad90 eebd bb99 293e
000000b0: 27bd 03bd fffd 83bd d383 79be 93b6 3e3d
000000c0: 7c1e 82be a68d 8ebe e028 15be d4d5 1ebd
000000d0: ed2b 14bd dc20 483e 340b 1f3e f523 37ba
000000e0: 53be 6f3c 3a05 4a3e 09b6 6c3d c0ce abbe
000000f0: 7ebe 8abc dc0c 4b3e 92ba 94bc a9f4 783e
00000100: eb0c 6a3d bc82 08be c9f3 ab3d d85a a2be
00000110: e995 34be 17de 7abd 6609 dc3d 1021 adbd
00000120: 0d79 eebe 59b4 16bf 2cfb a4be cafa fd3c
00000130: 7181 403d 01d9 25be b6fd 50be f272 afbd
00000140: 55b7 9bbe 9a68 8e3d c4ed e7bd 0c5a 30bd
00000150: 65c3 bdbe 9605 9abd a956 0e3e f8ac a0be
00000160: 4dd8 34bf 9834 4d3d 218f 34be e3eb 83be
00000170: 9776 75be a794 b3bd c4b1 16be 7fa2 0fbe
00000180: 4b06 253d 2dee 2e3e 2ae8 9dbe bac5 fabd
00000190: d61c 063d 4fd5 1f3e 03bc 72bc 7015 893d
000001a0: 1b76 ed3d f21a 313d 1e3b 83bd 433d eabd
000001b0: b2d1 84bd 9067 12bd e4bf c33c 8b0b d63d
000001c0: 0fd4 583e 47f6 c23e ad66 8b3d 9f57 833e
000001d0: aebf 1f3c 5c7b 82bd 3eb4 85be 8da2 44be
000001e0: b0d9 2bbe de07 86bd 5904 44be 6e56 83bd
000001f0: 5465 d23d 64b9 fc3d 14d3 81be 7267 663e
00000200: 0033 703e 4431 d1be 3e4f f7bd effa 63bd
00000210: ba5b 8abe 4439 3e3d 5884 5fbe 14d5 85be
00000220: 67c1 95bb aa0d 94be 7552 c13e dab0 1e3e
00000230: b843 3bbd 6c31 2dbd 0a61 95bd ced3 183c
00000240: d3fa 80be 24c7 90be 8182 86bd 3ea8 e43d
00000250: 3e2a 8ebe f554 983c cc17 dd3d c921 79be
00000260: 5366 8ebb 74a1 4a3d b36c 4dbe cbcb 8dbc
00000270: 49ce a03d 2379 983d c653 6b3e 636b 51bd
00000280: e4ee 5d3d 3eed 843e 5d16 79be 1825 9abd
00000290: 9e18 6dbe 179a 35be 5d1d 3d3d 69ab cbbe
000002a0: 8e92 9a3d cd8c a13e f58d bc3d 3f74 2dbe
000002b0: f31e 4b3c 1df6 073e cdc2 98be cf1c bc3d
000002c0: a757 e2bc e52a 26be 5c60 6cbe 0ff3 a6bc
000002d0: 40ba 67bd 21b1 b23d 2653 063d 058b 853e
000002e0: 2169 013f ff68 a33e 3058 a8bd ce13 383d
000002f0: 9457 053e 9ac8 b93e a51b b03e 2b0b 4e3e
00000300: 011d 9b3e 2c65 773e 7082 ba3e 17ee 8b3e
00000310: c188 76be 7dd4 603d 5432 72be 01b9 65bc
00000320: b422 613e fe34 193e b904 533e 10a4 0d3e
00000330: ce7d 0d3d cc27 1f3e 4ceb 3f3e d6b9 6d3e
00000340: 14ab b43e 67e7 963e 727b 3bbe 60ed 163e
00000350: b32f 323e 9ea5 6e3e 8082 9d3e da6a 0c3e
00000360: 7c51 3bbe e507 35be 7707 67be e90f 1bbe
00000370: 2698 853e d450 6fbd 6b5d 66bd 91df a73c
00000380: 7e8d fe3d 3247 87bd cedb 19be 6e65 553c
00000390: 4135 343e fc65 49be ab52 23be e1eb 9d3d
000003a0: a440 993d 7139 c3bc b3bf 3cbe 7229 f6be
000003b0: 2d68 55bd f536 d3be 364a bfbe 5ea0 a9be
000003c0: 0e7c 33be 6f10 a0be 9102 183e ba68 4dbe
000003d0: 227f b4be b058 9c3d a5e2 a2be 2534 23be
000003e0: df36 4a3e 2ef3 383d 00a1 023e f708 913c
000003f0: 28c2 47be 0b8c 08bd 383d 8b3d 117a 7dba
-0.4490921 -0.21320826 0.25383347 -0.47599924 -0.37166086 -0.1880026 -0.59330225 -0.32371703
-0.17232975 -0.1919983 -0.30321696 -0.4754583 0.35026333 0.063152805 0.08743735 0.3688963
-0.1492243 0.006481836 0.10290947 0.14216256 -0.09968647 -0.08420218 0.049012512 -0.11276163
-0.46869263 -0.09519667 -0.25872374 0.05266035 0.10675282 -0.11467759 0.14573875 0.32607105
-0.22494821 -0.12447043 -0.18527044 -0.27019948 -0.31462377 0.05416526 -0.123475574 -0.2298409
-0.05910149 -0.2697549 -0.116486885 0.1656255 -0.03216281 -0.0644493 -0.24366693 0.046560835
-0.25413883 -0.27842444 -0.14566374 -0.03877814 -0.036174703 0.19543785 0.15531617 -0.0006986254
0.014632779 0.19728556 0.05779079 -0.33556175 -0.016936537 0.19829124 -0.01815537 0.2431208
0.057141226 -0.13331121 0.08396108 -0.31709933 -0.17635311 -0.061246958 0.1074398 -0.08453572
-0.4657673 -0.5886894 -0.3222288 0.031003375 0.046998445 -0.16196062 -0.20409283 -0.08566846
-0.3041331 0.06953545 -0.11324647 -0.043054625 -0.37063137 -0.07520597 0.13900246 -0.31381965
-0.7064255 0.050098985 -0.17632724 -0.25765905 -0.2397102 -0.087685876 -0.1471625 -0.14026831
0.040289205 0.17083044 -0.3084119 -0.122447446 0.032742344 0.15608715 -0.014815333 0.06693542
0.115947925 0.043238588 -0.0640776 -0.11437466 -0.06485309 -0.035743296 0.023895212 0.104514204
0.21174644 0.3807852 0.06806693 0.25652787 0.00975029 -0.06371185 -0.26114076 -0.19202633
-0.1678226 -0.06544469 -0.19142283 -0.064129695 0.10273233 0.12340048 -0.25356352 0.22500399
0.23456955 -0.408579 -0.12075661 -0.05565923 -0.27023107 0.04644133 -0.21827829 -0.26139128
-0.0045701745 -0.28916675 0.37758222 0.15497151 -0.04571888 -0.04228346 -0.07293899 0.009327842
-0.25191364 -0.28276932 -0.065678604 0.11164902 -0.27766603 0.018595198 0.107955545 -0.24329294
-0.004345694 0.04947038 -0.20060997 -0.01730909 0.07851846 0.0744498 0.22981176 -0.051127803
0.054182902 0.2596225 -0.24324937 -0.07526606 -0.23153922 -0.17734562 0.04617058 -0.39779213
0.07547484 0.31552735 0.09206764 -0.16938876 0.012397516 0.13277479 -0.2983612 0.09185182
-0.027629687 -0.162273 -0.23083633 -0.020379571 -0.056574106 0.08725191 0.03279414 0.26082626
0.5055104 0.31916043 -0.082199454 0.044940762 0.1302169 0.3628586 0.3439609 0.20121448
0.30295566 0.24159688 0.3642764 0.27330086 -0.24075605 0.054890145 -0.23652011 -0.014021159
0.21985894 0.14961621 0.2060727 0.13832116 0.034543805 0.15542525 0.18742102 0.23215422
0.35286772 0.2947342 -0.1830881 0.14738989 0.17401008 0.23305365 0.30763626 0.13712636
-0.18292803 -0.17678793 -0.22561441 -0.15142788 0.26092643 -0.058426693 -0.056241434 0.020492347
0.12429331 -0.06605376 -0.15025255 0.013024671 0.1759844 -0.1966781 -0.15949504 0.07711006
0.07483032 -0.023831101 -0.18432502 -0.48078495 -0.052101303 -0.41252866 -0.37361306 -0.33130163
-0.17527792 -0.31262538 0.14844729 -0.20059481 -0.35253245 0.07634103 -0.3181354 -0.1593786
0.19747494 0.04515379 0.12756729 0.01770447 -0.19507658 -0.03333668 0.06798786 -0.00096693734

features.20.bias f4 [16]
00000000: 26db 283d 9cf6 903d 5932 86bd 5368 873c
00000010: 9e64 89bc 8ff1 86bc 2cf1 623d 9e4b aabc
00000020: adae 0c3d 552a dd3c a5e8 e63c e65d 9e3c
00000030: 79c5 9bbc 2705 f73a 7160 4f3d d72d 41bc
0.04122462 0.07078287 -0.06552572 0.016529238 -0.01677161 -0.016472606 0.05540578 -0.02078801
0.03434627 0.026997725 0.028187105 0.019331884 -0.01901506 0.001884614 0.050629083 -0.011790714

features.21.weight f4 [16]
00000000: 61c6 973f f69d 8a3f bf04 673f d8f1 4f3f
00000010: 0de9 813f 598b 6a3f 43ba 863f 6339 813f
00000020: ba31 843f 8e5c 863f 2808 8b3f 780f 803f
00000030: 430e 8f3f 6239 803f 6fac 8a3f c17f 6d3f
1.1857415 1.0829456 0.90241617 0.812284 1.0149246 0.9161888 1.0525593 1.0095638
1.0327675 1.0496995 1.0861864 1.0004721 1.1176227 1.0017512 1.0833873 0.9277306

features.21.bias f4 [16]
00000000: caaf 243e 3e51 d53c 16e6 c93d 3cf0 973e
00000010: e3d2 ad3d e0ce 853e 1ae2 1ebe a148 c03c
00000020: 7721 ebbd f7fb e63e fdf3 733d 3ca7 893e
00000030: 16b7 d93e 1dae d83c a121 7ebc 63c9 933d
0.16082683 0.026039716 0.098583385 0.29675472 0.08487489 0.26134396 -0.15515938 0.023472132
-0.11480992 0.4511411 0.059558857 0.26885402 0.42522496 0.026450211 -0.015510947 0.07216146

features.21.running_mean f4 [16]
00000000: d62d 7ec0 4e60 17bd bc4c f0bf df1b aabc
00000010: b244 71bd a099 9a3e 362d 47c0 3c77 0b40
00000020: 65d8 973f ce91 5ebe 4ce5 fabe 313c 84bf
00000030: 8890 2d3f 8b1c 373f 291d 193f 1c27 25c0
-3.9715476 -0.036957078 -1.8773417 -0.020765243 -0.058903404 0.30195332 -3.1121345 2.1791525
1.1862913 -0.21735308 -0.49003065 -1.0330869 0.6779866 0.7152793 0.5981012 -2.580512

features.21.running_var f4 [16]
00000000: 54dc db40 591b 8c40 2e0a 8440 8d21 2940
00000010: b479 9840 22bc b740 e854 ac40 8486 eb40
00000020: 6004 6540 5bc7 0741 e52a 8040 3752 b440
00000030: ec2d 9540 94ae 9740 ec96 8240 f57a ae40
6.8706455 4.3783383 4.1262426 2.6426728 4.7648563 5.7417154 5.3853645 7.3601704
3.578392 8.486171 4.005236 5.635036 4.6618557 4.740061 4.080923 5.4525094
