logs/VGG19_XXXS/Cifar10/VGG19_XXXS_bs32_e20_id1.model (torch_old, 345452 bytes, 108 tensors)

features.0.weight f4 [4, 3, 3, 3]
0.2508783 -0.038915616 0.45283714 0.65698916 -0.4873329 -0.030823192 -0.25556028 -0.45539486
0.013769587 0.17623688 -0.2838249 -0.20298122 0.45642796 0.064196505 -0.1162794 -0.12102215
0.16052745 -0.16333552 -0.14267875 -0.25990537 0.04669607 0.4766394 -0.079782665 -0.022322904
-0.19575977 -0.0066440706 0.26175466 0.27468002 0.054953538 -0.083664104 -0.28706792 0.62659997
-0.06686129 -0.47102746 -0.3026656 0.06814309 0.023927417 0.4471576 0.13053918 -0.13806862
0.0631502 0.061556153 -0.7601196 -0.32262585 -0.12403161 0.22735122 0.09504807 -0.011776516
0.16688675 0.0066980887 0.06680967 -0.06175326 0.039492004 -0.24423647 -0.2973653 -0.58866537
0.21477504 0.3626844 0.22920829 -0.046865914 -0.27102503 0.10886544 0.26255885 -0.037304863
-0.34705323 -0.010964834 0.30859095 -0.3141788 0.02135 -0.11736085 0.12526079 -0.3196046
0.26146892 -0.08682343 -0.2616917 0.23563422 0.34360278 -0.061922308 0.6768482 -0.11505233
-0.08314858 0.62012374 0.22112769 0.30033696 0.1683223 -0.16440983 0.039548296 -0.25967112
-0.34315103 0.24671663 -0.22592436 -0.49006134 0.057917833 -0.27918977 -0.3296549 -0.25410852
-0.17039147 0.33178017 0.12596281 0.19683741 -0.37243554 -0.094800584 0.07630322 -0.14507008
-0.07281866 0.21431169 -0.07878814 0.38432187
00000000: 1f73 803e fb65 1fbd 45da e73e 7130 283f
00000010: b383 f9be eb80 fcbc ccd8 82be 8429 e9be
00000020: d599 613c 7177 343e 7f51 91be 4fda 4fbe
00000030: edb0 e93e 7579 833d e523 eebd 76da f7bd
00000040: 4f61 243e 6d41 27be 611a 12be 5112 85be
00000050: 6144 3f3d 140a f43e 1865 a3bd 86de b6bc
00000060: 4075 48be 81b6 d9bb b504 863e dca2 8c3e
00000070: f616 613d 1658 abbd 91fa 92be db68 203f
00000080: 92ee 88bd 832a f1be fcf6 9abe 9b8e 8b3d
00000090: 6e03 c43c d7f1 e43e 10ac 053e dc61 0dbe
000000a0: e454 813d 4e22 7c3d 3397 42bf 372f a5be
000000b0: 4904 febd c2ce 683e 90a8 c23d 4af2 40bc
000000c0: 5ce4 2a3e a47b db3b 82d3 883d fdf0 7cbd
000000d0: 5ec2 213d 2019 7abe 4440 98be c6b2 16bf
000000e0: fded 5b3e c5b1 b93e 94b5 6a3e 79f6 3fbd
000000f0: cbc3 8abe d8f4 de3d 1d6e 863e fccc 18bd
00000100: f6b0 b1be d9a5 33bc a2ff 9d3e 0bdc a0be
00000110: 32e6 ae3c e35a f0bd 5d44 003e 37a3 a3be
00000120: 41df 853e 7cd0 b1bd 74fc 85be 194a 713e
00000130: b4ec af3e 3fa2 7dbd ec45 2d3f 8ea0 ebbd
00000140: cd49 aabd 6ec0 1e3f 4c6f 623e c4c5 993e
00000150: ae5c 2c3e 0d5b 28be 65fd 213d 9df3 84be
00000160: 7eb1 afbe 49a3 7c3e b758 67be 52e9 fabe
00000170: 403b 6d3d f6f1 8ebe 87c8 a8be 831a 82be
00000180: 1a7b 2ebe 17df a93e 65fc 003e bf8f 493e
00000190: dfaf bebe cf26 c2bd dd44 9c3d 408d 14be
000001a0: f321 95bd 8674 5b3e ad5b a1bd d6c5 c43e

features.0.bias f4 [4]
0.13726266 0.07563149 -0.25606197 0.029072285
00000000: 958e 0c3e afe4 9a3d 8e1a 83be 0029 ee3c

features.1.weight f4 [4]
1.2892336 0.9226985 0.7067252 0.5017395
00000000: 9b05 a53f f835 6c3f f1eb 343f 0072 003f

features.1.bias f4 [4]
1.0331856 0.33935204 0.080222644 0.11969216
00000000: 6d3f 843f 8dbf ad3e c54b a43d 2a21 f53d

features.1.running_mean f4 [4]
0.12152446 0.17609133 -0.31417832 0.21838076
00000000: d1e1 f83d 4951 343e fbdb a0be 359f 5f3e

features.1.running_var f4 [4]
1.1340964 3.2217116 1.472671 1.1317251
00000000: 122a 913f 8630 4e40 7c80 bc3f 5edc 903f

features.3.weight f4 [4, 4, 3, 3]
-0.16454352 0.2264957 -0.08426338 -0.11311191 -0.64177424 0.10225319 0.12810291 0.2314624
0.19824386 0.038930174 0.21292622 -0.28856787 -0.29453057 0.38740304 0.7560189 -0.1894956
-0.20222124 0.2759648 -0.08552595 0.042344287 -0.17163603 -0.3252903 0.103201285 -0.19113353
0.4615061 -0.19116667 -0.3004494 -0.25073025 0.2404367 -0.03860874 0.0294555 -0.009990136
-0.002660387 0.13531964 0.3461858 0.12295528 0.6362684 -0.4768019 -0.21714406 -0.5701119
0.68329847 -0.20323716 -0.009291617 -0.19583581 0.04941975 0.09902266 -0.26834577 -0.05063046
0.057150856 -0.30428657 0.015866173 0.012590299 -0.0016859419 -0.20996074 0.08677437 -0.07142019
-0.016959608 -0.26967034 0.1749447 0.103031784 -0.24988334 0.108873494 0.19609836 0.4681498
-0.3396532 -0.3973554 0.33163926 -0.42126894 -0.25306052 -0.23156711 -0.008600829 -0.13422023
-0.0628416 0.2616433 -0.13877314 -0.16493599 0.7151548 -0.55303884 -0.18276772 0.3824913
-0.43590778 -0.10421856 -0.4508536 0.28605354 -0.07548866 -0.43971354 0.3818279 -0.09062942
-0.14398845 0.4716458 -0.1717269 0.18026347 -0.19569808 -0.3738056 0.36025462 -0.27408314
0.030389054 0.104215294 -0.33173835 -0.33203262 0.36405694 0.05468942 -0.30632147 0.002493867
0.19027983 -0.30958983 0.14497392 0.16957127 0.23087713 0.29303885 0.5393148 -0.28318393
-0.25778586 -0.44434983 -0.033005394 0.22631755 -0.1900007 -0.29571033 -0.09172622 0.26155013
0.13840997 0.10428075 0.007159868 0.08026752 -0.0011696011 -0.13530727 -0.06437246 0.2190513
0.30475882 -0.090781234 -0.2890871 0.42089412 -0.1701884 -0.030666033 0.58150303 0.008254131
0.083733946 -0.44072026 -0.4593673 0.04906345 -0.4165808 -0.32921952 -0.3893451 0.25527883
00000000: 197e 28be 7dee 673e 4792 acbd 38a7 e7bd
00000010: 514b 24bf 1f6a d13d 692d 033e 7b04 6d3e
00000020: 7000 4b3e 3f75 1f3d 5509 5a3e 2bbf 93be
00000030: b6cc 96be b159 c63e 748a 413f 220b 42be
00000040: 1613 4fbe 424b 8d3e 3b28 afbd 3471 2d3d
00000050: 5bc1 2fbe 738c a6be 325b d33d 82b8 43be
00000060: 874a ec3e 32c1 43be 81d4 99be b75f 80be
00000070: 0a35 763e 3324 1ebd a94c f13c abad 23bc
00000080: e359 2ebb 3b91 0a3e 443f b13e facf fb3d
00000090: 7ce2 223f 611f f4be 035b 5ebe daf2 11bf
000000a0: a6ec 2e3f 671d 50be de3b 18bc 2f89 48be
000000b0: 5d6c 4a3d 64cc ca3d 9e64 89be e361 4fbd
000000c0: 0417 6a3d 73cb 9bbe c7f9 813c 8b47 4e3c
000000d0: d3fa dcba f3ff 56be c3b6 b13d c044 92bd
000000e0: e0ee 8abc 3b12 8abe b424 333e 5402 d33d
000000f0: 6be1 7fbe 11f9 de3d 02ce 483e 55b1 ef3e
00000100: 06e7 adbe 2b72 cbbe 9fcc a93e 90b0 d7be
00000110: 2691 81be ee1f 6dbe 7eea 0cbc 0771 09be
00000120: 19b3 80bd 1cf6 853e 8c1a 0ebe fbe4 28be
00000130: 6314 373f f493 0dbf 7627 3bbe e6d5 c33e
00000140: 4e2f dfbe 8a70 d5bd 48d6 e6be 9c75 923e
00000150: cc99 9abd 2222 e1be f27e c33e eb9b b9bd
00000160: b571 13be 8f7b f13e 2dd9 2fbe fd96 383e
00000170: 1465 48be 7363 bfbe 4b73 b83e a054 8cbe
00000180: 77f2 f83c d46e d53d 9cd9 a9be 2e00 aabe
00000190: ac65 ba3e 0302 603d 2bd6 9cbe 2570 233b
000001a0: b7d8 423e 8f82 9ebe 0b74 143e 17a4 2d3e
000001b0: 0e6b 6c3e 3009 963e 8910 0a3f 7cfd 90be
000001c0: 82fc 83be d281 e3be aa30 07bd cabf 673e
000001d0: 8b8f 42be 5867 97be f5da bbbd e6e9 853e
000001e0: 58bb 0d3e 2591 d53d 539d ea3b 4c63 a43d
000001f0: 4d4d 99ba fd8d 0abe b5d5 83bd fc4e 603e
00000200: 5909 9c3e 83eb b9bd 3903 94be 6f7f d73e
00000210: de45 2ebe 5537 fbbc 62dd 143f 563c 073c
00000220: b47c ab3d 16a6 e1be 3132 ebbe c2f6 483d
00000230: 144a d5be 768f a8be 3e58 c7be e8b3 823e

features.3.bias f4 [4]
0.0004998239 0.116067514 0.12517811 -0.30575508
00000000: 9d06 033a ceb4 ed3d b12e 003e ee8b 9cbe

features.4.weight f4 [4]
0.7911264 0.76895934 1.2677032 1.0552193
00000000: 4287 4a3f 85da 443f 1944 a23f 6d11 873f

features.4.bias f4 [4]
0.6209509 0.5167502 0.06534119 0.36797866
00000000: a3f6 1e3f be49 043f 9ad1 853d b367 bc3e

features.4.running_mean f4 [4]
0.1917491 -0.7525486 -0.21502173 -0.3789508
00000000: e059 443e 06a7 40bf a82e 5cbe d705 c2be

features.4.running_var f4 [4]
0.6732385 0.6409592 4.0562305 0.8080891
00000000: 5c59 2c3f e715 243f a4cc 8140 edde 4e3f

features.7.weight f4 [8, 4, 3, 3]
0.15269004 0.019092139 0.0320958 -0.30013204 0.3134323 0.11902832 -0.07886412 -0.20080824
0.38360572 -0.07898214 0.14285973 0.26231465 0.24579746 0.638488 0.28680554 0.27520806
0.2753744 -0.1775925 -0.0047737476 -0.31616414 -0.2607558 -0.1358657 -0.17018484 -0.0012344236
-0.0778297 0.102647975 -0.13834107 -0.04579215 -0.38549915 0.04400518 0.036451407 -0.47663963
0.012744935 -0.08142663 -0.23676562 -0.033775933 0.16682436 -0.07936443 0.024112836 0.008209516
0.31846526 0.45470732 -0.057051055 0.06776493 -0.20074862 -0.0854294 0.1765036 0.33980963
0.1925986 -0.094350114 -0.3101363 0.05087652 -0.030931668 -0.0009603312 0.11391586 0.033857565
-0.51585513 -0.43393236 -0.91889083 -0.38466537 0.15665528 0.027946716 0.0037705551 -0.18460089
0.3053232 0.21148334 0.10747987 -0.33803216 -0.12579663 -0.083388954 -0.16690393 0.06209493
-0.24013966 0.23924556 0.4525009 0.12771021 -0.18113522 0.30918792 -0.089639574 -0.007921643
-0.15090829 0.0493977 0.00944443 -0.18383163 -0.055625584 -0.21745005 -0.45293364 0.10903459
-0.21517304 0.09239892 -0.071936615 0.013248164 -0.26209 0.06641889 0.15783623 0.16051863
-0.16408308 0.17481291 0.2516861 0.04141706 0.015275438 -0.037460063 0.14623618 -0.2523261
-0.8184755 0.30308348 0.031155724 -0.5372454 -0.3088572 -0.42693818 -0.46721965 0.17005871
0.09076795 -0.29450157 -0.24226512 0.036435954 0.050669067 0.019201707 -0.14370354 0.34676927
0.054747395 0.07967028 -0.100121506 0.043203637 0.13642266 -0.33693594 -0.20671418 0.040514626
-0.64676434 0.43662536 -0.039405745 -0.18547231 0.01692049 0.074831136 -0.059841678 -0.07984108
-0.21097863 0.14001723 -0.5582772 -0.57542866 -0.20726311 -0.07175348 -0.0038310923 0.33081588
-0.070990555 0.66245556 0.21849957 0.32620832 0.13027851 -0.15634501 -0.16511078 -0.2003783
-0.024620514 -0.10283122 0.03700103 -0.1940241 0.2994054 -0.48781708 0.087648444 -0.029287856
-0.20541261 0.17683797 0.26408055 0.0810561 0.23302062 -0.26863423 0.04313442 -0.27451304
-0.20361589 -0.19388153 -0.5243388 0.3254751 0.11666985 -0.35400102 0.006869917 -0.01473044
-0.021799156 0.37649146 -0.24996158 -0.0048115496 0.05592729 -0.04621671 -0.22718081 0.28312215
0.033603933 -0.33927062 -0.20857033 0.3603914 -0.057869375 0.61063045 0.19783081 0.15960158
0.072322704 0.6231024 0.47724837 0.27431297 0.030644318 0.005202835 0.115721256 0.0668762
-0.056687936 0.3383219 0.096890025 -0.10759368 -0.30828866 -0.15671794 -0.37624732 -0.026014308
-0.1430138 -0.08518078 -0.13680395 -0.20114215 -0.2219488 0.29276916 -0.08756284 0.16235015
-0.10330773 -0.004019765 0.0140466085 -0.45198914 -0.023898017 0.18445478 0.09178808 -0.18876527
0.07041552 -0.10457102 -0.056300513 0.12880708 0.24039288 -0.12634663 -0.12608565 0.16014141
-0.09661405 -0.027237775 0.0909335 -0.17067297 0.24985231 -0.6700829 -0.6995892 -0.26667333
-0.29751536 -0.2614428 0.05402272 0.16218397 -0.22557238 0.0004230508 0.170003 -0.30825374
-0.07261973 0.49818563 -0.12841754 0.014127443 0.03063323 -0.4532214 -0.07816721 -0.16346051
00000000: c75a 1c3e 1e67 9c3c e376 033d e8aa 99be
00000010: 337a a03e 1fc5 f33d 8383 a1bd ada0 4dbe
00000020: f867 c43e 63c1 a1bd d249 123e 1b4e 863e
00000030: 54b2 7b3e f373 233f 2dd8 923e 12e8 8c3e
00000040: e0fd 8c3e cfda 35be 196d 9cbb 44e0 a1be
00000050: c981 85be 6120 0bbe ef44 2ebe 62cc a1ba
00000060: 2e65 9fbd 1a39 d23d 48a9 0dbe 8d90 3bbd
00000070: 2560 c5be c73e 343d 124e 153d 1c0a f4be
00000080: 22d0 503c 01c3 a6bd b072 72be a258 0abd
00000090: 01d4 2a3e d189 a2bd 4888 c53c 3581 063c
000000a0: e10d a33e 66cf e83e 5eae 69bd 57c8 8a3d
000000b0: 0c91 4dbe 9cf5 aebd 5cbd 343e 87fb ad3e
000000c0: 9138 453e a23a c1bd 2fca 9ebe e663 503d
000000d0: 6964 fdbc bcbe 7bba b84c e93d 3bae 0a3d
000000e0: 150f 04bf 622c debe 6e3c 6bbf dcf2 c4be
000000f0: 3e6a 203e 83f0 e43c 6b1b 773b 0408 3dbe
00000100: 5353 9c3e 178f 583e 681e dc3d 8d12 adbe
00000110: d5d0 00be d4c7 aabd dde8 2abe 4157 7e3d
00000120: 2ce7 75be cafc 743e 33ae e73e 77c6 023e
00000130: 837b 39be e14d 9e3e f494 b7bd c7c9 01bc
00000140: b487 1abe 3e55 4a3d cfbc 1a3c 5c3e 3cbe
00000150: a7d7 63bd 3aab 5ebe ebe6 e7be 874d df3d
00000160: 5256 5cbe a53b bd3d 8153 93bd d40e 593c
00000170: a930 86be a106 883d d29f 213e ff5e 243e
00000180: 6505 28be 2802 333e 00dd 803e efa4 293d
00000190: d545 7a3c b96f 19bd f0be 153e e330 81be
000001a0: 9c87 51bf c22d 9b3e 4a3a ff3c ea88 09bf
000001b0: 8822 9ebe a497 dabe 6a37 efbe df23 2e3e
000001c0: 8ce4 b93d e9c8 96be 5914 78be de3d 153d
000001d0: 5e8a 4f3d e64c 9d3c 0527 13be be8b b13e
000001e0: ce3e 603d 2c2a a33d 810c cdbd 4cf6 303d
000001f0: 62b2 0b3e de82 acbe e2ac 53be aaf2 253d
00000200: 5992 25bf 5c8d df3e eb67 21bd 74ec 3dbe
00000210: d79c 8a3c 1141 993d 8c1c 75bd b883 a3bd
00000220: c80a 58be ad60 0f3e 41eb 0ebf 4b4f 13bf
00000230: c83c 54be 7df3 92bd 1013 7bbb b360 a93e
00000240: 7f63 91bd b096 293f 5abe 5f3e c704 a73e
00000250: bb67 053e e818 20be cd12 29be f82f 4dbe
00000260: f6b0 c9bc 2d99 d2bd 648e 173d 41ae 46be
00000270: aa4b 993e 29c3 f9be 0781 b33d 16ed efbc
00000280: af57 52be 0315 353e 9135 873e be00 a63d
00000290: f59c 6e3e 6d8a 89be b8ad 303d f98c 8cbe
000002a0: af80 50be e188 46be 113b 06bf aca4 a63e
000002b0: 9af0 ee3d 9f3f b5be 0a1d e13b f257 71bc
000002c0: 2594 b2bc 7dc3 c03e eef5 7fbe 34aa 9dbb
000002d0: 0414 653d bc4d 3dbd 16a2 68be 63f5 903e
000002e0: 47a4 093d e1b4 adbe 7693 55be 3985 b83e
000002f0: 7008 6dbd 4752 1c3f 2994 4a3e 996e 233e
00000300: ed1d 943d a483 1f3f e659 f43e c072 8c3e
00000310: cb09 fb3c 8b7c aa3b 44ff ec3d 64f6 883d
00000320: 9c31 68bd 8738 ad3e 476e c63d 135a dcbd
00000330: 03d8 9dbe ab7a 20be 7da3 c0be f51b d5bc
00000340: 3672 12be 4373 aebd 5616 0cbe 35f8 4dbe
00000350: 8c46 63be d7e5 953e 2554 b3bd 1e3f 263e
00000360: 0193 d3bd 3cb8 83bb bf23 663c 1f6b e7be
00000370: c6c5 c3bc b7e1 3c3e 64fb bb3d af4b 41be
00000380: 0336 903d 5529 d6bd 5e9b 66bd 01e6 033e
00000390: 8d29 763e 0361 01be 991c 01be 1cfc 233e
000003a0: 96dd c5bd c121 dfbc 583b ba3d e5c4 2ebe
000003b0: 49d9 7f3e 8e8a 2bbf 4718 33bf 6889 88be
000003c0: ef53 98be d5db 85be ed46 5d3d 8e13 263e
000003d0: 72fc 66be ebcc dd39 4415 2e3e 6fd3 9dbe
000003e0: a7b9 94bd 3012 ff3e e37f 03be ca76 673c
000003f0: 8af2 fa3c a30c e8be 2116 a0bd 3162 27be

features.7.bias f4 [8]
-0.05147641 -0.0052327346 -0.11379573 0.063171834 0.12396664 0.03511107 -0.08714291 0.10386618
00000000: eed8 52bd 5c77 abbb bc0d e9bd 3c60 813d
00000010: 39e2 fd3d a0d0 0f3d fb77 b2bd cbb7 d43d

features.8.weight f4 [8]
0.9266633 1.1486372 0.8857055 1.0573843 0.86380005 0.5907852 1.304821 1.0896636
00000000: ce39 6d3f 8b06 933f 98bd 623f 5e58 873f
00000010: 0022 5d3f b33d 173f 6004 a73f 197a 8b3f

features.8.bias f4 [8]
0.46504897 0.007539361 0.23953032 0.50929636 0.13440289 0.45745727 0.006242339 -0.019994462
00000000: e61a ee3e be0c f73b 7047 753e 3f61 023f
00000010: e9a0 093e d737 ea3e 898c cc3b 6dcb a3bc

features.8.running_mean f4 [8]
0.42373824 -0.5365005 -1.3122377 -2.7588758 0.16118553 1.6682023 -1.9316472 -2.9047244
00000000: 38f4 d83e 1958 09bf 68f7 a7bf 6c91 30c0
00000010: d20d 253e a787 d53f 3740 f7bf 01e7 39c0

features.8.running_var f4 [8]
1.6158247 2.6794107 2.4095473 3.259477 1.5014095 1.7306412 3.4645123 1.9977944
00000000: 58d3 ce3f 777b 2b40 0636 1a40 459b 5040
00000010: 302e c03f a785 dd3f 92ba 5d40 bab7 ff3f

features.10.weight f4 [8, 8, 3, 3]
0.25285769 -0.24374971 -0.013902448 0.3995407 0.8167244 0.106977575 0.330134 0.36560282
0.30046666 -0.02666039 0.20222121 0.032897167 0.1571707 0.14897873 -0.16958915 -0.18272339
0.32979667 0.2969509 0.046760224 0.14812301 0.21327463 0.10934972 -0.06345087 0.3093084
0.12862118 0.2776353 0.045921795 0.12814905 -0.021519825 -0.21673717 -0.28407007 0.08704438
0.20491418 -0.16700168 -0.33200777 -0.3135803 0.16391326 0.025534555 -0.003981604 -0.08732671
0.13846663 -0.037898965 -0.049554154 0.16662961 0.18381257 -0.12077704 0.1749649 -0.094388396
-0.34852442 -0.24053507 0.16809858 0.03325912 0.2826249 -0.14222911 -0.22067462 -0.2637163
0.20080338 -0.020955525 -0.037404872 -0.4926106 -0.05036268 -0.04072494 0.014685826 -0.28413153
-0.07620183 -0.093192585 -0.5214258 0.034514103 -0.25893968 -0.09125834 -0.5666504 -0.0865574
-0.0035597892 0.3934845 0.0042697415 -0.28403553 0.15782765 -0.21709912 -0.14199254 -0.2520996
-0.32294872 -0.060643762 -0.09212954 0.17361566 -0.35297284 -0.24185483 0.05062022 -0.24195097
-0.13540542 -0.009930964 0.19652902 -0.067557216 0.080024354 0.41697535 0.29578093 -0.12518902
0.40097427 0.2644711 0.32899514 -0.17886026 -0.21397941 0.12999566 -0.45583478 -0.03869445
0.2609451 -0.31670523 0.23859811 0.37207183 -0.18017925 0.076135986 -0.008354644 -0.5275431
0.040285572 -0.079588994 -0.44581476 0.019662758 -0.20019583 -0.104530364 0.10176111 -0.03447708
-0.3062222 0.31616244 -0.07061115 -0.18826562 0.086806245 0.04412062 -0.47447732 -0.18121794
0.037911717 -0.43202266 -0.3983875 -0.25609225 -0.06633694 -0.16253395 -0.023074863 0.28353038
0.30182374 0.119113065 -0.14145465 0.009819946 0.202133 0.32928747 -0.48388487 0.00083296886
-0.24374111 -0.028326675 -0.3467566 -0.1420739 -0.1803606 -0.096171305 -0.12450176 -0.17485295
-0.078650616 0.3199764 0.14360042 -0.055069663 0.020749625 -0.18573733 -0.1284903 -0.07622832
-0.25738463 -0.30446023 0.10961021 0.15011576 0.12832478 0.23950651 0.28750905 -0.016327692
0.2636204 -0.18120539 -0.051964026 0.22918423 -0.02123912 0.28419417 -0.0064146887 -0.23465271
-0.26045442 -0.25277007 0.018363038 0.15473327 -0.03565993 0.25369442 0.4541042 0.12603313
0.4606281 -0.0981728 0.28185582 0.20362084 -0.43808642 -0.09583352 -0.46294826 -0.45553812
-0.4938713 -0.49292654 -0.26120773 -0.24137373 -0.16620928 -0.2664273 -0.0058613555 -0.0019274246
0.03319161 -0.024273701 -0.07996845 -0.3502756 0.06621444 -0.07918497 -0.09937604 -0.029461196
-0.09894352 -0.11976272 0.0044949423 -0.46441865 -0.29059628 -0.18666692 -0.4195228 -0.07919115
-0.08122073 0.045018632 -0.23173971 -0.29584062 -0.11286511 -0.08048091 -0.06229664 -0.1463631
-0.15104602 0.14959247 -0.053735483 -0.029702822 0.16656469 0.2725079 0.18227684 0.44882524
0.15980838 0.13127796 0.4752247 0.1385553 0.10226277 -0.5031813 -0.14463572 -0.14950688
-0.14887184 -0.35738704 -0.29470614 -0.032321572 -0.03738508 -0.19412524 -0.66533875 -0.6034427
-0.00430007 0.3454948 0.0844084 -0.25347736 0.11087133 0.16625613 0.25811514 0.17244507
00000000: 9076 813e 8699 79be 18c7 63bc 9990 cc3e
00000010: da14 513f 0f17 db3d 5307 a93e 4b30 bb3e
00000020: c4d6 993e e466 dabc 1413 4f3e 2ebf 063d
00000030: 5bf1 203e e18d 183e c7a8 2dbe d71b 3bbe
00000040: 1cdb a83e f309 983e a687 3f3d 8fad 173e
00000050: aa64 5a3e bff2 df3d 88f2 81bd ac5d 9e3e
00000060: 45b5 033e 3726 8e3e 7e18 3c3d 8139 033e
00000070: 584a b0bc 59f0 5dbe a271 91be 5344 b23d
00000080: 06d5 513e 7d02 2bbe ecfc a9be 998d a0be
00000090: e1d8 273e d82d d13c 1d78 82bb 59d8 b2bd
000000a0: 32ca 0d3e f23b 1bbd 4cf9 4abd f4a0 2a3e
000000b0: 5d39 3c3e f459 f7bd 002a 333e b44e c1bd
000000c0: cb71 b2be d34e 76be 0922 2c3e b73a 083d
000000d0: 36b4 903e 82a4 11be 87f8 61be d305 87be
000000e0: 679f 4d3e ecaa abbc da35 19bd 7537 fcbe
000000f0: 1949 4ebd 32cf 26bd d29c 703c b079 91be
00000100: b40f 9cbd c1db bebd 297c 05bf a95e 0d3d
00000110: be93 84be a7e5 babd 0010 11bf 0245 b1bd
00000120: 5a4b 69bb cd76 c93e 30e9 8b3b 1b6d 91be
00000130: 929d 213e 3b4f 5ebe 7e66 11be 3313 81be
00000140: 8959 a5be 9865 78bd 6aae bcbd 4ec8 313e
00000150: dbb8 b4be cba8 77be 2657 4f3d ffc1 77be
00000160: b8a7 0abe 7bb5 22bc e73e 493e 705b 8abd
00000170: cfe3 a33d cb7d d53e 9970 973e 8d31 00be
00000180: 804c cd3e c268 873e 0d72 a83e 2527 37be
00000190: 6b1d 5bbe 951d 053e 2d63 e9be 127e 1ebd
000001a0: 999a 853e 3027 a2be 1053 743e 3380 be3e
000001b0: e980 38be 2fed 9b3d ebe1 08bc 110d 07bf
000001c0: 7c02 253d 8eff a2bd d541 e4be cb13 a13c
000001d0: 2300 4dbe 0414 d6bd 2168 d03d d737 0dbd
000001e0: 28c9 9cbe 0be0 a13e 949c 90bd b4c8 40be
000001f0: 79c7 b13d d3b7 343d b1ee f2be 3291 39be
00000200: 5149 1b3d 1332 ddbe 72f9 cbbe 861e 83be
00000210: a9db 87bd 4d6f 26be 7f07 bdbc e52a 913e
00000220: a488 9a3e 8df1 f33d 7dd9 10be d7e3 203c
00000230: f4fb 4e3e 5e98 a83e c2bf f7be 985b 5a3a
00000240: 4597 79be 580d e8bc 158a b1be d27b 11be
00000250: 73b0 38be 76f5 c4bd c7fa febd a70c 33be
00000260: 9313 a1bd f2d3 a33e fd0b 133e ba90 61bd
00000270: 1efb a93c ed31 3ebe f692 03be 981d 9cbd
00000280: ebc7 83be 36e2 9bbe 517b e03d f2b7 193e
00000290: 9267 033e 3241 753e 6334 933e a7c1 85bc
000002a0: 41f9 863e e88d 39be 3bd8 54bd 45af 6a3e
000002b0: aafd adbc e681 913e 4f32 d2bb cd48 70be
000002c0: 485a 85be 146b 81be 156e 963c 6672 1e3e
000002d0: 2610 12bd 3ce4 813e 5880 e83e d40e 013e
000002e0: 72d7 eb3e d20e c9bd 684f 903e fb81 503e
000002f0: dd4c e0be 5d44 c4bd 8e07 edbe 4b3c e9be
00000300: b3dc fcbe de60 fcbe 05bd 85be ad2a 77be
00000310: c432 2abe 2969 88be 9d10 c0bb a3a1 fcba
00000320: edf3 073d a4d9 c6bc 80c6 a3bd 5357 b3be
00000330: 709b 873d bb2b a2bd aa85 cbbd 9b58 f1bc
00000340: e6a2 cabd 2846 f5bd 4f4a 933b 48c8 edbe
00000350: 09c9 94be 9d25 3fbe b1cb d6be f82e a2bd
00000360: 0e57 a6bd 7565 383d 2d4d 6dbe 6c78 97be
00000370: d325 e7bd 2dd3 a4bd c32a 7fbd 35e0 15be
00000380: cfab 1abe c52e 193e bd19 5cbd 5553 f3bc
00000390: ef8f 2a3e 2886 8b3e c8a6 3a3e 6ccc e53e
000003a0: cfa4 233e bb6d 063e a750 f33e 71e1 0d3e
000003b0: 256f d13d 7dd0 00bf 631b 14be 5518 19be
000003c0: dc71 18be 6ffb b6be b9e3 96be a063 04bd
000003d0: 1921 19bd c4c8 46be a453 2abf 397b 1abf
000003e0: 9ae7 8cbb b2e4 b03e 50de ac3d c9c7 81be
000003f0: 8210 e33d 0c3f 2a3e ab27 843e 7195 303e

features.10.bias f4 [8]
0.010348061 0.032769997 -0.091266915 0.016377876 0.050094213 -0.10700615 -0.11774063 -0.032305267
00000000: ea8a 293c d539 063d 26ea babd e52a 863c
00000010: 972f 4d3d 0a26 dbbd 0022 f1bd 8752 04bd

features.11.weight f4 [8]
0.9627163 0.9986858 0.8938625 0.83235 0.82632655 1.0854466 0.983762 0.7905425
00000000: 9374 763f dfa9 7f3f 2cd4 643f e414 553f
00000010: 238a 533f eaef 8a3f d4d7 7b3f fe60 4a3f

features.11.bias f4 [8]
0.39914483 0.5126565 0.81601596 0.24440135 1.1095871 -0.3221438 -0.42667282 0.24083197
00000000: b65c cc3e 753d 033f 6ce6 503f 5944 7a3e
00000010: f306 8e3f 08f0 a4be dc74 dabe a89c 763e

features.11.running_mean f4 [8]
0.6326154 -1.3585908 -2.8491771 -0.6766379 -3.0519824 0.48020738 1.1120298 -1.8186507
00000000: 15f3 213f 4ee6 adbf eb58 36c0 2438 2dbf
00000010: ae53 43c0 bedd f53e fe56 8e3f 8cc9 e8bf

features.11.running_var f4 [8]
3.2268178 3.2227488 3.7837832 1.9964073 2.2201698 2.686932 1.9244448 1.4931618
00000000: 2f84 4e40 8441 4e40 8129 7240 468a ff3f
00000010: 4317 0e40 b2f6 2b40 3554 f63f ed1f bf3f

features.14.weight f4 [16, 8, 3, 3]
0.07601179 -0.26213315 -0.063278705 0.171984 -0.075227134 -0.4303734 -0.27553785 -0.0005982975
0.0018573817 0.37067646 0.17756346 0.24380225 0.052557845 -0.4314058 -0.09782753 0.05012226
-0.010766386 -0.12775512 0.09108388 -0.0029797414 0.18175688 0.07021814 0.14204274 -0.280545
-0.12353597 -0.1794022 0.0151810255 -0.11641597 -0.25281158 -0.047574606 0.29915488 -0.18103936
0.25912663 0.21325669 0.18168163 0.12019514 -0.26283038 -0.7820779 0.20837483 -0.34210464
-0.49142382 -0.046321005 0.4191863 0.32966852 0.30283663 -0.20297068 -0.22967598 -0.035140734
-0.020229924 -0.1763189 -0.13767554 -0.058877025 0.16683331 0.3606557 -0.25026745 -0.1528703
0.021963472 -0.23142202 -0.06958476 0.3389949 0.26838574 -0.1382045 -0.17850113 0.0980493
0.056095652 -0.26043624 0.13043593 -0.1300812 0.09543463 0.2818721 0.15103768 0.21245357
-0.055446096 0.06577253 0.031217001 -0.0020770733 0.047010615 -0.14652745 4.0919906e-05 -0.050696034
0.10197501 -0.14261417 -0.07778013 0.06751206 -0.21583915 -0.22092153 -0.1895436 -0.16639699
-0.27696076 -0.31423336 -0.17489946 0.4932255 -0.18055212 0.24130102 0.18277177 -0.2847673
0.033982143 -0.078526095 -0.010010572 -0.14219788 0.04587228 -0.09592506 -0.17465943 0.22734243
-0.42905733 0.13149248 -0.22421578 -0.019943828 0.03521506 -0.20198953 -0.033498753 0.008930402
0.030191867 -0.024730774 0.011691855 0.06420949 0.043728534 -0.0048659374 0.013368012 -0.044041026
0.037275966 0.07476859 -0.21571006 0.16314664 -0.016457172 -0.15329742 0.089198716 -0.12822634
0.26554483 -0.09105363 0.36779287 1.0943903 0.10847179 0.4822865 -0.0655466 -0.13266057
0.27732444 -0.22023591 0.15597223 -0.19464032 0.053024378 -0.23837817 0.25255212 0.3824591
-0.23049997 -0.44883972 -0.037858967 0.1865427 -0.36298904 0.023650106 0.14823838 -0.06258987
0.30425286 -0.12639497 -0.023958724 0.08157857 0.23072994 0.109964386 0.032413926 0.015018243
-0.08632136 -0.051050548 -0.11498364 -0.075351484 -0.29815796 -0.022479447 0.2380245 -0.03596348
-0.0072915955 0.14604586 -0.05550098 0.16654263 -0.13411313 0.044596784 0.13526492 -0.67722046
-0.29752642 -0.18224685 -0.2621645 -0.13339353 -0.19418482 -0.43809986 0.10532725 -0.0913455
-0.4019244 -0.09940242 0.087239385 0.117612384 -0.036283415 0.041961297 0.36309984 0.21495827
0.16120955 0.022098338 -0.20212218 0.07064594 0.23120932 0.1264374 0.2040055 0.05026515
0.12334669 -0.26521444 -0.34731603 0.29902142 -0.114737496 -0.031124126 0.09187103 0.00986652
0.13343363 0.27541468 -0.32849553 -0.38725588 0.07447344 -0.20005055 -0.21485224 0.03460384
-0.08937338 0.027010338 -0.13508493 -0.29139507 -0.09526163 -0.2051286 -0.0011270978 0.035333917
0.20912746 -0.15468912 0.044302758 -0.06327827 -0.18543845 -0.060844854 0.027479194 -0.024210928
-0.09579713 0.26857132 -0.25272778 -0.23708247 0.06612918 0.5758244 0.43227085 -0.020622589
0.43936285 -0.0102097 -0.16360244 0.3765488 0.1279825 -0.025042826 0.123699196 0.08647804
-0.09281288 0.040507484 0.022257097 -0.20098051 -0.032894474 0.086704485 0.038383413 -0.30105323
00000000: 12ac 9b3d 5136 86be 4498 81bd 931c 303e
00000010: af10 9abd e759 dcbe 4c13 8dbe 11d7 1cba
00000020: 6373 f33a 4ec9 bd3e 32d3 353e 4ca7 793e
00000030: e546 573d 39e1 dcbe cd59 c8bd 004d 4d3d
00000040: 7f65 30bc 3dd2 02be 2f8a ba3d c447 43bb
00000050: 7a1e 3a3e 87ce 8f3d a773 113e 98a3 8fbe
00000060: 6d00 fdbd 36b5 37be d6b9 783c 7f6b eebd
00000070: 8570 81be 97dd 42bd d42a 993e 6262 39be
00000080: 3fac 843e f65f 5a3e c00a 3a3e df28 f63d
00000090: b491 86be 4236 48bf 3660 553e 5728 afbe
000000a0: e79b fbbe 18bb 3dbd 969f d63e 50ca a83e
000000b0: 670d 9b3e 8cd7 4fbe 2e30 6bbe bbef 0fbd
000000c0: 3ab9 a5bc f18c 34be d1fa 0cbe 0929 71bd
000000d0: 5ad6 2a3e dda7 b83e 0e23 80be 088a 1cbe
000000e0: bdec b33c e5f9 6cbe 7482 8ebd bd90 ad3e
000000f0: db69 893e 7b85 0dbe 00c9 36be 12ce c83d
00000100: 8ec4 653d e657 85be ff90 053e 0234 05be
00000110: 3b73 c33d 8a51 903e 9fa9 1a3e 6e8d 593e
00000120: 721b 63bd c0b3 863d ccba ff3c 821f 08bb
00000130: 348e 403d 4b0b 16be 6aa1 2b38 a5a6 4fbd
00000140: 46d8 d03d 7309 12be 304b 9fbd c343 8a3d
00000150: f004 5dbe 4139 62be b817 42be f963 2abe
00000160: cdcd 8dbe 32e3 a0be d818 33be 0e88 fc3e
00000170: a8e2 38be 9d17 773e 8628 3b3e 05cd 91be
00000180: dc30 0b3d 4ad2 a0bd 6203 24bc 529c 11be
00000190: 92e4 3b3d 5c74 c4bd ecd9 32be 74cc 683e
000001a0: 67ad dbbe f7a5 063e d298 65be 3d61 a3bc
000001b0: ab3d 103d 58d6 4ebe fd35 09bd d250 123c
000001c0: ef54 f73c 3198 cabc 328f 3f3c 4480 833d
000001d0: b11c 333d 7172 9fbb 8205 5b3c 5d64 34bd
000001e0: afae 183d 4620 993d 19e3 5cbe ea0f 273e
000001f0: 31d1 86bc 00fa 1cbe d1ad b63d c44d 03be
00000200: 7ef5 873e 537a babd 594f bc3e fb14 8c3f
00000210: 7526 de3d 42ee f63e 4c3d 86bd 2cd8 07be
00000220: 78fd 8d3e 8685 61be 2fb7 1f3e cb4f 47be
00000230: 1730 593d 6819 74be 834e 813e aed1 c33e
00000240: 2f08 6cbe 52ce e5be 0112 1bbd 0d05 3f3e
00000250: b3d9 b9be debd c13c cdcb 173e 1e2f 80bd
00000260: 08c7 9b3e af6d 01be 1645 c4bc aa12 a73d
00000270: 7844 6c3e 0235 e13d 77c4 043d 140f 763c
00000280: 41c9 b0bd 611a 51bd 8b7c ebbd e151 9abd
00000290: 29a8 98be d126 b8bc b2bc 733e 714e 13bd
000002a0: 56ee eebb 0c8d 153e ff54 63bd 278a 2a3e
000002b0: f454 09be 1eab 363d e382 0a3e 525e 2dbf
000002c0: 6255 98be eb9e 3abe 6d3a 86be 5098 08be
000002d0: 63d8 46be a04e e0be d0b5 d73d 5913 bbbd
000002e0: 09c9 cdbe 7f93 cbbd 90aa b23d c3de f03d
000002f0: eb9d 14bd 9cdf 2b3d 39e8 b93e 051e 5c3e
00000300: 1e14 253e 9307 b53c 1ef9 4ebe d2ae 903d
00000310: 23c2 6c3e ce78 013e d1e6 503e d4e2 4d3d
00000320: 309d fc3d 30ca 87be 68d3 b1be 5619 993e
00000330: 7efb eabd 06f8 febc e126 bc3d 2fa7 213c
00000340: d3a2 083e 2703 8d3e 9130 a8be 6746 c6be
00000350: 8885 983d 0dda 4cbe 3a02 5cbe c2bc 0d3d
00000360: 6409 b7bd c944 dd3c b453 0abe bc31 95be
00000370: 8818 c3bd 3b0d 52be 20bb 93ba 4cba 103d
00000380: 8225 563e d366 1ebe cf76 353d 0a98 81bd
00000390: 94e3 3dbe 7438 79bd 0c1c e13c ff55 c6bc
000003a0: 4931 c4bd 2e82 893e 8965 81be bfc5 72be
000003b0: bc6e 873d 3a69 133f 9b52 dd3e b4f0 a8bc
000003c0: 2bf4 e03e 9646 27bc 6687 27be 01cb c03e
000003d0: d80d 033e 9d26 cdbc 0156 fd3d 661b b13d
000003e0: ae14 bebd 2deb 253d 8454 b63c d6cd 4dbe
000003f0: 5bbc 06bd 1f92 b13d ed37 1d3d a623 9abe

features.14.bias f4 [16]
0.033587743 -0.054714203 -0.088365085 -0.051024724 0.0041218773 0.061480578 0.08955349 0.13792071
-0.12978345 0.08631692 -0.07374546 -0.03691028 -0.02202652 -0.079828635 -0.0056454567 -0.022894911
00000000: 4d93 093d 001c 60bd c1f8 b4bd 4dff 50bd
00000010: d010 873b 0fd3 7b3d d267 b73d 163b 0d3e
00000020: f4e5 04be edc6 b03d dc07 97bd 3c2f 17bd
00000030: f670 b4bc 327d a3bd 86fd b8bb 1c8e bbbc

features.15.weight f4 [16]
1.0476567 0.97209686 1.0552071 0.843614 0.87668645 1.1759357 1.0190014 1.0900823
0.76372683 0.865087 1.0100678 1.027165 1.0948164 1.0088506 1.135412 0.87203336
00000000: 9d19 863f 57db 783f 0711 873f 16f7 573f
00000010: 866e 603f 1085 963f a36e 823f d187 8b3f
00000020: 9a83 433f 5776 5d3f e749 813f 257a 833f
00000030: f222 8c3f 0422 813f 2e55 913f 943d 5f3f

features.15.bias f4 [16]
0.23197256 -0.04396487 0.35005647 0.6839557 0.21298686 -0.15505248 0.1945302 0.13304363
0.7391497 0.34385663 0.17959742 -0.00977724 -0.09262143 0.04867333 0.11196395 0.14837363
00000000: 378a 6d3e 8214 34bd 9a3a b33e b917 2f3f
00000010: 3a19 5a3e 14c6 1ebe ed32 473e 973c 083e
00000020: ea38 3d3f fa0d b03e 63e8 373e b830 20bc
00000030: 4eb0 bdbd b05d 473d 5b4d e53d 42ef 173e

features.15.running_mean f4 [16]
-1.5289767 -0.45296758 -2.7807271 1.7682035 -3.3332162 0.6798574 0.52034354 -2.0410624
-2.2447326 -2.9243789 -1.4867524 -2.728408 -0.94251156 2.501538 -4.0918818 -0.5789339
00000000: 82b5 c3bf 5eeb e7be 6ff7 31c0 7e54 e23f
00000010: 6a53 55c0 220b 2e3f 3c35 053f c4a0 02c0
00000020: b3a9 0fc0 0629 3bc0 e74d bebf 3d9e 2ec0
00000030: 7048 71bf 3319 2040 b2f0 82c0 0335 14bf

features.15.running_var f4 [16]
2.6971622 2.0789125 2.9910808 2.335898 3.3347476 2.157595 3.8430343 3.2385216
3.285672 3.8684375 4.140909 3.7994318 3.6852162 3.116723 3.8930907 3.5217807
00000000: 4e9e 2c40 e70c 0540 de6d 3f40 5a7f 1540
00000010: 816c 5540 0916 0a40 46f4 7540 f043 4f40
00000020: 7348 5240 7b94 7740 5482 8440 e429 7340
00000030: 95da 6b40 6478 4740 6628 7940 db64 6140

features.17.weight f4 [16, 16, 3, 3]
-0.0072928076 0.1323606 -0.3023779 0.14676598 0.09720869 0.08268669 0.1495431 -0.036836486
0.13046783 0.047697127 0.18182282 0.011032879 0.26736307 0.09505834 0.102699585 0.05243954
-0.29579076 -0.51792955 -0.2226789 -0.118528225 -0.08722156 0.15200427 0.2723561 0.4035026
-0.09930104 0.2213511 0.24111184 0.2913246 0.21575388 -0.46175957 0.13595909 -0.3703094
-0.4068361 0.21916866 0.09101782 -0.11120733 -0.29811788 -0.0032961378 0.11589575 -0.13400185
0.09622627 0.37617406 -0.15578473 0.21331188 0.056759775 -0.07478646 0.35630906 0.28510854
0.2111134 0.52048105 0.031067098 -0.200079 -0.016970979 -0.17723021 -0.11059262 -0.11572622
0.070404686 0.21647522 0.03450211 -0.19287786 0.28517833 0.13201664 0.046757247 -0.04163161
-0.20049818 0.1094556 0.12792403 0.21239321 0.1140617 -0.017966622 -0.03288165 -0.012470152
-0.30907318 -0.06438836 0.087230995 -0.41625226 -0.11799807 0.14941165 0.07949399 -0.092043035
0.14020076 -0.425281 -0.20415574 0.09939 -0.07935902 0.1645293 -0.09705517 0.11599788
0.27867535 0.2828747 -0.62238634 -0.23886868 -0.077681154 0.04539646 -0.07546895 0.30565423
0.26020393 0.08349107 0.30490094 -0.14557616 0.015060132 -0.051857445 -0.1506473 0.17162785
0.08328193 -0.11674772 0.112250075 0.113292806 -0.114029594 0.32112464 0.29326874 -0.1056956
0.19785824 0.07498043 -0.22189514 0.19193366 0.07719524 0.050594337 0.04766933 -0.22736023
0.18269485 -0.0084545715 0.12596081 -0.018356165 0.03230997 -0.14732626 -0.13339509 -0.43018213
0.121518835 0.2501292 0.09364778 0.59303594 -0.066647515 -0.1462343 0.10287831 0.08628221
0.10783196 -0.04941342 -0.07702052 -0.13389315 -0.15445027 -0.19991498 0.037398033 0.112198405
-0.33672088 -0.057551853 0.10528973 0.043409266 0.06412997 -0.042096674 -0.17539847 0.08350525
-0.2742022 0.3872014 0.2743178 0.2147584 -0.05730099 -0.022760302 -0.063135505 -0.12551838
-0.050598685 -0.0013849627 0.058741126 -0.03430319 -0.22346267 0.15803002 0.053925887 0.37135613
-0.12170481 -0.20088407 -0.12871964 0.046205223 0.22220299 0.0097642755 0.29528254 0.10928351
-0.1242505 0.054141212 -0.1403734 -0.50357777 -0.03634308 0.06974732 0.16049866 -0.31409448
0.012721432 0.2566937 0.056519292 0.104457885 -0.034319628 -0.20185527 -0.014927915 0.11722884
-0.5776681 -0.25126657 0.20588589 -0.26841685 0.13344133 0.054531395 -0.19019961 0.22995785
-0.05308717 -0.22873577 -0.3661029 -0.52805054 0.0651849 0.08661488 -0.08404495 -0.1501699
-0.21878612 -0.056588877 0.03180516 -0.4169411 -0.101170465 0.17966253 0.13780846 -0.20442753
-0.15435791 -0.5415393 0.08706185 -0.26861823 -0.5105337 -0.18455128 0.41082135 -0.042815752
-0.08058385 -0.035185482 -0.18052068 -0.18538845 0.015707651 0.09306717 0.07858891 -0.29548544
0.4047847 0.009009272 0.0048929257 -0.067803815 0.186867 -0.3398399 -0.3743792 -0.48531827
0.071067534 -0.2844201 -0.041312765 -0.02987923 0.20532097 0.047243666 -0.06890941 -0.2840369
-0.22525565 -0.1884813 -0.352261 -0.20124781 -0.18842228 -0.15032826 -0.24971788 0.12163675
00000000: 81f8 eebb 8a89 073e 47d1 9abe d249 163e
00000010: 5a15 c73d a457 a93d d421 193e dbe1 16bd
00000020: 5c99 053e 105e 433d c32f 3a3e 40c3 343c
00000030: d0e3 883e f2ad c23d 2954 d23d d8ca 563d
00000040: e371 97be 0897 04bf f005 64be edbe f2bd
00000050: 38a1 b2bd 02a7 1b3e 4272 8b3e e597 ce3e
00000060: 585e cbbd dda9 623e 06e6 763e 7f28 953e
00000070: 96ee 5c3e c06b ecbe dc38 0b3e 3299 bdbe
00000080: d24c d0be c06d 603e 8d67 ba3d abc0 e3bd
00000090: e8a2 98be 0404 58bb c05a ed3d c837 09be
000000a0: 4712 c53d e399 c03e 0886 1fbe 6e6e 5a3e
000000b0: f07c 683d a529 99bd 246e b63e bff9 913e
000000c0: 1c2e 583e 3f3e 053f 6d80 fe3c 82e1 4cbe
000000d0: b906 8bbc d67b 35be 627e e2bd de01 edbd
000000e0: 5530 903d aeab 5d3e 1652 0d3d c681 45be
000000f0: e502 923e 5f2f 073e 8784 3f3d e885 2abd
00000100: 654f 4dbe 422a e03d 84fe 023e 9b7d 593e
00000110: 2e99 e93d bd2e 93bc e9ae 06bd 9c4f 4cbc
00000120: d73e 9ebe 0bde 83bd 2aa6 b23d 041f d5be
00000130: f9a8 f1bd 5eff 183e bfcd a23d 0f81 bcbd
00000140: ca90 0f3e 6ebe d9be 340e 51be fc8c cb3d
00000150: fb86 a2bd 5e7a 283e dcc4 c6bd 4c90 ed3d
00000160: 89ae 8e3e f4d4 903e b654 1fbf fe99 74be
00000170: 4c17 9fbd a3f1 393d 778f 9abd b67e 9c3e
00000180: 7339 853e 5efd aa3d fa1b 9c3e eb11 15be
00000190: c6be 763c 7968 54bd 4943 1abe 36bf 2f3e
000001a0: b78f aa3d 6e19 efbd 5ee3 e53d 0f06 e83d
000001b0: 5988 e9bd 736a a43e 5227 963e ef76 d8bd
000001c0: 5a9b 4a3e 578f 993d 7b38 63be 428a 443e
000001d0: 8a18 9e3d 023c 4f3d ea40 433d 1fd1 68be
000001e0: 5c14 3b3e 0b85 0abc dffb 003e ab5f 96bc
000001f0: 7657 043d b2dc 16be b998 08be d540 dcbe
00000200: dede f83d ef10 803e 68ca bf3d 34d1 173f
00000210: 7e7e 88bd 72be 15be ddb1 d23d bab4 b03d
00000220: 01d7 dc3d ba65 4abd efbc 9dbd 491b 09be
00000230: 3628 1ebe 83b6 4cbe ae2e 193d 47c8 e53d
00000240: ae66 acbe 7ebb 6bbd 24a2 d73d eacd 313d
00000250: 9356 833d 906d 2cbd a89b 33be cd04 ab3d
00000260: 3b64 8cbe 433f c63e 6273 8c3e a0e9 5b3e
00000270: 71b4 6abd d073 babc 304d 81bd e487 00be
00000280: 9140 4fbd a387 b5ba 899a 703d 8081 0cbd
00000290: 66d3 64be 9fd2 213e 64e1 5c3d 6422 be3e
000002a0: 5f40 f9bd 8eb4 4dbe 15cf 03be b041 3d3d
000002b0: 2e89 633e 57fa 1f3c 462f 973e 08d0 df3d
000002c0: 0c77 febd 2dc3 5d3d 0bbe 0fbe 79ea 00bf
000002d0: 7bdc 14bd afd7 8e3d c359 243e fed0 a0be
000002e0: 8e6d 503c 5b6d 833e c680 673d 04ee d53d
000002f0: bd92 0cbd 26b3 4ebe 3794 74bc ad15 f03d
00000300: 0ee2 13bf 03a6 80be c0d3 523e ef6d 89be
00000310: d8a4 083e 505c 5f3d b0c3 42be 127a 6b3e
00000320: ef71 59bd b639 6abe d771 bbbe 522e 07bf
00000330: a97f 853d 2463 b13d c21f acbd 23c6 19be
00000340: 7809 60be bdc9 67bd 2146 023d 4e79 d5be
00000350: 7632 cfbd 74f9 373e a91d 0d3e 7355 51be
00000360: 0010 1ebe 52a2 0abf 7c4d b23d 5488 89be
00000370: 56b2 02bf 03fb 3cbe 2d57 d23e 925f 2fbd
00000380: 2509 a5bd a71e 10bd 6ada 38be 78d6 3dbe
00000390: 55ad 803c 009a be3d 39f3 a03d de49 97be
000003a0: f13f cf3e a09b 133c d654 a03b badc 8abd
000003b0: 105a 3f3e 7fff adbe a1ae bfbe a37b f8be
000003c0: db8b 913d 839f 91be 9337 29bd 49c5 f4bc
000003d0: a93f 523e 9382 413d 6020 8dbd 496d 91be
000003e0: 6ba9 66be 3e01 41be 8e5b b4be e813 4ebe
000003f0: c5f1 40be a7ef 19be 0bb6 7fbe b01c f93d

features.17.bias f4 [16]
0.0012790012 0.018414866 -0.0042954707 -0.0033797743 -0.026316686 -0.10897406 0.13025413 -0.09576388
-0.07283318 0.035147157 0.0580148 -0.03609335 -0.07337367 0.0017695725 0.04734522 -0.0022308412
00000000: 29a4 a73a c6da 963c 05c1 8cbb 347f 5dbb
00000010: 1796 d7bc cb2d dfbd 5761 053e da1f c4bd
00000020: 9029 95bd 77f6 0f3d eda0 6d3d 9fd6 13bd
00000030: ef44 96bd 00f1 e73a 10ed 413d 4e33 12bb

features.18.weight f4 [16]
1.2447157 1.1164378 0.8595972 1.0361855 0.9983244 0.7697095 0.9652305 0.9870669
1.1206659 1.1738766 0.93314165 0.87605226 0.9638318 1.2396953 0.99454373 1.0190396
00000000: d852 9f3f 6fe7 8e3f 900e 5c3f baa1 843f
00000010: 3092 7f3f af0b 453f 5919 773f 6bb0 7c3f
00000020: fb71 8f3f 9741 963f 5fe2 6e3f f644 603f
00000030: aebd 763f 56ae 9e3f 6b9a 7e3f e46f 823f

features.18.bias f4 [16]
0.15062302 0.43913594 0.27985504 0.08850852 0.06073048 0.19506651 0.34597045 0.03775456
-0.105747156 -0.02474876 0.06885332 0.23532797 0.19940701 0.019223053 -0.20788497 -0.04441928
00000000: ec3c 1a3e 6dd6 e03e 2949 8f3e f443 b53d
00000010: 86c0 783d 84bf 473e 0a23 b13e 87a4 1a3d
00000020: f791 d8bd e9bd cabc f802 8d3d d1f9 703e
00000030: 5a31 4c3e aa79 9d3c ccdf 54be fef0 35bd

features.18.running_mean f4 [16]
1.1723368 -3.0834856 -1.1719415 -2.3787546 -1.1227856 -1.6773015 0.38266453 -1.3870829
-1.5160528 0.730996 -0.76462454 -1.3701524 -0.16125385 -0.6041308 0.21203221 -3.0948746
00000000: 220f 963f d457 45c0 2e02 96bf 843d 18c0
00000010: 70b7 8fbf d1b1 d6bf 9bec c33e ef8b b1bf
00000020: 050e c2bf 8e22 3b3f 6fbe 43bf 2761 afbf
00000030: bb1f 25be 51a8 1abf f91e 593e 6d12 46c0

features.18.running_var f4 [16]
4.257412 6.0574465 3.582891 4.529017 4.9542456 3.5180736 4.097639 4.541287
4.6639643 4.664986 4.9872303 4.0742273 4.677484 3.7664871 3.652918 4.649182
00000000: b83c 8840 9ad6 c140 164e 6540 b5ed 9040
00000010: 2e89 9e40 1e28 6140 dc1f 8340 3952 9140
00000020: 323f 9540 9147 9540 6497 9f40 1260 8240
00000030: f3ad 9540 200e 7140 69c9 6940 19c6 9440

features.20.weight f4 [16, 16, 3, 3]
-0.0105441315 -0.18269625 -0.04936766 0.037989423 0.042752825 0.058083925 -0.21656346 -0.14315918
0.639275 -0.0024822329 -0.4063881 0.018485978 0.009597024 0.16205388 0.043818813 -0.17470813
-0.20365645 0.13763787 0.009905327 0.28056931 0.16237752 -0.18398097 -0.013906767 0.07079117
0.011786439 -0.14678383 0.3967774 0.31183735 -0.11639974 0.003468128 0.5851181 -0.009574651
-0.09881543 0.15705359 0.11083215 0.24599679 0.02927564 -0.06179899 0.012044027 0.09159166
0.07674534 -0.20735106 -0.17285395 0.027271988 -0.17748494 0.37865075 -0.0064098765 0.33174008
0.015585159 -0.24941987 -0.0018861808 0.3237603 0.05647709 -0.12681529 -0.034746576 -0.14414403
0.15895753 -0.002363252 -0.28787306 -0.10627463 0.060492326 0.04657356 -0.34780717 0.31540877
-0.23053811 -0.18995097 0.39770356 0.19556272 0.24891624 0.12662627 0.12656324 -0.20623133
-0.33778593 -0.068653315 0.060324036 0.13009518 0.3929244 0.33178115 -0.37807947 -0.0993605
-0.61962676 -0.0948083 -0.031097582 0.34961534 0.15827249 0.25372478 0.20340177 0.24060154
-0.17671789 0.13614321 0.20522483 -0.097994514 -0.2765795 0.08887904 -0.00025785086 0.21355699
-0.026389306 -0.0004244712 0.10684059 -0.25994524 -0.36006323 -0.48714554 0.047723964 -0.18338208
0.06924023 0.10482328 -0.1966029 -0.03463221 -0.095496364 -0.15944134 -0.37922293 -0.31491542
-0.16396254 0.004131635 -0.05960812 -0.21730629 -0.08750753 0.13682595 -0.25923187 0.26732343
-0.014563221 -0.024663053 0.3762503 -0.17827344 -0.14353617 -0.048868813 -0.03133644 -0.18636076
-0.06297658 0.106857605 -0.0032134936 -0.027390335 0.2000853 0.13848844 0.16257992 -0.21612063
-0.13217373 0.113632225 -0.08234068 -0.14594993 0.09934687 -0.2868533 -0.2007463 -0.08862785
0.15544794 0.15603304 -0.08753638 -0.23291205 -0.25717065 0.101437196 -0.380031 -0.02262699
-0.13375252 -0.0035083578 -0.53295845 -0.101101846 0.33482856 0.54824585 0.40537202 -0.12264047
0.44078052 0.08214251 0.16735871 -0.13708831 0.1807003 0.34189326 0.35297275 0.113444395
0.3889905 0.18669705 -0.21998067 -0.17170364 -0.10628519 0.02432977 0.2199028 0.27457294
0.056050636 0.10312647 0.18127023 0.24017075 -0.19241568 -0.22769901 -0.04722689 0.09808829
0.18905908 0.005080493 -0.39899355 -0.18120827 0.014944577 -0.075175844 0.04823541 0.42485404
-0.13350008 0.10485553 0.18208359 -0.0025920894 0.19501108 0.23744325 -0.41564608 -0.4647517
-0.19100694 -0.3391428 -0.13830015 -0.136756 -0.09943814 -0.009301818 -0.107760176 -0.056531325
-0.19681734 0.22714767 -0.04953614 0.24190561 0.27597415 0.008172754 0.02627389 0.2386776
-0.18967979 0.24735 0.26331756 0.11803788 0.038287528 -0.013082472 -0.098399736 -0.23728508
-0.39586583 0.035221137 0.04123775 0.11081593 -0.056915157 -0.17939895 -0.19172831 -0.14230569
-0.24182706 -0.098873585 -0.13802847 0.38666558 0.26741132 -0.08238555 0.06613743 -0.01949483
-0.25858548 -0.09186358 -0.00838342 -0.054629177 -0.37482336 -0.1320562 0.04930411 0.31268623
-0.05111665 0.054464787 0.52789986 0.4406133 -0.14725456 0.061075557 0.037710387 -0.16379811
00000000: 4bc1 2cbc ba14 3bbe be35 4abd cc9a 1b3d
00000010: 961d 2f3d 69e9 6d3d d0c2 5dbe 5298 12be
00000020: 87a7 233f f5ac 22bb 1a12 d0be e86f 973c
00000030: d63c 1d3c 74f1 253e 5b7b 333d b0e6 32be
00000040: 518b 50be f1f0 0c3e f449 223c c8a6 8f3e
00000050: 4b46 263e 8265 3cbe 35d9 63bc f6fa 903d
00000060: e91b 413c 804e 16be 6826 cb3e 25a9 9f3e
00000070: fd62 eebd 8849 633b 4dca 153f ffde 1cbc
00000080: bf5f cabd a8d2 203e f7fb e23d 95e6 7b3e
00000090: 78d3 ef3c f020 7dbd 5054 453c 6994 bb3d
000000a0: a92c 9d3d d653 54be a000 31be 8169 df3c
000000b0: 9dbe 35be 83de c13e f109 d2bb d6d9 a93e
000000c0: e558 7f3c ec67 7fbe ba39 f7ba e9c3 a53e
000000d0: 8554 673d dedb 01be 6d52 0ebd 7e9a 13be
000000e0: c3c5 223e cae0 1abb 1964 93be 83a6 d9bd
000000f0: cdc6 773d ebc3 3e3d c813 b2be 427d a13e
00000100: 2f12 6cbe 8282 42be cd9f cb3e 9841 483e
00000110: e6e3 7e3e 51aa 013e cb99 013e 4e2e 53be
00000120: 47f2 acbe 1c9a 8cbd 5616 773d ac37 053e
00000130: 632d c93e 38df a93e a293 c1be 857d cbbd
00000140: dc9f 1ebf db2a c2bd 5bc0 febc c800 b33e
00000150: 2f12 223e 37e8 813e 8e48 503e 4060 763e
00000160: 89f5 34be 2069 0b3e 7526 523e 59b1 c8bd
00000170: d49b 8dbe 3706 b63d 2830 87b9 afae 5a3e
00000180: 632e d8bc 8f8b deb9 3dcf da3d 8b17 85be
00000190: 355a b8be 246b f9be 347a 433d 83c8 3bbe
000001a0: d2cd 8d3d 96ad d63d 4552 49be 81da 0dbd
000001b0: 9993 c3bd 9744 23be 8229 c2be 983c a1be
000001c0: cce5 27be ab62 873b a527 74bd 8a85 5ebe
000001d0: 2637 b3bd 1a1c 0c3e 0aba 84be 9ede 883e
000001e0: 939a 6ebc 2c0a cabc e1a3 c03e 508d 36be
000001f0: 25fb 12be aa2a 48bd a45a 00bd 5bd5 3ebe
00000200: ddf9 80bd 29d8 da3d 7a99 52bb b261 e0bc
00000210: 29e3 4c3e eacf 0d3e 5a7b 263e ba4e 5dbe
00000220: 8d58 07be 03b8 e83d 3ba2 a8bd e673 15be
00000230: 5f76 cb3d 70de 92be 7090 4dbe 8582 b5bd
00000240: bf2d 1f3e 20c7 1f3e 4646 b3bd 7f80 6ebe
00000250: dfab 83be 4ebe cf3d 6c93 c2be 3d5c b9bc
00000260: 6cf6 08be 7aec 65bb f76f 08bf 7c0e cfbd
00000270: a66e ab3e d759 0c3f ec8c cf3e ed2a fbbd
00000280: fcad e13e 553a a83d 1560 2b3e e160 0cbe
00000290: 8009 393e a20c af3e d8b8 b43e 8955 e83d
000002a0: c329 c73e 832d 3f3e 9d42 61be 14d3 2fbe
000002b0: 0dac d9bd 3a4f c73c 332e 613e d394 8c3e
000002c0: 5a95 653d f933 d33d e79e 393e 52ef 753e
000002d0: 9e08 45be ee29 69be fc70 41bd 83e2 c83d
000002e0: b498 413e 447a a63b e248 ccbe a98e 39be
000002f0: 19da 743c cbf5 99bd 7e92 453d 7886 d93e
00000300: 3fb4 08be 7fbe d63d 1f74 3a3e 0be0 29bb
00000310: fcb0 473e 5324 733e 90cf d4be eff3 edbe
00000320: 5397 43be 20a4 adbe 8e9e 0dbe c409 0cbe
00000330: 39a6 cbbd a766 18bc 5eb1 dcbd 648d 67bd
00000340: 7c8a 49be 6699 683e 68e6 4abd 1bb6 773e
00000350: 7c4c 8d3e 04e7 053c 573c d73c e767 743e
00000360: 6b3b 42be 5249 7d3e 8fd1 863e d8bd f13d
00000370: 62d3 1c3d dd57 56bc cd85 c9bd dcfa 72be
00000380: edae cabe 0a44 103d eae8 283d 76f3 e23d
00000390: de1f 69bd 5cb4 37be 6d54 44be 95b8 11be
000003a0: 83a1 77be 3c7e cabd 5657 0dbe 08f9 c53e
000003b0: 23ea 883e c1b9 a8bd 1073 873d 9fb3 9fbc
000003c0: 5165 84be f922 bcbd 9d5a 09bc d8c2 5fbd
000003d0: d9e8 bfbe be39 07be 1bf3 493d 6918 a03e
000003e0: b15f 51bd 7816 5f3d 7224 073f 1198 e13e
000003f0: e6c9 16be 5d2a 7a3d 3576 1a3d b1ba 27be

features.20.bias f4 [16]
-0.040134758 0.012645546 0.034375053 -0.033652917 0.026754525 -0.052768797 -0.007123596 -0.010013858
0.009818835 0.030505672 -0.012633343 -0.011318795 0.030302193 -0.0040500015 -0.03427604 0.05686924
00000000: 5864 24bd 442f 4f3c dbcc 0c3d a4d7 09bd
00000010: 4e2c db3c 1824 58bd 0e6d e9bb 2a11 24bc
00000020: 2edf 203c 08e7 f93c 15fc 4ebc 7872 39bc
00000030: 4e3c f83c e0b5 84bb 0865 0cbd b8ef 683d

features.21.weight f4 [16]
0.9486995 1.1389337 0.92710185 0.974207 1.1410378 1.12277 1.0431833 1.0060503
1.0036292 0.9792241 0.8015979 1.0682052 0.9420274 0.9753723 0.9684687 0.8553436
00000000: f8dd 723f 94c8 913f 8c56 6d3f a165 793f
00000010: 870d 923f edb6 8f3f 0887 853f 42c6 803f
00000020: ec76 803f 6eae 7a3f 8535 4d3f f3ba 883f
00000030: b528 713f 00b2 793f 91ed 773f ccf7 5a3f

features.21.bias f4 [16]
0.07950306 0.09150386 0.22053762 0.17946666 0.21908435 0.08670145 0.43652228 -0.3338549
0.4411364 -0.08714555 0.5260689 0.35044932 0.18035439 -0.05256944 0.2565928 0.27912503
00000000: 80d2 a23d 6066 bb3d 9dd4 613e 1cc6 373e
00000010: a657 603e 8890 b13d d97f df3e 08ef aabe
00000020: a1dc e13e 5e79 b2bd 74ac 063f 186e b33e
00000030: d2ae 383e 0e53 57bd 2260 833e 7ae9 8e3e

features.21.running_mean f4 [16]
-0.50775355 0.053793497 -0.7877305 -1.2156657 0.553934 -3.5529337 -0.05528634 0.37650937
-1.7247823 -0.048352506 -0.025738144 0.27602953 0.24232389 1.3672441 -0.8727298 0.24506399
00000000: 23fc 01bf 9256 5c3d b5a8 49bf ef9a 9bbf
00000010: 9ece 0d3f 4463 63c0 ee73 62bd d6c5 c03e
00000020: abc5 dcbf 470d 46bd cdd8 d2bc be53 8d3e
00000030: c123 783e db01 af3f 386b 5fbf 0ef2 7a3e

features.21.running_var f4 [16]
4.0926323 7.941576 4.3483133 3.8409412 6.258334 5.259244 4.4957795 5.6400023
5.249584 4.342689 3.5435104 6.8180118 4.5541296 4.3586593 4.779573 3.778334
00000000: d8f6 8240 6421 fe40 6225 8b40 fbd1 7540
00000010: 4644 c840 ba4b a840 6ddd 8f40 e67a b440
00000020: 98fc a740 4ff7 8a40 e0c8 6240 272d da40
00000030: 6ebb 9140 237a 8b40 43f2 9840 39d0 7140
