logs/VGG11_XXXS/Cifar10/VGG11_XXXS_bs32_e20_id2.model (torch_old, 163489 bytes, 60 tensors)

features.0.weight f4 [4, 3, 3, 3]
000000 1c 11 18 3f cb 60 07 be 17 f1 0a 3e 15 d0 1e 3d
       0.59401107 -0.13220517 0.13568531 0.03877266
000010 c4 a8 0b 3f 2d 35 ca 3e cd 01 25 be 68 49 82 3d
       0.5455439 0.39493695 -0.16113968 0.063616574
000020 34 6f cf bd ed 18 23 bf 1b 66 a1 bd 8e b7 ac bd
       -0.10128632 -0.6370991 -0.07880803 -0.08433448
000030 a4 82 57 bc 41 b7 1a bf 9d bd 1a be 5c 2b b0 be
       -0.013153706 -0.60435873 -0.15111394 -0.3440808
000040 ce 12 54 bd 34 57 b9 3e 31 cf 3b 3e 41 f3 58 be
       -0.051775746 0.36199343 0.18340756 -0.21186544
000050 44 9e fe 3d a3 94 b0 be 61 1e 17 be ca 50 7f 3d
       0.124325305 -0.344884 -0.14757682 0.062332906
000060 fe b6 fc bc 97 97 6e 3d e8 7d f0 3e c3 8e 28 be
       -0.030848976 0.058250036 0.4697106 -0.1646071
000070 9a 2f 36 3e a8 e0 ad bc 0c f7 a4 be 5e 47 21 3e
       0.17791596 -0.021225289 -0.32219732 0.1574988
000080 af 18 a2 be a7 58 f7 3e 0a b6 ca 3d e8 87 ad be
       -0.31659457 0.48309824 0.098980024 -0.3389275
000090 36 4f 17 3e 67 51 09 3e dd 9e 06 3e 37 56 ce bd
       0.1477631 0.13409959 0.13146539 -0.10075038
0000a0 62 70 57 3f 78 45 09 bf 24 0c d0 3e 85 69 9d be
       0.8415586 -0.53621626 0.40634263 -0.30744568
0000b0 c9 c2 e5 be 10 6c 5f 3d 1b 78 85 be 11 9e b4 3c
       -0.44875172 0.054546416 -0.26068196 0.022048028
0000c0 48 df 97 be 2a 0e 01 3f cb 52 e3 3b cc be 79 bc
       -0.29662538 0.5041224 0.00693736 -0.015243243
0000d0 0f 67 25 3e b5 54 a1 be 13 4c c1 be 9a f8 82 be
       0.16152595 -0.3150994 -0.37753353 -0.25580293
0000e0 81 57 9a be 74 8e a8 3b df 3d ce bc 12 78 38 be
       -0.30144885 0.005143935 -0.025175987 -0.18014553
0000f0 45 74 18 3f 32 79 3d 3f 7a 05 60 3e 52 8f d0 be
       0.59552413 0.74013054 0.21877089 -0.40734345
000100 5e 53 68 be 51 c7 ad 3c 8b 18 12 3d 0e 2d 49 3d
       -0.22688052 0.021213206 0.035667937 0.049115233
000110 5a f5 1c be 14 d1 3d 3f 9b ee cb 3e 3f 37 79 3e
       -0.15327969 0.7414715 0.3983048 0.24337481
000120 56 03 32 3e 6a 6e 62 be 04 68 b9 3e 23 3a e5 3d
       0.17384085 -0.22112432 0.3621217 0.11192729
000130 2d 1a 80 3e cc 17 be bd dc f9 9b be 18 91 8f 3d
       0.2501997 -0.09281883 -0.30464065 0.07010096
000140 45 8d ee bd 25 48 d8 be 9d b4 10 bf a4 fb e0 bd
       -0.11648039 -0.42242542 -0.56525594 -0.10985497
000150 17 e8 99 3d ba 39 02 be 8c 66 9d 3e 18 2d 83 3e
       0.07514971 -0.12717333 0.307423 0.2562034
000160 e2 8c e9 bd 1e a1 33 3e 46 ab 32 3e b5 c3 b5 3e
       -0.114038244 0.1754193 0.17448148 0.35500875
000170 aa ff 1f be 8e 13 c3 be 45 c0 bf bd ab 7a 56 be
       -0.15624872 -0.38100857 -0.093628444 -0.20945232
000180 22 6b ad be b7 57 93 3e 1a 1c 27 be e4 ac d2 3e
       -0.33870798 0.2877786 -0.16319314 0.4114753
000190 a6 f2 17 3f 24 e6 e6 3e 45 6d a8 3e 65 31 9b 3e
       0.5935463 0.45097458 0.32895866 0.30311123
0001a0 aa 1d 98 be 19 7a c1 bc 62 23 2a be b4 22 66 be
       -0.29710132 -0.023617791 -0.1661506 -0.22474176

features.0.bias f4 [4]
000000 21 df 40 bd 30 71 c8 3d 98 d0 1a bd 17 d8 9c bd
       -0.047087792 0.09787214 -0.037796587 -0.07658403

features.1.weight f4 [4]
000000 69 13 82 3f 01 71 7b 3f c4 ff 74 3f 87 e4 22 3f
       1.0162174 0.98219305 0.9570277 0.63629955

features.1.bias f4 [4]
000000 19 f5 c2 3e d0 35 1c 3f fd f9 79 3f b8 7c bb 3e
       0.3807762 0.6101961 0.97647077 0.3661859

features.1.running_mean f4 [4]
000000 ba 74 59 bc 1e 55 c1 3d 78 ad d5 be 76 3e 15 be
       -0.013272459 0.09440063 -0.4173391 -0.14574608

features.1.running_var f4 [4]
000000 95 8e a8 3f 0a 23 ce 3f c1 92 c1 40 ac 88 8d 3f
       1.3168513 1.6104443 6.0491643 1.1057334

features.4.weight f4 [8, 4, 3, 3]
000000 bb 3f c8 be 3e da 43 bf 76 25 c4 be 2f f3 ff bd
       -0.39111122 -0.76504886 -0.3830983 -0.124975555
000010 25 d3 00 bf 16 c0 8e be 52 6f 82 3e 59 4e 6a 3d
       -0.5032218 -0.27880925 0.25475556 0.057203624
000020 ef 33 02 3e bb 8e e3 bc 59 c7 39 be d5 0e 32 be
       0.12715124 -0.02777802 -0.18142451 -0.1738847
000030 92 50 4b bd f3 3f a8 be d2 8e 3e bd 95 f2 78 3c
       -0.049637385 -0.3286129 -0.046522923 0.015194555
000040 30 75 91 be 0f 7c d9 bc 48 ef df bd 5e 5c fa 3e
       -0.2840972 -0.026548414 -0.10934311 0.48898596
000050 12 aa 58 3e 9d 6e 3c bc 18 24 d3 3d 57 2e 38 3e
       0.21158627 -0.011500982 0.10309619 0.17986427
000060 b4 09 61 bd 04 a2 d0 bd e1 cb d0 bc e0 e0 07 be
       -0.054940894 -0.10187152 -0.025487842 -0.13269377
000070 41 4c b0 be 93 fd 97 be f0 b3 bf 3c ec 93 09 3f
       -0.34433177 -0.2968565 0.02340123 0.53741336
000080 38 ba 92 3e 29 b4 0c be 0c a0 eb be ce 5a 14 3d
       0.286577 -0.137406 -0.46020544 0.03621941
000090 74 26 18 3c f8 1e 1c 3e a8 12 b9 be 96 d1 3c bd
       0.009286512 0.15246189 -0.36147046 -0.046098314
0000a0 a0 73 ba 3e 68 90 fd 3c dc 99 d2 3d 47 8d 07 3d
       0.3641634 0.030952647 0.102832526 0.033093717
0000b0 ce a7 da 3e bd 11 51 be a8 85 53 be 12 08 6c 3e
       0.4270615 -0.20416923 -0.20656455 0.23049954
0000c0 4e d7 95 bd f3 20 0f bf 46 cc bf bd 34 94 86 3d
       -0.07316457 -0.5590965 -0.09365134 0.06571236
0000d0 d8 33 50 be 4a cc 59 be 28 76 86 3d b7 65 76 bd
       -0.20332277 -0.21269336 0.06565505 -0.060155597
0000e0 4e 7b ab 3e ee b9 08 3e c1 b7 d0 be d8 d2 bd 3e
       0.33492512 0.13352177 -0.40765193 0.37074924
0000f0 d4 8e 41 3e 8b 22 a3 bc b2 35 9f be af 9c 82 be
       0.18902141 -0.019913932 -0.31095654 -0.25510165
000100 c7 6f 98 3c b1 39 37 3e 5a a5 6e be 6e ef 77 bd
       0.018607987 0.17893101 -0.23305264 -0.060531072
000110 73 12 11 be 29 37 0f bb ca a1 a2 be 4f 75 f7 bc
       -0.14167194 -0.0021852946 -0.3176406 -0.030207304
000120 1d 56 a7 3d ec 93 40 bd 5a 72 7a bd 35 a6 77 3e
       0.08170722 -0.04701607 -0.06114421 0.24184497
000130 2d ce c8 be ef 3c 46 3e b3 3e 89 3e 0f e3 01 bf
       -0.392198 0.19359182 0.26805648 -0.5073709
000140 79 62 84 3e 5d 90 0b 3e 9a 23 86 bd 0a 00 9f 3d
       0.2585638 0.13629289 -0.06549759 0.07763679
000150 44 4f d3 bc 05 c6 e4 3e 48 18 96 3d bb b7 a7 be
       -0.025794633 0.44682327 0.0732885 -0.32757363
000160 64 81 64 3f 9a 2f 45 be b6 59 85 bb 2b 1b 6a bc
       0.89259934 -0.1925644 -0.0040695323 -0.014288704
000170 42 b1 a3 3c 54 a0 4d be 38 3d 42 3e 40 44 14 3d
       0.019981984 -0.20080692 0.18968666 0.0361979
000180 6e 4c 27 bb b5 88 25 bd ff 5e 11 3d 30 ad 9f 3b
       -0.0025527733 -0.040413577 0.035490986 0.0048729405
000190 21 1c 0a be 5d fa 32 3d 24 8f a3 3c 6f 36 56 be
       -0.13487293 0.043695796 0.019965716 -0.20919202
0001a0 61 b4 15 3e 9b 37 d0 bd 99 85 6a bb 61 b0 14 3c
       0.1461959 -0.10166856 -0.0035785197 0.009075255
0001b0 8a 6a 1b be ff 71 f3 be 06 15 2a be fa 2c b7 3e
       -0.1517736 -0.4754791 -0.16609582 0.35776502
0001c0 ba b5 94 3e 22 81 df 3e 9f 3b b1 3c a2 79 d7 3d
       0.29044896 0.43653208 0.021634875 0.105212465
0001d0 66 53 44 3e 48 b4 46 3e 8b ef 68 be fe cd c4 3b
       0.19172439 0.1940471 -0.22747628 0.0060060015
0001e0 85 47 da bd 72 88 cb be d3 90 31 3c 69 ca ee 3d
       -0.106581725 -0.39752537 0.010837751 0.116597004
0001f0 0d c2 67 3e 15 6e e6 3d 49 ea 87 3d 95 74 2b bd
       0.22632618 0.11251465 0.06636483 -0.04185923
000200 53 87 a5 bd 4f e4 ca 3e 0c 7b ef 3e ac 66 87 3e
       -0.08082452 0.3962731 0.46773565 0.2644552
000210 7c 8e 11 be 5d ce d2 be 79 e0 db be 60 d5 d5 3c
       -0.1421451 -0.41173068 -0.42944697 0.026102722
000220 6d 8e 5c 3d 20 03 27 3e c0 bf af bd 37 45 a0 3c
       0.053846765 0.16309786 -0.08581495 0.019564254
000230 ad ab 35 3d c1 03 eb 3d 3e 94 39 3e ac 67 bc bd
       0.044353176 0.114753254 0.18122956 -0.09199461
000240 e1 63 fe bd c4 e0 41 3e 96 03 27 3d fc e1 9d 3e
       -0.12421394 0.18933398 0.040774904 0.30836475
000250 ba 4b dd be ce 1e 5c 3c 8f 14 44 be 6d 00 7e 3e
       -0.43221837 0.013435079 -0.19148467 0.2480485
000260 6d 36 3f bd c3 d7 19 3d 7d 0f 2b be 12 6a 37 3d
       -0.046682764 0.037559282 -0.16705127 0.04477889
000270 21 7d 32 be 9c 74 fd 3e e4 e3 48 3e 85 46 8a 3e
       -0.17430545 0.49503028 0.19618183 0.27006927
000280 49 20 99 be 1e 93 f5 bd 45 5b 28 3e 36 a4 95 be
       -0.29907444 -0.11990951 0.16441067 -0.29226846
000290 79 dc 04 3e 28 13 dc 3d ec 76 d4 3e 25 e3 03 bf
       0.12974729 0.10745841 0.4149698 -0.5151847
0002a0 b6 e3 b5 be 8b a1 d7 3d c2 2c 9d 3e ed 9c 0e bd
       -0.35525292 0.10528859 0.3069821 -0.034817625
0002b0 a6 96 28 bd 5e df 26 3e 40 27 85 be b9 96 a8 3d
       -0.041159295 0.16296145 -0.26006508 0.08231873
0002c0 c3 39 3a 3d c7 f3 e3 3e 1c 1e 83 bb dd 7a c7 be
       0.045465242 0.44521925 -0.004001392 -0.38960925
0002d0 a3 f1 22 3e 9a 28 b6 3e 75 e8 89 bd 11 4d 71 3d
       0.1591249 0.35577852 -0.06733791 0.058911387
0002e0 50 4d 8b 3d c0 7d fa bd 63 7c 11 be 9a 0c 39 bc
       0.068018556 -0.12231016 -0.14207606 -0.011294508
0002f0 ee 40 fc 3d 28 14 a3 3d 9b 21 1b be 93 e9 24 3d
       0.12317072 0.07962829 -0.15149538 0.040261816
000300 74 66 f8 3d 52 0c b9 bd ad f7 76 3e 73 60 5a 3e
       0.121289164 -0.09035553 0.24117918 0.21325855
000310 0b f3 03 be 15 8a 65 bc 24 07 6c bd 27 13 ac be
       -0.12885682 -0.014009972 -0.057623997 -0.33608362
000320 58 e7 e5 be 9d 8f 8f be fa 6c a7 be e5 19 85 be
       -0.44903064 -0.28039256 -0.3270033 -0.25996318
000330 f6 55 7e bd c4 da b7 3e 1d 80 24 3f 21 bc 37 3b
       -0.062093697 0.35909092 0.64257985 0.0028035718
000340 30 9c 1e bd c5 5e 36 3d 75 be 8a 3e 20 91 04 3e
       -0.03872317 0.044523973 0.27098432 0.12945986
000350 83 60 3c 3e 6c c2 1e 3e 48 90 ca 3e e3 f9 93 3e
       0.18396191 0.15503854 0.39563203 0.28901586
000360 c8 9e ac be 58 3f 53 3e da 0f 2f 3e 63 f2 bd 3e
       -0.3371489 0.20629632 0.1709589 0.3709899
000370 5c b6 0c 3e 91 1e a0 be ae d4 f1 3d 10 dd 57 be
       0.1374144 -0.3127332 0.118081436 -0.21080422
000380 a2 ac 1d be 5c b9 84 3e 7a b5 95 be 42 a3 1f bd
       -0.15397885 0.25922668 -0.29240018 -0.038974054
000390 33 1e c0 be 2f 8f c6 be 38 31 d6 bc e0 5b b5 be
       -0.3752304 -0.38781115 -0.026146516 -0.35421658
0003a0 72 56 4c be 09 6b a8 bd e5 07 8c be 82 18 11 3b
       -0.19954851 -0.0822354 -0.27349773 0.0022139852
0003b0 a0 03 47 3e b7 4c d7 bd 66 e8 6b 3e 64 32 7f bc
       0.19434977 -0.10512679 0.23037872 -0.015575979
0003c0 6d 6f 81 3e 1b 9c de 3b 5e 9e b4 bd 4a 19 48 be
       0.25280324 0.0067935116 -0.08819269 -0.19540897
0003d0 19 86 18 be 04 84 93 3e 96 16 b4 be 1c a7 f2 3e
       -0.14894904 0.28811657 -0.35173482 0.4739312
0003e0 78 d4 b0 3e 6d ad 35 be a7 35 cc 3e fb c7 b0 3e
       0.345371 -0.17741938 0.39884683 0.34527573
0003f0 1d ae 6d 3b 77 d3 27 3e 6d cf 5f 3d 87 37 20 bd
       0.003626711 0.16389261 0.054641176 -0.039115455

features.4.bias f4 [8]
000000 27 6e d6 bd a3 53 ba bc e0 02 ba bd c2 da d9 3d
       -0.10470229 -0.02274496 -0.090825796 0.10637428
000010 7b 9c 86 3e 17 f0 b2 bd fb ab 60 be 4d 84 35 be
       0.2629126 -0.087372 -0.21940605 -0.1772625

features.5.weight f4 [8]
000000 ee e4 84 3f 6b 24 6a 3f 4f 28 94 3f 48 f4 50 3f
       1.0382364 0.9146182 1.1574801 0.81622744
000010 0f ce 63 3f da 4e 74 3f b2 dd 8e 3f 49 de 8e 3f
       0.88986295 0.9543282 1.1161406 1.1161586

features.5.bias f4 [8]
000000 10 68 2d 3f 60 a1 e5 3e 16 44 88 3e 82 4e 96 3d
       0.6773691 0.44849682 0.26614445 0.07339193
000010 61 aa 1e 3e 58 b1 28 3e bd 68 14 3e 5c 94 f4 3e
       0.15494682 0.16473901 0.1449308 0.4776944

features.5.running_mean f4 [8]
000000 e3 2a 13 c0 0c a2 67 bf 24 eb 61 3f dd f3 79 3f
       -2.2994926 -0.9048164 0.8824942 0.9763773
000010 7c fe 24 3f 38 d4 c9 3e c3 71 7a bf 50 1a bc bf
       0.6445081 0.39419723 -0.97829837 -1.469553

features.5.running_var f4 [8]
000000 8d a2 2e 40 22 a6 cc 3f 74 17 fb 3f d6 3f b8 3f
       2.7286713 1.59882 1.9616532 1.4394481
000010 40 3f e5 3e fe 85 d1 3f 8c 72 00 40 5b 75 e4 3f
       0.44774818 1.6369016 2.0069914 1.7848314

features.8.weight f4 [16, 8, 3, 3]
000000 57 5e bc be 92 10 cf 3d 00 fa 86 be be a6 b3 bd
       -0.36790726 0.101105824 -0.2636261 -0.08772038
000010 58 5e ba 3e 99 36 63 bd f7 8d b9 bc f7 f1 bc 3e
       0.36400104 -0.05547199 -0.022650702 0.36903355
000020 32 ac 1a be 9d 35 5f bc bc 5f a1 3d 60 7e 0c bd
       -0.1510475 -0.013623622 0.07879588 -0.034300208
000030 99 ed 70 be f3 28 d0 bd 04 68 0c bc 15 7e 03 bc
       -0.23528136 -0.101640604 -0.008569721 -0.008025666
000040 eb 16 cb bd f6 30 25 3d cf 61 5f 3e 20 58 9c bd
       -0.09916481 0.040329896 0.21814655 -0.07633996
000050 03 55 c5 3d 67 f1 94 bc ab 80 02 bf 9d ad aa bc
       0.09635355 -0.018181516 -0.5097758 -0.020834738
000060 fa ec 37 3c 5e 88 f8 3b b9 ae 42 3d 98 1c d4 3d
       0.011225933 0.0075846156 0.04752991 0.10357016
000070 a9 cc 00 3d bc f3 8c 3e 20 78 08 3d 99 ac 80 bd
       0.03144518 0.27529705 0.033317685 -0.062829204
000080 75 60 08 bd fe 6d 8d bd 83 de 00 3e a9 1d cf 3c
       -0.033295114 -0.06905745 0.12584881 0.025282698
000090 d6 61 00 3c 1a f8 e5 bd 2e 7d 06 bd 52 8f 8a be
       0.007835826 -0.11228962 -0.032834224 -0.2706247
0000a0 c8 d1 92 bf 4c 93 85 be ed 80 71 3d 85 4e f8 be
       -1.147027 -0.2608894 0.058960844 -0.48497406
0000b0 99 7d cf bb e3 c3 68 3d 9a ac ad 3d 18 e9 d5 3b
       -0.006332111 0.056827437 0.08480187 0.006528031
0000c0 0d 40 c9 3d 36 24 21 bd f3 31 8a 3e bd 8f 0f 3e
       0.0982667 -0.039341174 0.26991233 0.14019676
0000d0 92 5d 08 3e 84 f2 84 3d 78 79 b7 bd c5 c7 6f 3e
       0.13316944 0.06491569 -0.08958715 0.2341605
0000e0 93 16 2a bd c2 ee b1 3d 93 96 01 be 3f bf ae be
       -0.041525435 0.086881176 -0.12655096 -0.34130284
0000f0 0a da 18 be 5f e8 53 be d7 28 28 bd a3 d1 fc 3c
       -0.14926925 -0.20694111 -0.041054573 0.030861681
000100 9d f0 8c be 19 5f 44 3d a9 f0 12 be c4 0a bb be
       -0.27527323 0.047942255 -0.14349617 -0.3653165
000110 9c ea 83 3d 71 ce 6f 3e db 72 c8 be a9 60 7b bd
       0.064412326 0.23418595 -0.39150128 -0.06137148
000120 ca 82 97 bd 43 1b 05 3b ef e5 78 3e 7c d6 34 be
       -0.07397993 0.0020310439 0.24306463 -0.17659944
000130 06 fe 30 be a8 37 00 3f fc 7f 1d bf b4 56 7d be
       -0.17284402 0.50084925 -0.61523414 -0.24740106
000140 ae ec 92 3e 2b dd c9 3d c5 1d e4 3c 7a 17 58 3c
       0.28696197 0.098566376 0.027846226 0.013189191
000150 27 fd af bd 73 fe 9a bd 7d f5 c5 bd 5e d6 b5 bd
       -0.08593207 -0.075680636 -0.09665964 -0.08878778
000160 a7 2c 77 bd bd c3 0f 3d 42 08 36 3e 13 cf 34 3e
       -0.06034532 0.03509878 0.17776588 0.17657118
000170 18 c9 5a bd 5f e6 3f 3e 23 72 ae bd 7f d4 a8 3d
       -0.053414434 0.18740223 -0.085178636 0.082436554
000180 4b 88 f3 3e cc b0 57 bc 39 9d 2b 3e 5e ab 2f 3e
       0.4756492 -0.01316471 0.16759194 0.17155215
000190 d6 6d f5 3d 3d 6c 0d 3e 06 26 9a 3e 5e cf 6f 3e
       0.1198384 0.13810821 0.30107135 0.23418948
0001a0 35 54 0a be 30 88 4d be 18 13 0d 3e 02 70 2b 3e
       -0.13508685 -0.20071483 0.13776815 0.16741946
0001b0 2b c4 79 3d 6d d8 ee bb ed 2d 2d be f8 36 80 bd
       0.060978096 -0.0072889836 -0.1691205 -0.062604845
0001c0 8f be 8e be 85 94 8c be 35 f5 d4 3d 84 51 0f bd
       -0.2787976 -0.2745706 0.10398332 -0.03498985
0001d0 b1 75 8e 3d 57 49 82 3e f9 bd 42 3e 12 94 79 3e
       0.069560416 0.2544658 0.19017781 0.2437289
0001e0 b8 2e d3 bd 02 c8 6b 3d 4a 0e 3e 3e 1e 04 53 3e
       -0.10311645 0.05756379 0.18560138 0.2060704
0001f0 61 fe c1 3e 25 16 f2 3d 66 59 08 be 31 8b b4 bd
       0.37889388 0.1182063 -0.13315353 -0.08815611
000200 aa 1c 3f bc ad ab 8d bd d6 9e a9 be 7c aa 34 bf
       -0.011664549 -0.0691751 -0.33128995 -0.7057264
000210 25 c5 33 be c3 a0 3b 3e 7f 7e df bc 3a f8 75 bd
       -0.17555673 0.18323044 -0.027281998 -0.06005118
000220 ce fc 1a 3e d7 47 10 3d a7 54 93 3e 92 81 a9 bd
       0.151355 0.03522476 0.28775522 -0.08276667
000230 3d 7c 1b 3e 76 80 c5 3e 01 21 fb bd 35 f6 d8 bd
       0.15184112 0.3857457 -0.12262154 -0.10593835
000240 46 19 d1 bd c3 88 ea bd e5 36 3f bd 29 58 9f bd
       -0.10209899 -0.114518665 -0.04668321 -0.07780487
000250 a8 2a b1 3d 7e 32 b3 bd de b3 2a bd b4 df 7b be
       0.08650714 -0.08749865 -0.04167544 -0.24597055
000260 ac 86 01 be 24 57 97 be 8d 6a 27 be ca 36 61 3e
       -0.1264903 -0.2955867 -0.1634924 0.21993557
000270 07 55 ac be fa ed 26 3e 1e 38 9c 3e b6 b2 bf bc
       -0.3365862 0.16301718 0.30511564 -0.023400646
000280 54 4e 7a 3d 94 19 02 3f 6b ab 22 be ba 7c 18 be
       0.061109856 0.5082028 -0.15885703 -0.1489133
000290 7d 7b 8a bd 25 62 51 3e e7 cb af 3c 48 79 51 bb
       -0.06761835 0.20447595 0.021459533 -0.0031963158
0002a0 07 55 35 bd f6 d1 0b be a6 34 1d 3c 40 85 4e be
       -0.04427054 -0.13654312 0.009595072 -0.20168018
0002b0 4a f9 35 be 0b 5f 18 3d d9 5d 07 be fa 7a 7b be
       -0.17770877 0.037200015 -0.13219394 -0.2455863
0002c0 45 89 50 be 31 3e 87 bd ad 4c 89 bd 2c 7d 27 bf
       -0.20364864 -0.06603659 -0.06704078 -0.6542537
0002d0 1c b3 a0 3c 8c 9d 67 3e 8f 7f 02 3e 59 46 21 3d
       0.019616656 0.22618693 0.12743972 0.03937373
0002e0 88 93 80 3d 55 05 94 3e c0 53 3d ba 57 05 1c 3d
       0.06278139 0.28910318 -0.00072222576 0.03809103
0002f0 e3 4f fe bd 2e 4f 06 3c 92 c0 b6 bd 80 41 82 be
       -0.12417581 0.008197589 -0.089234486 -0.25440598
000300 65 6c 68 3e 44 2e 45 3d 0c ea 10 bf ea 76 78 3e
       0.22697599 0.048139825 -0.5660713 0.24264112
000310 d3 5e 12 bc 5d 26 34 bf 7a 32 32 3e ed 5e 71 3e
       -0.008933741 -0.7037104 0.17402068 0.23571368
000320 56 04 36 be 92 2c f5 3e 6a 62 2d 3d 67 6c c8 3d
       -0.17775092 0.47885567 0.042330183 0.09786301
000330 c8 f1 a3 bc 01 fb 7e 3e a5 fd cb 3d 1a 0f 11 3e
       -0.020012751 0.24900438 0.09960488 0.14165917
000340 3f 82 e4 bd d1 8e 80 3e b6 c4 95 3d e4 b2 b8 3d
       -0.11157655 0.2510896 0.0731291 0.09018496
000350 bc 89 53 be 03 09 6c 3c 69 2f 25 be da b5 8a be
       -0.2065801 0.014406445 -0.16131367 -0.27091867
000360 a4 81 85 bd 10 67 da 3c 2e 94 a2 3e c4 58 a9 3d
       -0.065188676 0.026660472 0.31753677 0.08268884
000370 35 c4 3a bd 71 fd 9e be 21 fd 35 3e 89 25 94 3b
       -0.045597274 -0.31052735 0.17772342 0.004521076
000380 53 51 8c be 6e 7d e8 3d f5 69 bd 3c 68 3f 8a be
       -0.27405795 0.11352049 0.023121813 -0.270015
000390 be ac 80 3c f7 e1 83 bb 91 5c c0 3d 0b 8b 72 be
       0.01570737 -0.00402474 0.09392656 -0.23685853
0003a0 7f 0d ab bb 27 19 e5 bc 6b b3 19 bf 1d 0a 04 bf
       -0.0052201147 -0.027966095 -0.60039395 -0.5157793
0003b0 41 39 d5 be 5c b0 72 be 7f 7b 1d bd 54 c0 41 bc
       -0.41645244 -0.23700088 -0.038447853 -0.01182564
0003c0 26 ae 71 3e c4 84 de 3e 4f 95 88 3e 18 a8 4a bb
       0.23601589 0.43460667 0.26676413 -0.0030922946
0003d0 7b c3 71 bd 54 af 3d be b9 dc c5 3d 9a fc 41 3d
       -0.059024315 -0.18523914 0.0966124 0.04736004
0003e0 50 cb 3f bd b9 d6 c3 bc cb dc 0c 3e 2e 11 37 bb
       -0.046824753 -0.023906099 0.13756101 -0.0027933824
0003f0 ed 47 1e 3e 5b 70 6f 3e b8 d6 ce 3d 65 e1 3c 3c
       0.15457125 0.23382704 0.10099548 0.011528348

features.8.bias f4 [16]
000000 f0 c2 39 3e 47 a8 3c 3d 5c 02 ce 3c 6c a1 a0 bb
       0.18140769 0.04605892 0.02514761 -0.0049020555
000010 fc a4 12 3e e3 58 90 3c 11 73 78 bc 9b df e1 3d
       0.14320749 0.01762051 -0.015164153 0.110289775
000020 4b a5 80 bd fc 50 0c bd 15 26 08 3d 5c 3e 22 bd
       -0.06281527 -0.03425692 0.033239443 -0.03961025
000030 1e 33 af 3d c7 50 ca ba 3f 16 59 3d c1 0f f9 bc
       0.08554672 -0.001543545 0.05299973 -0.03040302

features.9.weight f4 [16]
000000 89 88 bb 3f d0 06 55 3f 18 a1 53 3f 27 f5 6b 3f
       1.4651042 0.8321352 0.82667685 0.9217095
000010 dd 2d 89 3f 23 16 77 3f 6f 05 89 3f 9b d0 76 3f
       1.0717121 0.9651815 1.0704783 0.96412057
000020 17 3a 6b 3f b3 b3 84 3f 84 df 93 3f b9 f2 85 3f
       0.91885513 1.036734 1.1552587 1.0464698
000030 53 28 47 3f 6f 1f 80 3f 9d 3c 6f 3f 1b 26 5d 3f
       0.77795905 1.0009593 0.93451864 0.8638627

features.9.bias f4 [16]
000000 1a 12 ea bc a8 90 21 3e 47 a9 de 3e 72 81 60 3e
       -0.028573085 0.15777838 0.43488523 0.2192438
000010 3b be b9 3e 55 56 92 3e 14 85 6d 3c b2 a8 fc bd
       0.36277947 0.2858149 0.01449706 -0.123368636
000020 e3 87 dc 3d 6a 6a b2 3e 4f 2f 90 3c 46 56 3c 3d
       0.10768106 0.34846812 0.017600683 0.045980714
000030 db 8c 06 3e 19 8c 62 3e 72 26 2e 3f d7 bd ff 3d
       0.1313967 0.22123756 0.6802741 0.12487381

features.9.running_mean f4 [16]
000000 51 0d 4c c0 1d cf 81 3f 70 3c 8b bf e7 4f d5 bf
       -3.1883128 1.0141331 -1.0877819 -1.6665009
000010 8c 98 08 40 41 f2 35 bf 44 22 93 bf 12 f1 ed bf
       2.1343107 -0.71072775 -1.1494832 -1.8589194
000020 aa 03 52 bd 59 4d 16 40 d2 d4 ba be dd 9f d6 be
       -0.051273026 2.348471 -0.36490494 -0.4191884
000030 13 9e ef bf 53 ec aa bf 63 fa 35 40 cb bd 14 3f
       -1.8720115 -1.335337 2.8434074 0.581021

features.9.running_var f4 [16]
000000 56 12 84 40 44 66 2e 40 fd d7 ba 3f 7e 44 14 40
       4.1272383 2.7249918 1.4597164 2.3166804
000010 e1 3e 16 40 5b af 66 40 16 0f 22 40 9c e0 3c 40
       2.3475878 3.6044528 2.5321708 2.951209
000020 9c 00 1e 40 21 15 63 40 c7 0d 8c 40 01 49 84 40
       2.4687872 3.5481646 4.376682 4.1339116
000030 41 94 6e 40 57 a6 8d 40 5b 18 32 40 17 b8 d7 3f
       3.7277987 4.426555 2.7827365 1.6853055

features.11.weight f4 [16, 16, 3, 3]
000000 5a 6c 90 be 79 84 48 3e f4 28 a1 bd 30 05 dd 3c
       -0.28207666 0.19581784 -0.07869139 0.026980013
000010 1d ae 56 3e fa 12 bd 3c 2a d5 d2 3d bb 57 39 3e
       0.20964856 0.023080338 0.10294564 0.18099873
000020 3f eb ce 3d 94 3c 2e be 7a af 2e 3d fa 10 b9 3d
       0.101034634 -0.17015296 0.042647816 0.09036441
000030 e0 73 24 3e 8d cf da bd 48 fc 2d be a1 9d 2c be
       0.16059828 -0.106841184 -0.16990769 -0.16857006
000040 1b 07 17 3c db 3b 4c be d3 82 35 be fa 9d a9 be
       0.009218003 -0.19944708 -0.17725687 -0.3312834
000050 3d 69 8c be 67 09 a9 be f4 1b 6a be e8 c5 80 3e
       -0.2742404 -0.33014986 -0.22862226 0.2515099
000060 56 a8 a4 3e 78 04 b2 3d a8 c1 26 be e4 f2 93 be
       0.3215968 0.086922586 -0.16284811 -0.28896248
000070 36 64 4d be a5 9f f8 3d e0 3f 5a be 24 67 df bd
       -0.20057759 0.12139825 -0.21313429 -0.109083444
000080 64 c4 d3 bd 43 4e ee bc bd 47 b5 3e 39 ea 11 3e
       -0.10340193 -0.029090052 0.35406294 0.14249505
000090 fe 62 0c bd b2 81 d9 bd 07 4d ad bc 48 04 68 3e
       -0.034274094 -0.106204405 -0.021154894 0.22657883
0000a0 96 10 3d 3d dd 17 30 3d 91 a3 87 3e 33 56 b6 3d
       0.046158396 0.042991508 0.2649198 0.0890316
0000b0 a8 66 1b 3d 80 16 0c 3d f7 48 4e 3d 33 17 69 be
       0.037939698 0.034201145 0.050362553 -0.22762756
0000c0 1e a1 6c be 4a 91 40 3d 29 68 2e 3d 06 65 92 3e
       -0.23108336 0.04701356 0.042579804 0.285927
0000d0 6b 6d 63 3b f8 b8 7a be f7 ce 58 bc 24 5c 0f be
       0.003470267 -0.24484622 -0.013232938 -0.13999993
0000e0 e0 09 95 3d 5f 86 89 be 19 3b c5 be 33 ae 0f bf
       0.07277274 -0.2686033 -0.3852165 -0.5612518
0000f0 13 84 03 bf 14 f9 cc be fa ff fa be 55 d3 3f be
       -0.51373404 -0.40033782 -0.4902342 -0.1873296
000100 94 52 e4 bd cf 73 2f be 68 69 df bd 6d 9c 16 be
       -0.11148563 -0.17134021 -0.109087765 -0.14708109
000110 a7 db 32 be 7d b5 98 bc c3 57 8d bd 2d 48 a4 3d
       -0.17466603 -0.018641228 -0.06901505 0.08021579
000120 53 88 1b 3e de ac e0 bd a6 83 d4 3d c8 c4 9f 3e
       0.15188722 -0.10970472 0.103766724 0.3120482
000130 55 78 9f bc ee df 33 3d e0 8e 9d 3e dd 7f 14 3e
       -0.019466558 0.043914728 0.30773067 0.14501901
000140 1a 10 7b be e4 f8 7b be 6c a3 14 3e a8 0e 8a 3e
       -0.24517861 -0.24606663 0.14515465 0.26964307
000150 0a 7d d4 3c d9 e6 b2 3d c3 e0 8e bc 51 7b bc 3d
       0.02593853 0.08735437 -0.01744116 0.09203208
000160 e3 1c b2 3e e7 20 b0 3d cf 32 1b be 56 d8 d8 3d
       0.34787664 0.086000256 -0.151561 0.10588138
000170 55 26 a7 bd 5f 0a b0 3e e8 dc ec 3e 68 e9 0f 3f
       -0.08161608 0.34382913 0.46262288 0.56215525
000180 83 ea c0 3e 96 d9 07 3e 97 18 ef 3d 6f 70 2b 3e
       0.37678918 0.13266596 0.11674612 0.16742109
000190 db 76 6b be ed 58 66 bd 6b 84 7a 3c ad 16 6a be
       -0.22994559 -0.05623715 0.01529036 -0.22860213
0001a0 20 7d 88 bd ed 93 90 be 61 0b ba bd 4e a3 27 3e
       -0.06664491 -0.28237858 -0.090842016 0.1637089
0001b0 38 5f c9 3e 01 b5 a6 3e f3 39 11 3e 0b 8e fe 3c
       0.3933046 0.3255997 0.14182262 0.03107359
0001c0 22 64 36 bc 10 42 6f 3e de 11 5f bd 3e b1 63 3e
       -0.011132272 0.23365045 -0.0544604 0.22235581
0001d0 d6 80 1e bd 37 24 42 3e 32 23 e8 bc c1 1e 03 3d
       -0.038697086 0.18959127 -0.028337095 0.03201175
0001e0 10 c9 8b 3e 7e 75 47 3d 3d 04 b1 3e bd ac fd 3d
       0.27301836 0.048696034 0.34573546 0.12386463
0001f0 e5 0b a6 3e 27 e0 a5 3e 0c ee 94 3d d8 5f 04 3d
       0.3243095 0.32397577 0.07271966 0.032317966
000200 29 2a ec bc ce 8c 07 be 64 e3 da be 17 b0 49 be
       -0.028828697 -0.13237306 -0.4275161 -0.19696079
000210 59 47 a6 bd fa 7c 07 bf 50 47 17 3d ee 48 0f 3d
       -0.08119077 -0.52925074 0.036933243 0.03498166
000220 60 6a 1b 3e 88 3b aa 3d b6 53 56 3e 49 b5 db bd
       0.15177298 0.08312136 0.2093037 -0.10727937
000230 9e 65 1e bd 04 80 4c be 6c 57 50 be d2 f1 3d be
       -0.03867113 -0.19970709 -0.20345849 -0.18549278
000240 f3 8a 05 3e 9c 63 ba be d4 26 92 be 68 e8 b7 3d
       0.13041286 -0.3640412 -0.28545249 0.08979875
000250 73 f1 3f 3e d0 f4 0a 3e d9 ca 87 be 80 3d 57 bd
       0.1874445 0.13569951 -0.26521948 -0.052548885
000260 94 ba 23 3d 2e 7b 05 be 36 c8 09 3d ed 67 1d be
       0.039972857 -0.1303527 0.0336382 -0.15371676
000270 05 58 39 3e 32 6e 1a be 24 a4 c9 bd 66 cb a1 be
       0.18099983 -0.15081099 -0.098457605 -0.31600493
000280 8b 58 a2 bd 49 77 f1 bd 7a 97 04 3f 42 65 1b be
       -0.079270445 -0.1179033 0.51793635 -0.15175346
000290 d1 76 c4 3d e9 2b 96 3d eb c6 2c 3e a6 ec ba 3c
       0.09592975 0.07332594 0.16872756 0.02281792
0002a0 4e 43 cf bc f6 7c d9 3d 6d 0d a5 bc a4 dc c1 3c
       -0.025300648 0.106195375 -0.020148003 0.02366478
0002b0 71 dd b3 3e db 86 b2 bd b8 fb ac be 2a d7 80 be
       0.35129884 -0.08717128 -0.33785796 -0.25164157
0002c0 61 7e 1e be c0 d5 36 3c 16 c2 82 bc 35 f4 a4 3d
       -0.15477897 0.01115936 -0.015961688 0.08054391
0002d0 55 26 eb 3e 1e a0 02 bc f5 3e db be 8f 6a 8b 3d
       0.45927683 -0.007972745 -0.4282147 0.06807434
0002e0 ee 58 0e 3f 1c 60 bb 3e e8 91 8e be 79 28 69 be
       0.55604446 0.36596763 -0.27845693 -0.22769345
0002f0 c9 c3 70 3d 28 86 05 3e 92 92 91 3e b0 67 0d 3d
       0.058780465 0.13039458 0.28432137 0.034522712
000300 a1 17 87 be 51 05 10 3d 94 ef 6d bc 49 a6 a1 be
       -0.26385215 0.03516132 -0.014522452 -0.31572178
000310 e6 03 48 bd f5 87 ab bd c0 eb a6 be 44 6b ba bc
       -0.048831843 -0.08375541 -0.32601738 -0.022756226
000320 b7 75 30 3e 87 ad 40 bd ce 95 b8 be bb cd 08 bf
       0.17232405 -0.04704049 -0.36051792 -0.5343892
000330 83 fa c8 3e fa a4 90 3e f3 e7 35 3e 51 3f bd bd
       0.39253625 0.28250867 0.17764263 -0.09240592
000340 20 50 2a 3e 1b ca d2 3d 76 cf fe bd 57 3b 8b be
       0.16632128 0.10292455 -0.12441914 -0.2719371
000350 46 31 86 be c8 b6 a3 be 6f 61 bc be a9 61 8e be
       -0.26209468 -0.3197539 -0.36793086 -0.27808884
000360 04 5f 3f 3e ea 80 b6 3d 98 90 5d be 29 09 b2 3d
       0.1868859 0.08911307 -0.2163719 0.086931534
000370 7a f0 80 3e e7 e3 28 bd 9f ad 61 bd 4f 47 1e 3e
       0.2518347 -0.04123297 -0.05509722 0.1545689
000380 77 14 96 3d 49 28 a6 3d b4 88 25 be 3e 60 7b 3d
       0.07328122 0.081131525 -0.1616543 0.06137108
000390 b7 c8 ee be 86 25 51 be fb 1c bf 3c d8 b4 cd be
       -0.46637508 -0.2042447 0.023329249 -0.40177035
0003a0 2f 53 aa be 71 1b 96 bd 01 1f 51 3e 79 0a d1 3c
       -0.3326659 -0.07329453 0.20421983 0.025517689
0003b0 b6 ce f0 bc 96 af fb bd 26 dc f6 bc f1 d0 de bc
       -0.029395442 -0.1228935 -0.030134272 -0.02719924
0003c0 56 21 2a be ec b9 be 3c b7 5a c0 bd 9e b5 b6 3d
       -0.16614279 0.023282014 -0.093923025 0.089213595
0003d0 7c 20 42 3c 1c 90 46 bc 45 0f dd 3d cd 5f 08 be
       0.011848565 -0.012119319 0.10793928 -0.13317795
0003e0 e9 e1 c0 be fe ea 53 3d 63 95 60 3e a6 8d 7b 3d
       -0.37672356 0.051737778 0.21931987 0.061414383
0003f0 30 6f a4 3e ec 75 2d 3e 38 d8 1a 3e 31 02 9f bd
       0.3211608 0.16939515 0.15121543 -0.0776409

features.11.bias f4 [16]
000000 07 37 0f be 38 89 74 bc 6b 42 a3 bd e8 e2 45 3c
       -0.13985835 -0.014925294 -0.079716526 0.012078024
000010 c2 4c e4 bd 62 9b 44 bc 6c f5 66 3d b9 c7 5a 3d
       -0.11147453 -0.011999937 0.056386396 0.053413127
000020 11 80 0a 3c bb 89 c9 bd 4c a2 31 3c e9 0c 3e 3d
       0.008453385 -0.09840723 0.010841917 0.04639903
000030 cd 6d 23 3c 39 b5 13 bd cc ea d9 bc 03 0d 9b bd
       0.009974909 -0.0360615 -0.026601218 -0.07570841

features.12.weight f4 [16]
000000 81 ab 76 3f 71 f6 78 3f 71 ed 79 3f be 07 8c 3f
       0.96355444 0.9725104 0.9762793 1.0939863
000010 d9 98 81 3f 6b 70 6e 3f db f1 73 3f 82 32 82 3f
       1.012477 0.93140286 0.9529092 1.0171664
000020 84 cb 77 3f 02 ae 87 3f 78 58 91 3f 5f 72 65 3f
       0.96794915 1.0599978 1.1355124 0.8962764
000030 82 1e 80 3f ce a4 7e 3f c1 7d 8e 3f 0e 18 8f 3f
       1.000931 0.9947022 1.1132127 1.1179216

features.12.bias f4 [16]
000000 06 c6 6e 3e 3f d2 65 be d8 e5 0d 3e 79 49 e6 3d
       0.23317727 -0.22443484 0.1385721 0.112444825
000010 df d4 72 3c f4 d5 b6 3e 10 03 a0 3a 1b 08 b3 3d
       0.01482126 0.35710108 0.0012207944 0.0874178
000020 fc bd 4b 3b 3d 8c 1c be 3c a3 ed 3e b2 7d 0c 3e
       0.0031088581 -0.15287872 0.464136 0.13719824
000030 84 bb e3 3c 47 e9 0f 3e 0d 05 67 bd 43 ca 9b bd
       0.027799375 0.14053832 -0.0564013 -0.07606938

features.12.running_mean f4 [16]
000000 8f b1 e9 be 3c 20 a5 bf 10 88 b1 bd ee d4 d9 bf
       -0.4564328 -1.2900462 -0.0866853 -1.7018106
000010 0f f9 19 c0 72 09 93 c0 85 56 f4 bf 9b 03 4b c0
       -2.4058263 -4.594903 -1.9088904 -3.172095
000020 59 01 d6 bf 7f e4 bc bf b7 0e 27 40 a2 c2 f1 be
       -1.6719161 -1.4757231 2.6102731 -0.47218806
000030 1d 2e 1c 40 d6 a3 83 3f 65 ad 0e c0 b4 ea e5 3e
       2.4403145 1.0284374 -2.2293332 0.44905627

features.12.running_var f4 [16]
000000 81 2c 9a 40 38 45 86 40 2c 02 73 40 2f aa b5 40
       4.8179326 4.1959496 3.7970076 5.6770244
000010 48 b9 8d 40 d8 c0 58 40 65 84 49 40 ea 1f 96 40
       4.4288673 3.3867702 3.1487057 4.6913958
000020 54 3a 8d 40 58 da 91 40 c2 ee a0 40 8c 43 69 40
       4.41337 4.5579033 5.0291452 3.6447477
000030 83 9c 85 40 c7 03 9d 40 90 22 9a 40 53 74 7f 40
       4.1753554 4.906711 4.816719 3.9914749

features.15.weight f4 [32, 16, 3, 3]
000000 e0 cf 85 3d d4 fc 03 3e 43 d4 aa 3d 06 b8 94 be
       0.0653379 0.12889415 0.08341267 -0.2904665
000010 9d 89 0c bc fc 88 1b be 2a 0c bb 3d d8 f6 5c 3e
       -0.008577731 -0.15188974 0.091331795 0.21578538
000020 da 87 18 3e bf 16 ec 3d 39 20 88 3d 1b f4 dd 3d
       0.14895573 0.11527776 0.06646771 0.10837575
000030 c3 94 29 3d db c3 f7 3d 61 fc 91 3c a0 1a d0 bc
       0.041401636 0.12097903 0.017820539 -0.02540332
000040 2a ed 5e be f4 ae ff 3d 86 aa ad bd 79 76 a6 3b
       -0.21770158 0.124845415 -0.084797904 0.005080041
000050 4b d6 d7 3d c3 d0 c4 bb ca 47 e5 3d 26 8c 9f 3e
       0.1053892 -0.0060063316 0.11195333 0.31161612
000060 cd fe 18 3e 26 c7 d0 3e b5 84 34 3e 42 b7 ef bc
       0.14940949 0.40776938 0.17628749 -0.029262189
000070 f8 d9 ca bd d7 ac 8a be 03 e3 7d 3e 6c e7 73 3e
       -0.099048555 -0.2708499 0.2479363 0.23818749
000080 fe bf ff bd c7 55 6e 3e f7 11 74 3d 7a 30 69 3d
       -0.124877915 0.23274909 0.059587445 0.056930996
000090 82 53 c2 bd 50 1c d8 bd 95 df b5 bd 6f a2 65 be
       -0.09488584 -0.10552275 -0.088805355 -0.22425245
0000a0 bd d9 8f be 50 78 03 3d 2a 29 02 be ce 65 8b be
       -0.2809581 0.03209716 -0.12711015 -0.27226108
0000b0 24 72 88 3d c6 03 6c be 1c 1d c4 bd d1 fc 26 be
       0.066623956 -0.23048314 -0.09575865 -0.1630738
0000c0 10 32 11 3e c1 5c 84 3d 93 7b 88 be 3d 9b 5d 3d
       0.14179254 0.06463004 -0.2665678 0.054103125
0000d0 e8 31 66 3d 69 52 d5 be 7e b7 55 3e e2 6e 61 bd
       0.056199938 -0.41664436 0.20870778 -0.055037387
0000e0 c2 b9 40 bd e1 24 38 3f a6 5a 8b be 54 d8 3c be
       -0.047052152 0.7193127 -0.27217597 -0.18441898
0000f0 26 00 63 3e eb 59 76 be b3 5d b6 bd 65 4a c6 bd
       0.22168025 -0.24057738 -0.089045905 -0.096821584
000100 c7 55 42 be 7e 31 10 3e 1b 75 a2 bc c0 a9 fb 3c
       -0.18978034 0.1408138 -0.01983123 0.030720592
000110 62 38 89 3e 6e ed cf bd 4a 1d e3 bd 77 19 a6 3e
       0.2680083 -0.10152708 -0.11089571 0.32441303
000120 98 92 68 bd d7 d6 9a 3d 6d d4 8b be 5a 27 a2 be
       -0.056780428 0.07560509 -0.27310506 -0.31670648
000130 c1 0f e9 3d c6 d9 74 be a9 78 a2 be 7f 3b 52 be
       0.11379958 -0.23911199 -0.3173268 -0.20530508
000140 8d c4 eb bd b2 2f db 3c db e8 7f be 1a 7e 2c bf
       -0.115120985 0.026756141 -0.24991171 -0.67379916
000150 44 61 54 3e d0 41 58 bd 7c 1c da be 76 83 cc bd
       0.20740229 -0.05279714 -0.42599857 -0.09986012
000160 d2 38 e3 3c f4 73 65 be f7 a9 38 be 4f 55 a0 be
       0.027737055 -0.22407514 -0.18033586 -0.31315085
000170 38 46 2e be aa 0a d4 bd 83 76 af 3d ce b0 ee bd
       -0.17018974 -0.103535965 0.08567526 -0.116548166
000180 3e 7e 6e bd d4 d8 ac 3e 6e 6f 06 3e 00 85 6a 3d
       -0.058225863 0.33759177 0.13128445 0.057255745
000190 3b 22 9c bc f4 c0 4b 3d 64 39 16 bd f1 18 30 be
       -0.019059291 0.04974456 -0.036675826 -0.17197014
0001a0 0b 8e 9b be 44 6e b4 3d 6d 8a e7 3d 74 db 2e be
       -0.30381808 0.08810094 0.113056995 -0.17075902
0001b0 71 cb fa 3d f6 4a 35 3e 9c 90 59 bd e4 10 f7 bd
       0.122458346 0.17704377 -0.053116426 -0.120637685
0001c0 21 23 09 3e aa f1 54 3d 9e ec 2f bd ab 32 71 3e
       0.13392307 0.05198828 -0.042950265 0.23554485
0001d0 f5 33 3f 3e 0e 1c 96 bd 44 a0 3d bd 43 a3 5e 3e
       0.18672164 -0.0732957 -0.04629542 0.21741967
0001e0 7f 29 83 3d eb 2f fe bd a3 93 16 3d cf e0 e3 3d
       0.06404399 -0.124114834 0.03676189 0.11126863
0001f0 2f b3 e1 bd ee bf ef be 62 2d af 3e c9 fd c3 3c
       -0.11020505 -0.46826118 0.34214312 0.023924725
000200 02 6b b9 bd f2 da a3 3e 89 10 f5 3d 4a a9 db bd
       -0.09053613 0.3200298 0.119660445 -0.10725649
000210 db 1e 28 be b9 ac e1 bc 51 19 9c be af 5e c5 bd
       -0.1641802 -0.02754818 -0.30488065 -0.096372
000220 7b d9 08 be 18 a8 b6 3e 1b b9 34 3e 25 43 7b 3e
       -0.13364212 0.3567512 0.17648737 0.24537332
000230 10 21 c4 3e 26 d6 4b 3e eb b3 06 3e 2c 97 14 3e
       0.38306475 0.1990591 0.13154571 0.14510792
000240 76 20 1e be 70 c4 bb 3d e7 06 95 3c 90 30 97 bd
       -0.1544207 0.09168327 0.018191768 -0.073823094
000250 7d 7b 24 be c3 7d 94 be 34 d9 72 3d 08 ca 7b 3d
       -0.16062732 -0.290022 0.059289172 0.06147197
000260 41 df 2b 3e e1 af b1 3d ac de 9e 3e c6 07 91 3e
       0.16784383 0.08676124 0.3102926 0.28326243
000270 47 51 45 be 3d 3e 52 3e e1 d9 a7 3d 9c 14 98 3d
       -0.19269286 0.20531555 0.08195854 0.07425806
000280 e0 77 40 bc ab f3 89 3e a7 93 68 be e7 73 47 bd
       -0.01174733 0.26943716 -0.22712575 -0.048694517
000290 f0 7f 88 3d 5a 46 87 3d 78 74 05 3e 4c 84 c0 3d
       0.06665027 0.06605215 0.1303271 0.094002336
0002a0 67 25 f7 3d 53 53 38 3c a0 2b ad 3b f7 8b 3e bd
       0.12067681 0.011250335 0.0052847415 -0.0465202
0002b0 e9 dd 8b bd 2b a1 93 3e 89 a6 12 be 4f f6 ad be
       -0.068294354 0.288339 -0.1432134 -0.3397698
0002c0 73 ac 8d bd 27 23 11 bd 99 48 a3 be a8 38 53 bd
       -0.06917658 -0.035433915 -0.31891325 -0.051567703
0002d0 ba f8 43 be 47 b9 cb bd a9 a9 1f 3e 46 6f 9d 3d
       -0.1913785 -0.09947448 0.15592064 0.07687239
0002e0 bc 37 cb bd 99 7e 99 bd a4 7d 49 3d 3f e4 29 bd
       -0.0992274 -0.0749485 0.049192086 -0.041477438
0002f0 02 c8 af 3d aa eb 49 3e 7c ba 00 3e 27 73 98 bc
       0.0858307 0.19718805 0.12571138 -0.018609596
000300 6e 03 34 be dc 9d 56 be de 48 dc 3d 3c 37 a6 be
       -0.17579433 -0.20958656 0.10756086 -0.32464015
000310 89 f2 ca be 08 5b 2f bc 83 cb c6 be ce 08 9c 3d
       -0.39638165 -0.010702856 -0.38827142 0.07618867
000320 34 31 b1 3e a5 9a 06 be ba 08 a9 3d 02 1a a1 3d
       0.34607852 -0.1314493 0.082536176 0.07866289
000330 40 cd a2 be 55 61 67 be c9 77 bd bd fb 93 91 3e
       -0.31797218 -0.22595723 -0.09251363 0.28433213
000340 5a 05 7c 3e 4f e4 cc bc 89 e1 64 bd 10 89 e9 bd
       0.24611416 -0.02501121 -0.05587915 -0.11403096
000350 bd 8d 02 be 64 e6 09 3f db af d7 3e ab 8d a7 3e
       -0.12749381 0.53867173 0.42126355 0.32725272
000360 24 1f f2 3d 54 70 04 bd 89 79 97 bd 43 3a 0a 3d
       0.11822346 -0.032333687 -0.07396228 0.03374697
000370 b4 64 4c bc f9 aa 06 3d 46 5f a8 3c 43 ef b3 3d
       -0.012475181 0.032877896 0.020553242 0.0878587
000380 9f e4 30 bd e1 43 f4 3d f7 59 e5 bd 1c 01 d3 3d
       -0.04318678 0.119270094 -0.111988 0.10302946
000390 b9 83 07 be 8b 4f 47 3d 14 db 06 be 52 6d 37 3b
       -0.13233842 0.048659842 -0.13169509 0.0027988744
0003a0 1c c8 52 be 36 44 bf bd a1 80 31 be f8 79 5d bd
       -0.20584148 -0.09339182 -0.17334224 -0.054071397
0003b0 98 33 10 be e0 2b 8a 3c 35 dc 1f be 33 3a 85 3e
       -0.14082181 0.016866624 -0.15611346 0.26020965
0003c0 d7 c8 e5 be 58 2d 1f bf c1 cb 12 be 74 2b 84 3c
       -0.4487979 -0.62178564 -0.14335538 0.016134001
0003d0 a1 9b 31 bc 16 bc 1b 3e 89 0e fe bb 87 bd 4d 3e
       -0.0108403275 0.15208468 -0.0077531976 0.2009183
0003e0 6e 30 ab 3e 3a c9 a4 bd ee 85 89 bd 2d cd 35 be
       0.33435386 -0.080461934 -0.06714998 -0.1775405
0003f0 f8 6c 86 bd 80 ab 16 3e a6 22 5a 3d fd d8 d1 bd
       -0.06563753 0.1471386 0.0532557 -0.10246465

features.15.bias f4 [32]
000000 ab dc a9 3c 69 24 ce 3c 97 e8 88 ba 35 35 b8 bc
       0.020735105 0.025163846 -0.0010445294 -0.022486309
000010 6b a2 fa bc 2f f8 96 bc 2b f2 80 bd fc 8b 88 3c
       -0.030595025 -0.01842889 -0.0629619 0.016668312
000020 cb f5 4b 3d f3 f8 dc bc 22 08 e0 38 7c 3d 6f 3c
       0.049794953 -0.026974177 0.00010682667 0.014602061
000030 a9 d5 08 3d ee 1b 2b bd d8 9b 75 3c 91 e1 dd 3c
       0.033406887 -0.041774683 0.014990769 0.027085098
000040 05 f9 64 3c 30 19 53 3d 1a 8d 4d 3d e2 43 23 bc
       0.0139753865 0.051537693 0.050183393 -0.009964915
000050 11 4b 7a bb 85 53 07 bb f6 1b d8 3c 2b f6 fd 3c
       -0.0038191716 -0.0020649147 0.02638052 0.031001171
000060 97 4b 3f 3c 86 2f ac 3c e4 20 b0 3c db fc b9 3c
       0.011675737 0.021018755 0.021500058 0.022703579
000070 87 69 8f 3c 41 16 97 bd 96 a0 fa bb 69 a2 24 3c
       0.017506374 -0.073772915 -0.007648538 0.010048487

features.16.weight f4 [32]
000000 bf e8 95 3f 49 d8 94 3f bd d2 7d 3f 34 6f 87 3f
       1.1711653 1.1628505 0.99149686 1.0580812
000010 69 22 88 3f 34 c6 83 3f 95 b4 85 3f 8a 8a 6a 3f
       1.0635501 1.0294862 1.0445734 0.91617644
000020 73 68 80 3f 47 f8 68 3f 9a 2b 7d 3f b5 25 8d 3f
       1.0031875 0.9100384 0.98894656 1.1027132
000030 b7 b6 8d 3f 24 88 72 3f b4 71 65 3f 64 9d 87 3f
       1.1071385 0.94738984 0.8962662 1.0594907
000040 0d 90 80 3f d2 dc 8a 3f fc 8a 82 3f 9c c8 80 3f
       1.0043961 1.0848639 1.0198665 1.0061221
000050 70 cb 74 3f 40 e0 80 3f ce 68 79 3f 97 d7 87 3f
       0.9562292 1.0068436 0.97425544 1.0612668
000060 50 eb 8a 3f 8d 5c 87 3f 0e 5e 77 3f 9c 66 8d 3f
       1.0853062 1.0575119 0.9662789 1.1046939
000070 fc e4 77 3f d3 b3 7a 3f b8 7b 8a 3f 39 fe 83 3f
       0.9683378 0.9793064 1.0819006 1.0311958

features.16.bias f4 [32]
000000 ad 0c fa bd a5 0e 01 be 2e be 7f bd 59 8a 51 3d
       -0.12209449 -0.12603243 -0.06243723 0.05115733
000010 8a 81 f4 3d 65 7c e4 3d d3 b3 78 bd 0b c4 16 be
       0.1193877 0.11156539 -0.06071837 -0.14723222
000020 29 b9 4e be 37 bb 49 be bc cc 6e be b3 49 8b 3d
       -0.2018782 -0.19700323 -0.23320287 0.068011664
000030 be b5 35 be c9 93 f9 bd 27 f3 7e bd c8 59 95 3e
       -0.1774511 -0.12186391 -0.062243607 0.2917006
000040 dd f3 4a 3d f2 b3 0e bd 69 c8 0d bc 41 da 1a be
       0.049548972 -0.034839578 -0.008653739 -0.1512232
000050 1c f4 20 be 40 f4 46 be b1 51 ed 3d 5b 50 49 bd
       -0.1571812 -0.19429111 0.11587847 -0.0491489
000060 04 28 15 be d5 20 0b bd 2b 66 8f 3c 3c f7 67 bd
       -0.14566046 -0.033966858 0.017504772 -0.056632265
000070 33 35 9d 3b a5 82 84 be d5 4e 9f bd 13 b0 9b 3d
       0.0047976016 -0.25880924 -0.07778708 0.07601943

features.16.running_mean f4 [32]
000000 3f e1 b5 be c8 1f 5a bf fd b0 1c bf cb 07 10 c0
       -0.35523412 -0.85204744 -0.6120756 -2.2504756
000010 2c d1 3d 3f 7b 71 03 40 9b cc f8 bf 6d 7f 10 40
       0.74147296 2.0538013 -1.9437441 2.2577775
000020 84 1f 92 3f 60 0d 97 bf 0a 0d dd 3f 2e 7b 8a 40
       1.1415868 -1.1800957 1.7269604 4.3275366
000030 cf 41 f3 bf 3b c1 8f bf b4 23 bc c0 0b 49 94 bf
       -1.9004458 -1.1230844 -5.8793583 -1.1584791
000040 eb f2 ce bf 01 5b 57 be 33 1f af be 8f 83 36 bc
       -1.6167883 -0.21030809 -0.3420349 -0.011139764
000050 42 b4 1a bf 89 18 3f 3f 8b 29 d5 bf 43 25 a0 be
       -0.604313 0.7464681 -1.6653303 -0.31278428
000060 75 b3 c0 bf 94 1b 16 c0 06 d8 31 40 d5 cc 92 bd
       -1.5054766 -2.3454332 2.77881 -0.07167975
000070 d9 51 63 bf 78 ac 4f bf 67 a6 12 3f 3e 17 90 c0
       -0.88796765 -0.8112254 0.5728516 -4.502837

features.16.running_var f4 [32]
000000 72 fc 97 40 e5 2c 9d 40 16 a2 a4 40 6a 9c b2 40
       4.749566 4.9117303 5.144786 5.5815935
000010 91 91 90 40 e1 b1 8b 40 c2 2e bf 40 ce 5d 6f 40
       4.5177693 4.3654637 5.9744577 3.7401004
000020 23 cd b1 40 5d a7 2f 40 4a fe d4 40 9d 13 ca 40
       5.556291 2.74459 6.656041 6.314894
000030 f8 73 a8 40 82 13 92 40 ea 51 11 41 6b 4a 67 40
       5.2641563 4.5648813 9.082499 3.613917
000040 c5 7b a4 40 02 7b 91 40 dc 6c 65 40 e8 fd 66 40
       5.1401086 4.5462656 3.5847692 3.6092472
000050 d5 60 88 40 25 cf 6a 40 e1 6f 99 40 b4 52 7a 40
       4.2618203 3.668893 4.794907 3.9112978
000060 1c 68 93 40 88 74 7b 40 fc 91 77 40 b8 eb 8f 40
       4.6064587 3.9289875 3.8682852 4.4975243
000070 2f 7b 92 40 6b 44 9b 40 be 5f 97 40 58 f1 cc 40
       4.577537 4.852102 4.7304373 6.404461

features.18.weight f4 [32, 32, 3, 3]
000000 d4 b2 1a bd b6 f1 3b be 56 f6 02 be 8b 36 01 bf
       -0.0377682 -0.18353924 -0.12789282 -0.5047385
000010 01 05 6f 3c 7d 61 03 be a0 32 8c be 9f 3c 92 3c
       0.014588595 -0.12830158 -0.27382374 0.017851172
000020 6d ca 20 be 12 9e 28 3e 41 b5 2b 3e 9f 7f 27 bd
       -0.1570222 0.16466549 0.16768362 -0.040893193
000030 88 2e bd 3d a1 e9 c9 bd 20 b3 99 bb d4 62 83 be
       0.09237391 -0.09859014 -0.004690543 -0.25661337
000040 ab f7 59 be 14 55 b2 be 43 91 ab 3d 42 bc 3d 3e
       -0.21285884 -0.34830534 0.08377316 0.18528846
000050 2b 88 e4 3c fc e4 cb 3d e3 d1 7d 3e 88 3f a4 3e
       0.027896961 0.09955785 0.24787097 0.3207972
000060 d6 a9 0c be ac 68 3e be 8f 58 97 be 18 0c 70 3e
       -0.13736662 -0.18594617 -0.29559752 0.23442113
000070 8e 3c e9 bd 27 84 f1 3d 86 e1 62 3e 19 80 29 3e
       -0.11388503 0.11792784 0.22156343 0.16552772
000080 e2 07 68 bc 5e d2 0a 3e ee 6e ac 3d 02 8c 7a bd
       -0.014162036 0.13556811 0.08419596 -0.061168678
000090 cd 0c b0 3e c3 d9 3f be b2 4a ac bb 1f 35 97 bd
       0.34384766 -0.18735413 -0.005257928 -0.07383179
0000a0 b0 84 c0 3d 55 42 bd bd 2c 41 84 3e 6b 27 01 be
       0.09400308 -0.092411675 0.25830972 -0.12612693
0000b0 f2 d9 1a 3e 1e ac 78 3e 03 2d 73 3e dc 41 e1 bc
       0.15122202 0.24284407 0.2374764 -0.027497225
0000c0 3a 8e a3 3c 02 c1 fe 3d 29 21 8f bc 56 d6 be 3d
       0.01996528 0.12439157 -0.017471867 0.09318225
0000d0 de 64 30 be ff 80 c7 bd 9a 5f bd 3c e7 c4 08 3e
       -0.17225978 -0.09741401 0.023116875 0.13356362
0000e0 2c 72 76 3e c2 76 b8 3e 1a af 40 3e f1 56 e5 3d
       0.2406699 0.36028105 0.18816796 0.111982234
0000f0 3d 5d 94 3e d1 30 57 3d c4 75 1e 3e 44 9a 54 3e
       0.28977385 0.05253679 0.15474612 0.20761973
000100 6e c9 89 3e e9 5b 0c 3f e3 e9 32 be d6 4d 4a 3e
       0.2691149 0.54827744 -0.17472033 0.19756255
000110 78 3d f3 3d eb f0 0b be e6 b9 cf 3b 6d f2 19 3e
       0.118769586 -0.13666122 0.0063392995 0.15033884
000120 85 0a 86 3e 3d b4 b2 bd 96 4f 89 3e fb be 14 3e
       0.261799 -0.08725784 0.26818532 0.14525978
000130 0a e3 a8 3d 3a 76 59 3e 8f 47 8a bd 14 2e 1d 3e
       0.08246429 0.21236506 -0.0675193 0.15349609
000140 8a 6d 9b be 2b f1 51 bb 1a c1 b6 bd 85 ac 03 be
       -0.3035701 -0.0032034616 -0.0892355 -0.1285878
000150 56 dc 0b be 47 35 b4 3c b4 ff 1c 3e 23 42 14 bc
       -0.1365827 0.02199806 0.15331918 -0.009048971
000160 dd 47 ac be 46 c9 05 3e ef af ca bd 82 29 fd bd
       -0.33648577 0.13065061 -0.09896838 -0.123614326
000170 de f2 f0 3d eb 2b 09 bc 37 e6 47 be b8 8b f0 3d
       0.11765073 -0.008372287 -0.19521414 0.11745399
000180 2b eb 11 3e a7 30 99 bc 1a 73 78 bd d7 ef 2e bc
       0.14249866 -0.018699957 -0.060656644 -0.010677299
000190 ba 95 28 bd a2 26 28 be ba 26 87 3e 8e 87 7a 3e
       -0.041158415 -0.16420987 0.26396734 0.24465773
0001a0 3e 4c f8 3e fb d1 27 be 6d 10 61 3e 41 ce 89 3e
       0.48495668 -0.16388695 0.21978922 0.26915172
0001b0 0f 1f f9 bd 6a 2c 81 3e 6a 17 7a 3e ec 02 c9 3e
       -0.12164127 0.25229198 0.24422994 0.39260042
0001c0 02 dd e5 3d fa 9f 8f bc 9e 0a 9a bc a7 0c 64 3d
       0.112237945 -0.017532337 -0.01880389 0.05567613
0001d0 36 57 02 be 7a ad 0b 3f 17 d5 3e 3e 74 d4 30 bd
       -0.12728581 0.5456158 0.18635975 -0.04317136
0001e0 19 dc 01 3a 92 47 b4 bd f6 db 61 bd fb 36 fb bb
       0.00049537566 -0.088027135 -0.05514141 -0.0076664663
0001f0 e7 6d fe bc b0 01 c3 3d 7d da bb 3e 2b 81 0b 3e
       -0.031058265 0.09521806 0.3669013 0.13623492
000200 b0 ab 1e be e1 2a 9a 3e 70 2b c3 3e e7 2d d4 bc
       -0.15495181 0.3011084 0.38119078 -0.025900794
000210 9e 45 5c 3e 33 94 64 3e a3 43 1d 3d 7f 0a c4 3d
       0.21510932 0.22322159 0.03839458 0.095723145
000220 6c 2e de 3d 29 db c9 3d d7 8b 7b 3e 43 42 45 3c
       0.10848698 0.098562546 0.24565063 0.012039724
000230 61 0b bf 3e 69 58 61 3e f8 7a 72 3e 6f 14 76 3d
       0.3731337 0.22006382 0.23679721 0.06007808
000240 3d 36 fa 3c 40 9e 1a be 5c 93 ff bd 54 42 6f 3e
       0.030543441 -0.1509943 -0.124792784 0.23365146
000250 5e e9 cb bc ff f5 72 3d 10 c6 84 be dd 87 1b bd
       -0.024891552 0.05931663 -0.2593236 -0.037971366
000260 e1 09 5b 3d 77 fe c1 bd 60 71 9f 3c 84 33 33 3e
       0.053476218 -0.094723634 0.019463241 0.1750012
000270 a6 06 95 be b4 22 dd be 20 7d ed bc 14 a6 50 be
       -0.29106635 -0.4319054 -0.028990328 -0.20375854
000280 e2 09 50 3e ad 82 ee bd f4 0f 65 bd c9 ea 17 bc
       0.2031627 -0.11646018 -0.055923417 -0.009272286
000290 2d 2f ba be fa d2 a4 3d 9a 88 e0 bd 81 b2 fe be
       -0.36364117 0.08048053 -0.10963555 -0.49745563
0002a0 fd 16 12 be 1e e4 dd bc 7d 43 a0 be cf e4 cb 3e
       -0.14266582 -0.027086314 -0.3130149 0.39823005
0002b0 a9 05 b3 bd ca 36 12 be 0e a4 cf bc 86 95 10 be
       -0.08741314 -0.14278713 -0.025346782 -0.14119539
0002c0 eb c1 71 be 46 84 2a be 34 81 10 be 1a 88 d3 bd
       -0.2360913 -0.16652021 -0.14111787 -0.10328694
0002d0 a8 de 3f bd 2a 58 36 bd 66 b6 de 3d 7b ff 43 3d
       -0.0468432 -0.044517674 0.108746335 0.047851067
0002e0 3f 10 c4 3c 9e 48 47 be 84 5f a9 bd ba 86 64 3c
       0.023933528 -0.19461295 -0.08270171 0.013948137
0002f0 73 b4 85 be b8 7e 9d 3c 04 5f 9b be 07 08 82 be
       -0.26114234 0.019225463 -0.3034593 -0.2539675
000300 44 f6 5a 3d b6 a5 03 bf c5 34 00 be db e7 23 3e
       0.053457513 -0.5142473 -0.1252013 0.16006415
000310 80 c5 69 be 7c c6 b6 bd 0c 3e 0b be 61 9b 88 3c
       -0.22829247 -0.08924577 -0.13597888 0.016675653
000320 1b a9 e1 be 50 fb 80 3d a2 09 39 3e 9e 49 dc bd
       -0.4407433 0.06297934 0.18070081 -0.10756229
000330 98 aa a9 3d 66 c7 e4 bd c0 6a 91 3c db 02 04 3d
       0.08284491 -0.11170845 0.017751098 0.032229286
000340 d9 9f 20 bd 70 55 1e 3e 23 f4 b2 3e bd 55 91 3d
       -0.039214943 0.1546228 0.34951887 0.070964314
000350 dd 6c c2 3c e9 cc 04 3e 5b 4f a6 be 22 42 b9 3c
       0.02373355 0.12968792 -0.32482418 0.022614542
000360 3f b2 8a be 55 87 6e be af 45 9a be 5d cd f3 bd
       -0.27089116 -0.23293813 -0.3013129 -0.11904404
000370 a9 30 c2 3d 7f 2b 90 be 3f 45 99 be fb 68 5f 3d
       0.094819374 -0.28158185 -0.29935643 0.054543477
000380 31 d7 94 be 32 f2 b4 3d 59 55 3c bd 6c cf e6 bd
       -0.29070428 0.088352576 -0.04597983 -0.11270031
000390 55 81 ab be d3 29 48 3e d0 dd 6d 3e b0 7d 72 be
       -0.3349711 0.19547205 0.23229146 -0.23680758
0003a0 e1 20 8e 3d 2b 29 fa bc e8 a1 95 3e f4 b7 8f 3e
       0.06939865 -0.030537209 0.29225087 0.28070033
0003b0 75 91 a4 3e 79 c3 3e 3e d0 45 f4 3d 28 34 df 3d
       0.32142225 0.18629254 0.11927378 0.1089862
0003c0 ea 82 8b 3e ea 4d 0a bd de fe 4e bd e9 ea 9f bd
       0.27248317 -0.03376571 -0.05053603 -0.078084774
0003d0 6c 61 a0 bd de 76 3b be f0 18 cc bd a5 1b 2f 3c
       -0.07831082 -0.18307063 -0.09965694 0.010687743
0003e0 a7 8f d4 3c 9e c8 c3 3b 5e 96 97 3e a7 2d 76 3e
       0.025947405 0.005974843 0.2960691 0.24040852
0003f0 d0 fa 07 3e fc 2d 3a 3e 11 e5 c6 bd 0d 44 d5 3d
       0.13279271 0.18181604 -0.0971166 0.1041337

features.18.bias f4 [32]
000000 50 23 88 bc 5f b4 ea 3c 82 03 61 bd 22 2c b4 3c
       -0.0166184 0.02865046 -0.054934986 0.0219937
000010 d2 f8 e8 3c 62 ec 29 3c 68 aa c5 bb 14 c7 40 ba
       0.02843896 0.010371299 -0.006032277 -0.00073538837
000020 b9 bc f2 bc aa b4 1d bc eb 85 d4 3c 82 ad 00 3d
       -0.029631006 -0.009625593 0.025942763 0.03141547
000030 f9 a9 fa 3c 27 96 a5 3b 12 64 6a bd 17 71 0f bd
       0.030598627 0.0050533 -0.05722434 -0.03501996
000040 7a f0 7e 3c 46 44 5d bb 79 d4 f3 3c 7c eb 71 bc
       0.015560264 -0.0033762618 0.0297644 -0.0147656165
000050 da 5a 70 3c 4f 7e eb 3c 20 b0 0d 3c 63 6f 79 bd
       0.014670098 0.028746752 0.0086479485 -0.060897242
000060 6b 79 5b 3c de 85 10 3d 1a 27 21 bd 7e 7d ad bc
       0.0133956475 0.035283916 -0.03934393 -0.021178003
000070 6f cb e3 3c f4 fc d0 3c f9 84 ff 3c e6 0d f1 ba
       0.027806966 0.025511242 0.031191336 -0.0018390983

features.19.weight f4 [32]
000000 f2 a6 5c 3f 5c fe 77 3f 45 c9 94 3f 58 59 74 3f
       0.8619224 0.96872497 1.1623923 0.9544883
000010 3a c7 68 3f bd 56 92 3f e5 cf 7a 3f 0b 25 73 3f
       0.90928996 1.143272 0.9797347 0.949784
000020 67 cc 8d 3f 72 de 49 3f 9e 38 62 3f 4d 43 87 3f
       1.1078004 0.7885505 0.8836764 1.0567414
000030 d9 84 70 3f 04 cb 5c 3f c9 52 96 3f 63 45 75 3f
       0.9395271 0.8624728 1.1744014 0.95809
000040 20 fc 92 3f 2d 3e 89 3f 54 de 74 3f 54 33 92 3f
       1.1483192 1.07221 0.95651746 1.1421914
000050 da 98 81 3f ce ab 7c 3f 2e b2 82 3f e5 24 95 3f
       1.0124772 0.98699653 1.0210626 1.1651884
000060 bc e0 6d 3f 5f 80 86 3f cb 7e 76 3f 40 7f 7b 3f
       0.9292104 1.0507926 0.9628722 0.98241043
000070 25 f8 64 3f 10 14 8c 3f 0b b1 74 3f 58 1b 96 3f
       0.8944114 1.0943623 0.95582646 1.1727095
