logs/VGG11_XXXS/Cifar10/VGG11_XXXS_bs32_e20_id1.model (torch_old, 163489 bytes, 60 tensors)

features.0.weight f4 [4, 3, 3, 3]
00000000: 3fff d83e c367 ce3e 9857 d73e a539 ef3c
00000010: 3c65 69be 1447 0ebe 986a b2bc 0200 e0be
00000020: 7927 02bd 6438 4bbd 0dc5 27bf 3242 96bd
00000030: adb1 94bd 5fd4 29be cb0e 3e3e 5985 05bf
00000040: bbfd 8f3e 07c8 dd3d 9941 a3be 31c4 40bc
00000050: a3fb b83d 0691 a9be 25ff 473e b22d a93d
00000060: 346a a7bd 99f2 403e 4bf3 d43e 3c3c 903e
00000070: 7e53 7d3d 2bb5 9fbe 7b94 f1bd 7f75 28bf
00000080: 0a21 0fbf 7710 71bd 3d48 853c 9e74 a5be
00000090: 993b a13d b0ce 123e 67d5 123f bd55 6fbe
000000a0: 9fd1 0bbd 9fda 79be 5ee2 a9be d99c 98be
000000b0: 3ac4 9a3e 069e a63c 4a11 b33e 3f94 033f
000000c0: 2a0f ae3e 4fcb 923e 2f96 063e 75e9 8ebd
000000d0: 6e30 0a3f f749 8bbd ff80 1bbd fc88 013e
000000e0: 10e8 6abe 97ae e6be 342c 4c3d f8f0 033f
000000f0: 8d99 aa3e 7859 63be 9c3d 93bd 8300 fe3c
00000100: 7088 e73d f29f 083e fb08 85be 9c46 fe3c
00000110: a919 6f3e 28cb b63e 9bf1 92be da22 e8be
00000120: 6b98 b3be 806a c03e dd03 57bd aeb7 90be
00000130: 8661 b8bd 5f7f 063e abda 0b3f 8e46 3abe
00000140: b310 63bd d8da a9be 1ea2 b4be ac1c 42bd
00000150: 5aa3 e43e c517 2c3c 0a50 08be 34c9 76bc
00000160: 718a 533f 9848 da3e d30c 213e 4342 d1bd
00000170: b605 c4bd 0e3e 0d3d f0fd 30be 561c 3cbf
00000180: 6389 db3e e485 0c3e b776 26bf 60d0 483e
00000190: e4b7 113e 425d 09be 4ee2 353f 74a6 dc3e
000001a0: 5317 993e df0a 053e 0ef8 dfbe 5d5d c9bd
0.42382237 0.4031354 0.42059016 0.029202292 -0.22792524 -0.13894302 -0.021779343 -0.43750006
-0.031775925 -0.049614325 -0.6553505 -0.073368445 -0.072604515 -0.1658492 0.1856033 -0.521566
0.28123268 0.10829168 -0.31885985 -0.011765526 0.09032371 -0.33118457 0.19530924 0.08260669
-0.081745535 0.18842544 0.41591868 0.28170955 0.061847202 -0.31192908 -0.117958985 -0.65804285
-0.5590979 -0.058853593 0.016269797 -0.32315534 0.078726955 0.14336658 0.57356876 -0.2337255
-0.034135457 -0.24399804 -0.33180517 -0.29807165 0.30227834 0.020339023 0.34974128 0.5139808
0.33995944 0.28670737 0.13143228 -0.06978122 0.5398015 -0.06801217 -0.037964817 0.12649912
-0.22940087 -0.45055076 0.049846843 0.51539564 0.33320275 -0.22202098 -0.071894854 0.031006103
0.1130532 0.13342264 -0.25983414 0.031039529 0.23349632 0.3570187 -0.28699955 -0.4533909
-0.35077223 0.37581253 -0.05249392 -0.28265136 -0.09002976 0.13134526 0.54630536 -0.18190977
-0.055435847 -0.33174777 -0.35279936 -0.047390625 0.44655877 0.010503714 -0.13311782 -0.015062619
0.8263312 0.4263351 0.15727548 -0.102177165 -0.09571402 0.034483008 -0.1728437 -0.7348074
0.42878255 0.1372295 -0.65024894 0.19610739 0.14230305 -0.13414481 0.7104844 0.43095744
0.29900607 0.12992428 -0.43743938 -0.09832261

features.0.bias f4 [4]
00000000: 91cf 293d c81d 60be 58b0 d6bd e64e 32bd
0.041457716 -0.2188636 -0.10482854 -0.043532275

features.1.weight f4 [4]
00000000: cfaf 703f a54d 633f a513 563f f7a3 863f
0.9401826 0.8879035 0.83623725 1.0518788

features.1.bias f4 [4]
00000000: 90ba 2b3f a52d 7f3e 27bd 753d 6e1e 763f
0.67081547 0.24919756 0.059994843 0.9614018

features.1.running_mean f4 [4]
00000000: dcfb 1e3e 2a50 2abe cf3d a5bd d889 a1be
0.15525764 -0.16632143 -0.0806843 -0.3155048

features.1.running_var f4 [4]
00000000: 7898 9e3f ad78 4f40 83f0 ae3e 3118 8940
1.239028 3.2417405 0.3416787 4.284203

features.4.weight f4 [8, 4, 3, 3]
00000000: d3d0 cfbd 5b0a c5bd 01fa c23e 4221 8c3d
00000010: 7864 cabe f57e 243f 9c96 8bbd 65d1 78be
00000020: 6b32 c63e 76bb 863d 011a b43b 4740 1cbd
00000030: 6d21 5f3e 28dd d2be 8ce4 253e bf53 6a3e
00000040: d261 c9be bf55 c73d b51c 77be b6d3 1e3e
00000050: 8f56 4abe b0b7 babd 5b9d 8cbd 069e c5bd
00000060: 96a8 0d3e 64e5 5dbe 3cbc 3b3e 840d 743e
00000070: 60d6 cc3c 1fef f9bd 7f3c d73d 6380 c43e
00000080: 19ad debe 76a1 8a3d a805 b03e 5f44 e3be
00000090: 19d6 08be 0ac6 efbd 0697 d83d b99e 883e
000000a0: 6174 7dbd f3c3 9f3e 20e1 8fbd e184 82be
000000b0: 4fac b4be 0186 c0bd 4d74 e0bd f528 38be
000000c0: 627a da3e e954 753e 6a2d fa3e 805e 4cbe
000000d0: ffb0 1dbe d285 e6be 69bd 7fbe 8e72 863e
000000e0: 0212 49bc 938f 9bbd 915d 363e b436 e7be
000000f0: 689f e2bd 8cf4 693e a257 acbe ea2d b8bc
00000100: 1838 883e e560 0b3e f2fb febd b224 11bf
00000110: c0a1 13bf 309e 223d e34f 8b3d 5644 c13e
00000120: 87d6 6fbe 8223 e53e 445c bd3e a1a0 0e3f
00000130: 3235 103e 1702 8ebe d75b aabd 2073 bfbe
00000140: feb1 c1bd 165f 073e 80b6 91bd 078a 87be
00000150: 078d aabe 63c8 a9bc 7d3c b7bd bdda d23d
00000160: 645e 713e 06c6 813e 8fa0 98bd 2e10 36be
00000170: 4590 243d a519 c2bc 5c2d ee3d b1af 9dbb
00000180: f374 31bd f261 95bd 7723 03be 73ad 4cbd
00000190: c1fd d5be ce7e 3fbd 0973 bfbe 3bb4 303e
000001a0: 546d 9e3e 48e8 5a3e c25e 6a3e 536d b93d
000001b0: 6b84 843e 81e5 99bd 0537 16bd c3b2 933c
000001c0: 94c4 fe3d 2c2c 333e e71b a0bd 6871 d53d
000001d0: bd5d 393e d45c 763e 1e9f 053e bee6 a5be
000001e0: c45e 133e a817 1ebe 0a14 c73d 7966 283d
000001f0: 3dfb dfbd 0d54 bdbc d81a ce3e 8182 2abe
00000200: dd61 1dbf ac7d b33e 25cd 203f ce99 3dbe
00000210: 3d53 f6bd c8e8 9d3e 531b 073e 5111 d0bc
00000220: ebe5 79be 90f6 dbbd 7d46 6dbe e9fa edbe
00000230: 5186 18b9 60ce d4bc 1ba0 d9bd bcfd 3dbe
00000240: c47a e93e 406e 953e 9be1 a93e 9bf8 e73d
00000250: 354c 4abd 2a50 0f3e 130e 4ebc 7166 29bd
00000260: 86e9 2e3d 2b05 743e d1b6 c53e 3103 f43d
00000270: 7c29 abbe 15a9 58be 8868 05be b528 a7bd
00000280: 70be 02bd fb8c 5cbc 299d 133e ac75 653e
00000290: 6141 fb3e 04dd d6be 3b11 fabe 0232 8cbc
000002a0: ec42 76be ce6e f4bd a61e b1bd 3f50 bfbd
000002b0: 4aeb 993e a070 e8bd fa0a 30be 9b90 0a3e
000002c0: 804e 9cbc 9a7f 893d 3631 653d 1127 d5bd
000002d0: 14b7 f3be 1ab6 983d 2478 fc3d d3db 663d
000002e0: e112 b2be e614 ec3d 59f3 0f3e 3ffe 8bbc
000002f0: 1154 92be b10d 433d fa9e 963d 610f 013d
00000300: 34fe b33e f61f 45be cbe4 e7bd 5f69 aebb
00000310: 44b9 1bbe a33b 76bb 9430 713e bcf7 023e
00000320: 9a2b 393e 3f32 343e 3d26 113f fcaa bf3d
00000330: 9176 2f3f 8940 5b3e 18b6 fb3d 2efb 603e
00000340: d075 bf3c 9bc8 02be 419e 883e 6e7e 0abd
00000350: 9c2f 1abe 8240 7cbe 5131 033e b48d aa3e
00000360: 7673 b9be a250 bbbd 3086 453e e3d1 fd3e
00000370: 4d92 de3e c159 0e3e 1e91 853e 08ad 05be
00000380: aa32 41bd a331 243f 7de9 123f 9396 0d3d
00000390: 87f5 e83e 579e 843e 340e 88be 6822 d23e
000003a0: 62b5 393e d27a d9bb f53b 5e3e 9a9c 043d
000003b0: d86f 08be ffff 5e3d f053 8fbd 2d72 0dbe
000003c0: a989 8bbd 4fae 42be 01cf 85be 798e 3b3e
000003d0: b36d fcbc 78a1 44be c7e1 03bd 6656 21be
000003e0: 73cf e43d 5458 8f3d a203 41bd 2c62 78be
000003f0: 8aea 343e 55ad 7bbd 09fd 383e 2085 71be
-0.10147252 -0.09621116 0.38081363 0.06842281 -0.39529777 0.6425622 -0.06815836 -0.24298628
0.3871034 0.06578724 0.005496264 -0.038147237 0.21790095 -0.41184354 0.16200465 0.22883509
-0.39332443 0.09733152 -0.24132045 0.15510449 -0.19759582 -0.09117067 -0.06865951 -0.09649281
0.13833842 -0.21669537 0.18333524 0.23833281 0.025004566 -0.12203812 0.105095856 0.383792
-0.43491438 0.067690775 0.34379315 -0.443881 -0.13362922 -0.11707695 0.105756804 0.26683596
-0.061878566 0.31204185 -0.07025361 -0.25492004 -0.3528771 -0.09400559 -0.109596826 -0.17984374
0.42671496 0.23958172 0.48862773 -0.19957924 -0.1539955 -0.45023972 -0.24974598 0.26259273
-0.01227236 -0.07595744 0.1780913 -0.45158923 -0.110655606 0.22847193 -0.3366061 -0.022482831
0.26605296 0.13611181 -0.124503985 -0.5669662 -0.57668686 0.03970164 0.068023466 0.3774745
-0.2342168 0.44753653 0.36984456 0.5571385 0.14082792 -0.2773597 -0.08318298 -0.3739252
-0.094577774 0.13219866 -0.07114887 -0.26472494 -0.3331072 -0.020725435 -0.08947084 0.10295627
0.23571163 0.25346392 -0.07452499 -0.1777961 0.04017665 -0.023693869 0.11629745 -0.004812204
-0.043324422 -0.07294072 -0.12806498 -0.0499701 -0.4179516 -0.04675179 -0.37392452 0.17256252
0.30942786 0.21377671 0.2288771 0.09054055 0.25882277 -0.075144775 -0.036673564 0.018029576
0.12439838 0.17497319 -0.07817822 0.10422021 0.18102165 0.24058849 0.1304898 -0.32402605
0.14391619 -0.15438712 0.09720619 0.04111335 -0.10936592 -0.023111368 0.40254855 -0.16651346
-0.6147745 0.35056818 0.62813026 -0.18515703 -0.12027595 0.3084166 0.13194017 -0.025398882
-0.24404113 -0.107403874 -0.2317142 -0.46480492 -0.00014545886 -0.025977314 -0.10626241 -0.18553823
0.45601475 0.29185677 0.33179936 0.113267146 -0.049389083 0.13995424 -0.012576598 -0.04135746
0.042703174 0.23830096 0.3861604 0.11914671 -0.33430088 -0.2115825 -0.13028157 -0.08162061
-0.031919897 -0.013461347 0.1441542 0.2240817 0.49073318 -0.41965497 -0.4884127 -0.01711369
-0.24048966 -0.11935197 -0.08648424 -0.093414776 0.30062324 -0.113496065 -0.17191687 0.13531725
-0.0190804 0.06713791 0.055955134 -0.10407842 -0.47600615 0.07456608 0.123276025 0.056361984
-0.34780028 0.115274236 0.14057674 -0.017089007 -0.28579763 0.04762048 0.07354541 0.031508807
0.3515488 -0.19250473 -0.11322936 -0.00532262 -0.15207392 -0.0037572167 0.23553687 0.12789816
0.18083039 0.17597292 0.5669897 0.093587846 0.6854029 0.21411337 0.12290591 0.21970817
0.023371607 -0.12771837 0.26683238 -0.03381198 -0.15057224 -0.24633983 0.12811781 0.33311236
-0.36220902 -0.09146239 0.1928947 0.49574193 0.43470994 0.13901426 0.26087278 -0.13054287
-0.047167458 0.6413824 0.57387525 0.034567427 0.45499822 0.25902054 -0.26573336 0.41041875
0.18135598 -0.006636956 0.2170256 0.03237591 -0.13323915 0.054443356 -0.06998432 -0.13813086
-0.06813366 -0.19011806 -0.26134494 0.18316068 -0.030814027 -0.1920222 -0.03219774 -0.15755615
0.1117238 0.06999269 -0.047122605 -0.242562 0.17667595 -0.0614446 0.18065275 -0.2358594

features.4.bias f4 [8]
00000000: 96ea c93c 813d d2bd e110 aabd bf93 4cbd
00000010: b526 d43d 6137 3ebe 7876 e3bc f2ae cf3a
0.024647992 -0.10265637 -0.08304001 -0.04994559 0.10358945 -0.18575813 -0.027766451 0.0015844984

features.5.weight f4 [8]
00000000: c5ec 953f da2a 723f e3a3 763f f9a3 473f
00000010: d2c4 6f3f 14f4 553f df25 683f 6328 7b3f
1.1712881 0.94596636 0.9634382 0.7798458 0.936597 0.8357556 0.90682787 0.981085

features.5.bias f4 [8]
00000000: 6d61 f6bd 5e63 f1bd ee54 773d 78e4 003f
00000010: 9163 b6bd 03fb 703f c97e 5e3f d7c0 243f
-0.12030301 -0.11786531 0.06038373 0.50348616 -0.089057095 0.94133013 0.8691221 0.6435675

features.5.running_mean f4 [8]
00000000: 7fa1 eb3e c72f 99bf a6e0 893e 17c9 2cbf
00000010: 98cc 883f 3b1e 9e3f ddaa bc3f 7fcf 04bd
0.4602165 -1.1967705 0.26929206 -0.6749434 1.0687437 1.2352976 1.4739643 -0.032424446

features.5.running_var f4 [8]
00000000: ba9d 4040 ae62 ca3f b812 703f 5a06 2040
00000010: f87d f43f 439c 973f b32a 0440 96b3 0b40
3.0096269 1.5811365 0.9377856 2.5003877 1.9100943 1.1844562 2.0651062 2.182836

features.8.weight f4 [16, 8, 3, 3]
00000000: 00b6 16be d0e7 e43d d106 bc3d 6b96 a43c
00000010: e5af 0fbc 655b 1cbe 9de3 123d 75e9 99bd
00000020: ae7e 1f3e 4981 3abd b60e 48bd 0abf 2bbe
00000030: f965 ff3d a0e2 92be 2b43 5bbe 6a28 ef3d
00000040: bf1b 29bd f3e9 af3c 6452 2f3e 9a8d 2fbe
00000050: 09c4 f83d eb95 51be c38c 073e 4828 e63d
00000060: 874a 283e d7ec 783e 4038 11be e26b 163e
00000070: 9534 283e 7874 9d3c daeb f53d 2751 a73e
00000080: 78ea 01be 5d6b 403e 57e9 163c 80d3 823a
00000090: 9db5 abbe 7dff a0be 97bd ddbd bbec a3bd
000000a0: 2750 45be cc56 c8be 76a1 20bf 7ec1 8abe
000000b0: c7c6 02bf 0f49 753e dca5 9cbc f1d7 263e
000000c0: f7f0 1d3e 2c26 19bd f49e f13d 0f78 e93d
000000d0: c522 4cbe 1639 723d 9efa e8bc a9b1 403e
000000e0: 974b 2a3e 7108 b1be 00fd 243d 0000 8f3e
000000f0: 5560 41bf 7f9e 85be 5bb7 173e 1688 303d
00000100: d8a9 30be 800a 7bbe 5b25 97be 013d f5bd
00000110: 92a1 523e 9c69 1ebe b1f6 69be 6c22 71bc
00000120: 5cc0 4dbd 25f3 643d cf02 74bd 817b 92bd
00000130: a68b 5e3d 3b48 a9bd b9c4 edbd 5f73 32be
00000140: 77c0 c1be 03fa 40be 293b 86be cbab e9bd
00000150: 2998 403e 68ec aa3e 42fc 0abe 9204 4dbe
00000160: 3a06 98bd 0742 373d 6c35 543e a344 583e
00000170: 672e c0bd 1e09 bdbd 7a57 fe3d e9a0 0f3f
00000180: 0bec 8ebd a115 d53d 83b6 033e 1c1f 06be
00000190: 804a 2fbe 04b1 2b3c 8854 c63e ac44 e03e
000001a0: 8454 3abe bc4d 223e a99d a93e eed3 693d
000001b0: 07e0 e4be e597 88bd f256 4ebe 9df7 823e
000001c0: 4f05 313e 2360 dfbd 586c 2a3d caf8 133e
000001d0: e2d5 af3d 033b 483e be0b 87bd b991 523d
000001e0: 4567 16be 356c 4d3e 5b21 563d 5bf2 56bd
000001f0: 7da2 d9be 758d a73d 288d dc3d 0d18 2f3e
00000200: 7be5 193e d672 333e 05f0 f83e 9e7b cebd
00000210: 5c77 39be abbb 13be b103 44be 3fc9 40be
00000220: d58a e8bd 1970 57be 6129 a9bd f635 d5be
00000230: 4386 31be 07af dd3e e902 6cbe 66c9 6cbe
00000240: 1230 b9be 64cc 96be d87f 12be c279 3bbf
00000250: 4f2e 4cbf 7782 7fbe 0487 28be 45ff 0dbe
00000260: c841 d1be 58b2 163e b563 a53d f254 82be
00000270: 717e 25be b816 783e 7ca5 56be 3005 25be
00000280: 840a f33c 55d8 96be 6685 03bd a96a 3b3e
00000290: 031e 413e 0c74 66be 0698 b73d 14b8 803e
000002a0: 103d 4bbe aba2 70be 02ef bfbd 9255 cf3d
000002b0: 3f5f a33e dbad 043e 3069 8e3d 1b99 f73c
000002c0: 6d28 08be 6e5f d0bd 9ca6 9a3e 09dc 89be
000002d0: 539a 71bd a38f 843d eaf2 7b3d 49ad c9be
000002e0: f821 2abe d9d5 28be af6b b2b9 fae1 7dbe
000002f0: 55c5 c4be 8fb7 febc 7f6a 893a 2e1e e53d
00000300: df93 8e3d 84fa 273e 635b 7e3e 2d1d 033e
00000310: 578d 9a3d ba30 853e 83f4 b13d 9b01 293e
00000320: ac2b 90be f8a9 a63d 4f8e c73d f9e2 a93d
00000330: bf05 993d a44e 95bd 884c 273e 69c3 84bd
00000340: 571e c0bd 885f c3be 6b37 993e b322 1f3e
00000350: 2d00 833c efce 383e 92f2 e5bc 7a50 14be
00000360: af99 e8bd 02c5 313d 3e09 b63d b86c 52bd
00000370: 60bd d4bd 1b76 953c 4509 85bb e456 bd3d
00000380: 5bcf 533c ac4e 553d 9de0 8abd 8c8b 97be
00000390: ab01 f73c 2002 f83d 4595 883e ece9 073e
000003a0: def6 2e3e 2eea c43c 70da 87be b4f6 ddbd
000003b0: b07c 29bd d559 1b3e a379 1cbe 1042 c83d
000003c0: 667d 073e 3dd9 893e 8bbf 7a3e ab88 163e
000003d0: 4d18 c03d 81dc 2b3c 0bf6 6bbe b2f9 f4bd
000003e0: ee42 23be 4cf0 f3be 04f7 30be f23c 9bbe
000003f0: 7c0d 333e 926e 853e d655 0abd 4760 e9bd
-0.14717865 0.11177027 0.091809876 0.020091256 -0.008769964 -0.15269239 0.0358616 -0.075152315
0.15575668 -0.045533452 -0.048842154 -0.16772094 0.124706216 -0.28688526 -0.21412341 0.1167763
-0.041286226 0.02147386 0.17121273 -0.1714386 0.12146766 -0.20467345 0.1323729 0.11238152
0.1643468 0.24309097 -0.14181614 0.14689592 0.16426308 0.019220576 0.12007876 0.32679102
-0.12687099 0.18790956 0.009210906 0.0009981245 -0.33536997 -0.31444922 -0.10827177 -0.08004137
-0.19268857 -0.3912872 -0.6274637 -0.27100748 -0.5108456 0.23953651 -0.019122057 0.16293313
0.15423952 -0.03738992 0.11797896 0.113998525 -0.19935139 0.059136473 -0.028439816 0.18817772
0.16630398 -0.34576753 0.040280342 0.27929688 -0.75537616 -0.26097485 0.14816038 0.04309853
-0.1725229 -0.24515724 -0.29520687 -0.11974526 0.20569447 -0.15469974 -0.22848012 -0.0147176795
-0.050232276 0.055895943 -0.05957299 -0.07152463 0.054332398 -0.0826573 -0.116097875 -0.17426823
-0.37842152 -0.18845372 -0.2621701 -0.1140972 0.18808044 0.3338349 -0.13572791 -0.20021275
-0.074230626 0.044740703 0.20723504 0.21119933 -0.093838505 -0.092302546 0.124190286 0.56104904
-0.069786154 0.10404516 0.12862591 -0.13097805 -0.17118263 0.0104792155 0.38736367 0.43802392
-0.18196303 0.15849966 0.33128098 0.057086878 -0.4470217 -0.066695966 -0.20150355 0.2557954
0.17287181 -0.109070085 0.04160723 0.14450374 0.08585717 0.19553761 -0.065940365 0.051408503
-0.14687832 0.20060809 0.052277904 -0.052477222 -0.4250678 0.08181278 0.10769111 0.17099018
0.15028946 0.17524275 0.4862062 -0.10082172 -0.18111938 -0.14427058 -0.19142033 -0.1882677
-0.11354605 -0.21038856 -0.082598455 -0.4164273 -0.17336373 0.43297598 -0.23047985 -0.23123702
-0.36169487 -0.29452813 -0.14306581 -0.7323266 -0.7975816 -0.24952112 -0.16457754 -0.13866909
-0.408705 0.1471647 0.08075658 -0.25455433 -0.16161515 0.24227417 -0.20961565 -0.1611526
0.0296681 -0.29461923 -0.03210964 0.18302406 0.18859105 -0.22505206 0.08964543 0.2514044
-0.19847512 -0.23499553 -0.09371759 0.10123743 0.31908605 0.12956946 0.06953657 0.030224374
-0.13296671 -0.10174452 0.30205238 -0.26925686 -0.058985066 0.06472709 0.061510958 -0.3939002
-0.1661452 -0.16487826 -0.00034031036 -0.24793234 -0.38431802 -0.031093387 0.0010484009 0.11187397
0.06961798 0.16404158 0.24839549 0.12804098 0.0754649 0.26013738 0.08689215 0.16504519
-0.2815832 0.08137888 0.0974394 0.08295245 0.07471799 -0.0729039 0.16337788 -0.06482584
-0.09380787 -0.38158822 0.29925093 0.1554058 0.015991295 0.18047689 -0.028069768 -0.14483824
-0.11357438 0.043400772 0.088884816 -0.051373214 -0.10387683 0.018244794 -0.004059943 0.09245089
0.012927855 0.05207698 -0.06781123 -0.29598653 0.030152163 0.1210978 0.26676384 0.13272828
0.1708636 0.024037447 -0.26533842 -0.108380705 -0.041378677 0.15170987 -0.15280776 0.097782254
0.1323143 0.26923552 0.2448713 0.14700572 0.09379635 0.010489584 -0.23043077 -0.11961688
-0.159435 -0.4764427 -0.17281729 -0.30319935 0.17485613 0.2606092 -0.033773266 -0.113953166

features.8.bias f4 [16]
00000000: bd72 49bd 0ebf afbd 4cc7 93bd b540 8ebd
00000010: f578 1cbb fc87 f63d da13 48bd 4407 973c
00000020: d30c 073e a375 0c3d c8f6 0e3d 5c5a 0fbe
00000030: ef37 263e 4d76 d53c dbb2 14bc bbed 03bd
-0.04918169 -0.08581363 -0.07215747 -0.06945936 -0.0023875807 0.12037656 -0.048847057 0.018436082
0.13188486 0.034291875 0.034903318 -0.13999313 0.16232274 0.026057387 -0.009075846 -0.03220914

features.9.weight f4 [16]
00000000: aa4a 6d3f 5f67 793f 73fa 583f 7447 9d3f
00000010: e975 8b3f 71a7 853f dbe6 6e3f 9cd5 8e3f
00000020: 7b03 6b3f e1be 5f3f 8f8a 5b3f 20fb a73f
00000030: 5921 9e3f f795 3c3f e84e 533f 2041 7a3f
0.92692053 0.97423357 0.84757155 1.2287431 1.0895358 1.0441724 0.9332101 1.1158938
0.91802186 0.87400633 0.857583 1.3123512 1.2353927 0.7366633 0.82542276 0.9775562

features.9.bias f4 [16]
00000000: f247 cb3e 5288 02be 55a1 913e f40b 06be
00000010: fd89 df3d e7f4 b53e becf a53e cb22 f2bd
00000020: af11 bb3e 4b1a af3e 1f8f 263e cfdf 6ebd
00000030: d1bc e7bd 249e e63e bb11 ae3d 8639 f93c
0.39703327 -0.12747315 0.284434 -0.13090497 0.10914991 0.35538408 0.32385057 -0.118230425
0.3653693 0.34199747 0.16265534 -0.05831891 -0.11315311 0.45042527 0.084994756 0.030422937

features.9.running_mean f4 [16]
00000000: 1ee3 cabf d643 1d3e 7f55 53bf 6d76 29c0
00000010: 0467 9abe da14 8dbf 2b1d 913e 3938 3cc0
00000020: 5291 0c40 18de 3dbf 4785 2cbf 5bc1 4ec0
00000030: b7ec fabf f767 f83e b7ec b63d 8798 9cbf
-1.5850561 0.15357909 -0.8255233 -2.6478531 -0.3015672 -1.1021988 0.28342566 -2.9409316
2.1963696 -0.74167013 -0.67390865 -3.2305515 -1.960349 0.4851682 0.089318685 -1.2234048

features.9.running_var f4 [16]
00000000: 5917 2440 e15b 7440 38c6 6740 15e7 9840
00000010: 2f42 ea3f 7c96 7540 26c7 2a40 cce4 8140
00000020: fa8e 7340 414d 2840 1f69 5340 c58c 8340
00000030: 0a7d 7d40 99c7 5740 e4f6 7f40 7ca5 8940
2.563925 3.8181078 3.6214733 4.7782083 1.8301448 3.8373098 2.668405 4.0591793
3.8056016 2.6297152 3.303291 4.110934 3.9607568 3.3715575 3.999444 4.3014507

features.11.weight f4 [16, 16, 3, 3]
00000000: 124b 37be dbb6 54be e31b 16be 6dfb 2f3e
00000010: 42bd 343d b628 2e3e 79b8 15be 2869 91be
00000020: e09a a0be 0cf3 593c 9692 463d aa03 d33d
00000030: 9e8b 3b3d d953 6dbd 14fb 33be b747 283d
00000040: 0437 7fbe 1fc3 21be b2b3 9fbc 17b6 89be
00000050: 6075 0abe 44b5 84be 8ad4 8a3e 7603 893d
00000060: d657 1dbd cc94 8e3d 1695 163e dec0 3fbd
00000070: fcd9 a8be 24f5 4fbe e5ef 453d 66ba d5bd
00000080: 0071 28bf 8794 ecbc b196 983e 3b88 c93e
00000090: af30 753e 4057 5c3b 656e 0c3e b0e9 57be
000000a0: 8d5c bf3d de3d 64be a623 01be 9f31 0b3c
000000b0: 1e75 d23d 4c71 b1be 0958 34be 582f 4d3e
000000c0: 49b4 173d bedd cd3d 4553 17be dd69 e1bd
000000d0: 700d 95bc 2ca1 74be 6f1c 75bd 5267 7e3e
000000e0: c4b1 973e d846 a13c f8ab 1ebe 1732 35be
000000f0: 71a9 363e f944 d63e 762f 313e 662b 403e
00000100: a31f e43e 8a99 61bd 95b1 ec3d ed2e eb3e
00000110: 7f9e 1cbe 9960 eb3e e10b c63d eea8 ee3e
00000120: 4a5f b33e 7708 7f3e 7eb2 d23d b2ee fe3d
00000130: 48a9 f8bd d2ca babd fc75 0ebe 7b48 eb3d
00000140: e2cd f53d 7bf6 b53d 9199 43be 3a52 5ebd
00000150: eff2 3dbe 3e8a bfbc 3f0b 003c 07bd b5bd
00000160: 2f65 febd ee09 9ebe 39b6 f0bd a3c1 c9be
00000170: e157 afbe 2012 fabd 0b63 753d 48d9 b33e
00000180: 2265 523e 6e22 bc3d 3fd0 703e 11de 83bc
00000190: 46ac 053e 91a2 8dbe a8f5 3bbe d794 3bbe
000001a0: 254e 48be 0312 5c3d 0401 933d 9a1b 3bbe
000001b0: 8399 5cbe 4674 d5be 1a48 65be 32cd 423e
000001c0: 9cd3 c33d 0ae8 083e c80a a33e 068c 103f
000001d0: b415 c23e d785 75bd d22b d1bd 5c9a 743d
000001e0: b18b 19bb 7f12 dfbc b245 613e 02cb 54bd
000001f0: 9432 a9bc c5cd 8c3e da1e 01be 416b 9b3c
00000200: d012 c3bd 3f65 8dbd d3eb 5d3e feb0 b13e
00000210: 2298 a2ba 0d9c 413e 6f26 953e 4a11 733e
00000220: c75a 8e3e 910e d53e 086d cabc 4ef1 933e
00000230: 601e cf3e 2c66 3bbb 903a 3ebe 5e1a 6d3e
00000240: c5f4 82be 1f51 49bd c9df 23bd 2831 11be
00000250: 3b4f f7bd b4f3 85bb 4df1 eebd 9373 1dbe
00000260: a5c1 c63d f291 9d3d 94ea 8cbe 8364 22bd
00000270: 2658 2c3e 036a b5be 1930 12bf 0309 473e
00000280: fc1d 74be 142e 30be 9d0b d5bd 9871 bebe
00000290: 84a5 03bf c063 aabe 9d1f ebbe 7bc6 c2be
000002a0: 4a5d afbc 82d2 5ebe 5707 34be 0f61 cb3c
000002b0: e7fe 5abe 920f 85bb daba e4bd 5adc 8fbd
000002c0: ba18 d1be 36f5 8bbd 5db7 993e 901a 773d
000002d0: 1bdf 423d f39b 3ebe a481 c3be ba56 c8bd
000002e0: 3f7f 5c3c 501e a3be c9e4 9ebd d6f6 43be
000002f0: e07f ccbc 4952 b13d 348b 1ebd 081c 4d3d
00000300: cef5 a3bc 75c8 633e 8c58 bfbd 29f9 193e
00000310: 0084 bf3d 871a 6a3e ac89 0f3d fe51 d2bc
00000320: 7b23 4cbc a5dc e33d 8c8d 14be 1909 f4bc
00000330: 2f9c 0bbe d28a f5bd 2497 a7be 84ca 94ba
00000340: 9ee3 2f3e 0ae9 06be 30b8 193e 5598 493e
00000350: 87d4 653e 032e e1bd 602b 89bd 6444 e13e
00000360: 5fb0 62bd ca09 c33b b42e 2b3f cb3a 8abb
00000370: bf9a 943d aaf9 8c3e 4ad8 8dbe 32b1 fabd
00000380: 2688 423e b1d7 0f3e 0a0c 2ebd fa78 9a3d
00000390: f58a 803e 2673 363e 3b9d ed3e e7c0 c1bd
000003a0: 9f83 3a3d 268c 293e 6ec0 d03d 7939 033e
000003b0: 7cbf a4bd c6e7 173e 7ef7 873d 89e1 ff3e
000003c0: b7a9 333e 800c 483e 0c6a 2dbb 2615 6bbe
000003d0: db5c 66be 2471 be3c 557d 733d 61ec a0be
000003e0: 76ac b1be 30c2 033e de70 423e 2bea 31be
000003f0: 839c 2dbe 94ad 6abe c9db 67be fc0a f7bc
-0.17899731 -0.20772879 -0.14659075 0.17185755 0.044125803 0.17007717 -0.14621152 -0.2840054
-0.3136816 0.013302576 0.04847964 0.10303433 0.045787446 -0.05794129 -0.17576247 0.041084018
-0.2492333 -0.15797089 -0.019494865 -0.26896736 -0.13521338 -0.25919545 0.2711528 0.06690113
-0.038413845 0.069619745 0.1470531 -0.04681479 -0.3297881 -0.20308357 0.048324484 -0.10435943
-0.65797424 -0.028879417 0.29802468 0.39361748 0.23944353 0.003362134 0.13713987 -0.21085238
0.093438245 -0.22289225 -0.12611255 0.008495717 0.102762446 -0.3465675 -0.17611708 0.20037591
0.037037168 0.100520596 -0.14777859 -0.1100652 -0.018194884 -0.23889607 -0.05984157 0.24844101
0.29627812 0.019687101 -0.15495288 -0.17694889 0.17838074 0.41849497 0.17303261 0.18766555
0.44555387 -0.055078067 0.115573086 0.4593424 -0.15294836 0.45972136 0.096702345 0.46613258
0.35033637 0.24905573 0.10287951 0.12447871 -0.12141663 -0.09120716 -0.13912195 0.11488434
0.1200216 0.08884903 -0.1910155 -0.054277636 -0.18549703 -0.023381349 0.007815181 -0.08873945
-0.12421643 -0.3086695 -0.11753506 -0.39405546 -0.34246734 -0.12210488 0.059908908 0.3512671
0.20546392 0.091862544 0.2351694 -0.0160971 0.13053998 -0.2766309 -0.18355429 -0.18318497
-0.1956106 0.053728115 0.07177928 -0.18272248 -0.21542935 -0.41690272 -0.22390786 0.19023588
0.09561846 0.13369766 0.31844163 0.5646366 0.37907183 -0.059942093 -0.10213436 0.05971752
-0.002342921 -0.0272305 0.21999243 -0.051951416 -0.020654 0.2750074 -0.12609425 0.018972041
-0.095250726 -0.06904077 0.21671991 0.34705347 -0.0012404958 0.18907185 0.29130885 0.23737064
0.27803633 0.41612676 -0.024710193 0.28895038 0.40452862 -0.0028594835 -0.18577027 0.2315459
-0.2557737 -0.04914963 -0.04000834 -0.14178908 -0.12075659 -0.0040878896 -0.11667118 -0.1537612
0.097049035 0.076938525 -0.2752272 -0.039646637 0.16830501 -0.35432443 -0.5710464 0.19437031
-0.23839563 -0.17205077 -0.10402606 -0.3719604 -0.5142443 -0.33279228 -0.45922557 -0.38042054
-0.021406788 -0.2175999 -0.17580925 0.024826555 -0.213863 -0.004060694 -0.111684516 -0.070244506
-0.40839177 -0.0683388 0.30022708 0.060328066 0.04757605 -0.18614177 -0.38184845 -0.09782167
0.013458072 -0.31859064 -0.07758481 -0.19137129 -0.02496332 0.08658273 -0.038706973 0.05007556
-0.02001467 0.22244437 -0.09343061 0.15036453 0.09351349 0.22861682 0.035043404 -0.025673863
-0.012459631 0.11126069 -0.14507121 -0.029789494 -0.13633798 -0.119893685 -0.327325 -0.0011351858
0.17176673 -0.13174835 0.15011668 0.19687016 0.22444354 -0.10995104 -0.06697726 0.4399749
-0.05534398 0.0059520947 0.6686814 -0.0042184344 0.07256078 0.2753423 -0.27704078 -0.122408286
0.18997249 0.14047123 -0.04249195 0.07542606 0.25106016 0.17817363 0.4640902 -0.09460621
0.04553568 0.16557369 0.10192953 0.12814893 -0.08044335 0.14834508 0.06639002 0.49976757
0.1754521 0.19536018 -0.0026460914 -0.22957286 -0.22496359 0.023247309 0.059445698 -0.31430343
-0.3470189 0.12867045 0.18988368 -0.17374484 -0.16954236 -0.22917777 -0.22642435 -0.030156605

features.11.bias f4 [16]
00000000: d1a0 e73d b688 663d 3c71 a3bb 783c e4bc
00000010: 051e 03be ff12 cebd 1ede b5bd 3dd4 e9bc
00000020: 0dca 993d 9e49 eb3b 2f78 513c ff0b 943d
00000030: 0bf9 a5bd 9579 163d b13a 46bc 9437 063c
0.1130997 0.05628272 -0.004987864 -0.027860865 -0.1280442 -0.10062217 -0.08880256 -0.028543586
0.07509241 0.0071804067 0.012785002 0.072288506 -0.08104142 0.036737043 -0.012098954 0.008191962

features.12.weight f4 [16]
00000000: 1f0e 6d3f ce8e 653f e9e1 863f 74bc 783f
00000010: c589 663f 64cf 8d3f c7a2 8c3f a033 8b3f
00000020: dd9f 4f3f 0f22 883f a2d6 833f aa88 8d3f
00000030: 5607 8b3f 9d30 8a3f 74f0 863f 15f5 853f
0.9259967 0.8967103 1.0537692 0.97162557 0.9005397 1.1078916 1.0987176 1.087513
0.81103307 1.0635394 1.0299876 1.1057332 1.0861614 1.0796086 1.054213 1.0465418

features.12.bias f4 [16]
00000000: 3fd3 043e 693a 953e da50 cd3d 5270 97bb
00000010: 3f5b 34bb 5e40 debd 7547 823d 99ff 5b3c
00000020: 2e19 193d 8027 443e 8d8b 41bd eb0b 2e3e
00000030: 3bea 8d3c aabe 0c3e 26fd 083d d9fc d73e
0.12971209 0.29146126 0.10025187 -0.004621544 -0.0027520207 -0.10852121 0.063612856 0.013427638
0.03737753 0.19155693 -0.047252227 0.16996734 0.017323604 0.13744608 0.033444546 0.42185095

features.12.running_mean f4 [16]
00000000: c42c 5c3f 745f 84bf 5859 5ac0 7c66 353f
00000010: 53b8 703f 4d6b d33f 76e2 813f 1e11 47c0
00000020: b4f9 0040 056f 8ec0 2eca ddbf 165b 07c0
00000030: 6d7b 2cbf 1c32 753f b0a2 3b3e 78a9 19c0
0.86005807 -1.034163 -3.411703 0.70859504 0.94031256 1.6517121 1.0147235 -3.1104198
2.0152407 -4.451052 -1.7327325 -2.1149344 -0.6737583 0.95779586 0.18323779 -2.4009686

features.12.running_var f4 [16]
00000000: 1745 2540 9c05 4e40 6020 9e40 a5fa 2f40
00000010: 57f9 2040 de4b 7740 ffa5 7140 5bd8 7e40
00000020: 0baa 2b40 db33 8940 cefd 5640 dd39 8b40
00000030: d7a9 9540 8150 5d40 0714 9540 2815 b040
2.582342 3.2190924 4.941452 2.7496731 2.5152185 3.8640056 3.7757566 3.9819553
2.6822536 4.28758 3.359241 4.3508134 4.6769824 3.4580386 4.6586947 5.5025826

features.15.weight f4 [32, 16, 3, 3]
00000000: c068 923c d0a0 aa3d 1350 efbd 92d0 0e3e
00000010: 02b7 c73e 8c6b f23b 4f17 113e fe91 d4bd
00000020: 067d b43e 72e6 63be 63e7 213e 0c79 c3be
00000030: 09dd 4a3d c49f da3e 63c3 72bb 37c7 ee3c
00000040: 25b3 0d3e d72a 473e fb7b f33b 4ea6 013e
00000050: 8089 90be e950 563e 7113 da3d 83f2 efbd
00000060: ff21 593d a32a 783e c66a 163e 0e52 63bd
00000070: 2875 e1bd df6a ccbe ed9e 4d3e 3982 4ebe
00000080: 1bb0 193e e371 3ebe cc83 b4be 8e2b c3be
00000090: 2226 e9bd c5ab d6bd 62bc 4dbe ecf2 703e
000000a0: 8e3b a13e f77e afbd ef2b 43be 16a2 073d
000000b0: 8780 8fbe 92ef 0a3d 8568 5cbe 44f9 45be
000000c0: 051c fd3e 7b55 50bd 9b1c 18be 0d49 fb3d
000000d0: ca88 89bd dd04 9a3b 68ae 30bd 556c 54be
000000e0: 9a8b a63e 36cf fd3d 6fd3 843e e683 c53d
000000f0: f4ed 403d 7527 873d 074c 99be 9112 d9bd
00000100: d47e 38be f8d5 07bd 4821 1bbd 96ef 9ebe
00000110: 5763 9abd 0027 9bbe 0373 523e 2df3 163e
00000120: 6484 68be c26c 47be 829c 40be 34ef 0cbe
00000130: 422e c73d 102a 203e 7f1d 93be e5db debd
00000140: 95c7 a1bd d53b 893d 83ed 963c 3a2c 0b3d
00000150: 4eac 7ebe 4e4b 07be 3501 1dbe da31 c33c
00000160: fab2 023e c3e5 7cbd bb49 32be d46f 88be
00000170: 4b85 8f3d 60bc 1ebe 6a3d 8a3d 52fa cf3e
00000180: 7023 b1bd ac8c 1ebe f565 90be 360a 0f3e
00000190: 6a1a 643d 9648 65bd a5bd 063e ca29 4abe
000001a0: 4d10 88bc 5cc6 13bd 4103 e93c 78cc d13e
000001b0: a43e 0d3d 3d45 f13e 84c2 9ebe 67fb 843e
000001c0: 3f19 cb3c 5521 28bd 7fb6 4d3d 1e57 603d
000001d0: 0bdd 9dbd 9c23 5bbe 4aa4 16be b772 47be
000001e0: 3e26 ae3d c2c2 073e d72c 923e 8558 dc3d
000001f0: 42a9 653e 02c5 b9bd 1329 863e e783 723d
00000200: d718 bb3d 7bb4 bbbc 9b2e 33be fb57 4dbe
00000210: d1d3 1e3e 4029 0bbf b7fc 8abe 22e3 56be
00000220: cfac 86be c720 96bd 0000 213e da41 063e
00000230: 2273 a93e d5b9 ecbd 9d34 7abe 3a04 b9be
00000240: 412a 94be 1ef2 47be fad8 3ebe c20a a53e
00000250: 3184 5b3e d66b 4f3e a58a 3cbe ef02 b6bd
00000260: f247 6dbe 9028 323d 3ac6 96bd a465 21bd
00000270: 3878 cc3e 06d2 50bd 9bd0 e83d 7c38 043e
00000280: 8de9 2e3e 686b cd3d 1378 a6bd d2c8 adbe
00000290: 89cf 20be 0bb2 b9bd 9d2a 9cbd 81c1 0abd
000002a0: 5636 eabd f180 803d 1572 33be 088d 723e
000002b0: 5135 8fbc 77eb 84bc 0c61 623e 3936 203e
000002c0: c5ed 173e 4b00 4d3e 5b15 913e d5de 033e
000002d0: b727 feba 46d5 86bd fb57 b6bd 5176 90be
000002e0: d46d 5bbe d778 08bd d7c9 33bd fdf0 a83d
000002f0: 4787 453e 5d51 933e 4d53 bdbd b69d 303e
00000300: 7eec 22be 45f0 f1bd ccf3 78bd d978 8b3e
00000310: 4b26 033d 5235 46be cd19 e4bd fd3e 663d
00000320: 5d18 dbbd 0092 85be f709 afbe 265f c5bd
00000330: e3ab bdbc 6f28 a2bd 8bf1 0e3e a956 cfbd
00000340: c524 1d3c 1cf8 833e a2c0 9cbe 0314 80bd
00000350: 44cc adbe ef4a d53e 9dd9 dcbc d281 4dbe
00000360: 23b7 b7bd d5c6 82bd b60e b93d 2b38 2abd
00000370: 3a6a 03bd cb48 50bd 2482 8ebe a13e d5be
00000380: 8263 28be 38fe 00be 64ab 1fbe de1d 783d
00000390: 0e32 bf3e 8f31 e3bc 11dc eb3d 3635 1bbd
000003a0: 885a b43c 393d ff3d 8cfe 803e 4656 fa3d
000003b0: 9643 063e 1773 be3d e964 de3b 998e b6be
000003c0: 6d0f 693e 5c1f 5bbd 1559 f2bd bbf2 2cbe
000003d0: 3445 aebd 9c38 503c 7315 7fbe 5045 603c
000003e0: 093a fc3c a074 9ebe ad66 7dbe 1484 2abe
000003f0: fc13 0bbe dfb9 bcbd 4ef0 95bd 6675 bb3e
0.017872214 0.08331454 -0.11685195 0.13946751 0.3900681 0.0073980745 0.14169048 -0.10379408
0.35251635 -0.22255877 0.15810923 -0.3817829 0.0495272 0.42700016 -0.003704273 0.029147727
0.1383787 0.19449936 0.007430551 0.12661096 -0.28229904 0.20929302 0.106482394 -0.11716177
0.053010937 0.24235015 0.14689168 -0.055498175 -0.11008674 -0.39925286 0.20080157 -0.20166864
0.15008585 -0.18598132 -0.35256803 -0.38119167 -0.113842264 -0.10481981 -0.20091394 0.23530167
0.3149075 -0.085691385 -0.19059728 0.03311356 -0.28027746 0.03391988 -0.21524246 -0.19333369
0.4943544 -0.05086277 -0.14854662 0.12269793 -0.067155436 0.004700287 -0.043135077 -0.2074445
0.32528383 0.12393038 0.2594256 0.09644298 0.04710193 0.06599323 -0.29940817 -0.105992444
-0.18017131 -0.03316304 -0.037873536 -0.31042165 -0.07538479 -0.30303192 0.20551686 0.14741202
-0.22706753 -0.19475082 -0.18809703 -0.13763124 0.0972562 0.15641046 -0.2873344 -0.10881785
-0.078993954 0.06700865 0.018423801 0.033977725 -0.24870417 -0.1321232 -0.15332492 0.023827482
0.12763587 -0.061742555 -0.17410938 -0.26647818 0.070078455 -0.15501547 0.06749995 0.40620667
-0.08649337 -0.1548335 -0.28202787 0.13968739 0.055689253 -0.055977426 0.13158281 -0.19742504
-0.016609335 -0.036077842 0.028443934 0.4097631 0.034483567 0.47123137 -0.3100778 0.25973055
0.024792312 -0.041047413 0.05022287 0.05477058 -0.07708176 -0.21400303 -0.14711109 -0.19477354
0.08503388 0.13257888 0.28549835 0.10759071 0.22427848 -0.090707794 0.26203212 0.059207823
0.09135597 -0.022913208 -0.17498247 -0.20053093 0.15510489 -0.5435982 -0.2714593 -0.20985082
-0.26303717 -0.073304705 0.15722656 0.13111058 0.33095652 -0.11558882 -0.24434133 -0.36136037
-0.28938487 -0.19525954 -0.18637457 0.3223477 0.21437146 0.2025598 -0.18412264 -0.08887278
-0.23171976 0.043495715 -0.073620275 -0.039403573 0.3993547 -0.050981544 0.11367913 0.12912172
0.1708128 0.10030252 -0.08128371 -0.33942276 -0.15704168 -0.09067162 -0.07625315 -0.033875946
-0.11436145 0.062745936 -0.17523988 0.23686612 -0.017481478 -0.01622556 0.22107333 0.15645684
0.14836796 0.20019643 0.28336605 0.12877972 -0.0019390498 -0.065836474 -0.089035 -0.28215268
-0.21428615 -0.033318367 -0.04389366 0.0824909 0.19289885 0.28773013 -0.09244404 0.17247662
-0.15910527 -0.11813406 -0.060779378 0.27240637 0.03201894 -0.19356278 -0.111377336 0.056212414
-0.10698006 -0.26087952 -0.3418729 -0.09637289 -0.023153251 -0.07917868 0.13959329 -0.10123951
0.009591286 0.2577523 -0.30615717 -0.06253817 -0.33944905 0.41658732 -0.026959235 -0.20069054
-0.089704774 -0.063855805 0.09036009 -0.041557472 -0.032083727 -0.05085067 -0.27833664 -0.41649345
-0.16444209 -0.12596977 -0.15592724 0.06057536 0.37342876 -0.027733592 0.11516584 -0.037892543
0.022015825 0.12462849 0.25194204 0.122234866 0.1311172 0.092992954 0.006786932 -0.35655668
0.2275979 -0.053496704 -0.11833397 -0.1688947 -0.08509293 0.012708809 -0.24910526 0.0136884
0.030789392 -0.30948353 -0.24746199 -0.16651946 -0.13581842 -0.092151396 -0.07321225 0.36613005

features.15.bias f4 [32]
00000000: aa13 e1bb effc 27bd 6148 c93c b83b 1bbd
00000010: 09a6 89bc c6c4 123d 1675 a83c dbc0 d3bc
00000020: 5f7d 52bc 185a e93c 2c9b 163d 691f 97bd
00000030: 28fa c6bc 14ac a8bb dac6 513d 1fbd 9abb
00000040: 8414 50bd fcff 823c 06ef a1ba 35cd 053d
00000050: 9740 ffbb 4628 6f3c 51c6 523d d32c a8bc
00000060: f3b8 d8bc edd6 98bc eecf 803d f95f 29bd
00000070: 30f7 393d 8520 f5bb 8066 b8bc a310 143d
-0.006868799 -0.0410127 0.024570646 -0.03789875 -0.016802805 0.03583219 0.020563643 -0.025848797
-0.012847274 0.028485343 0.036769077 -0.07379038 -0.024289206 -0.0051474664 0.05121503 -0.004722252
-0.050800815 0.015991203 -0.001235456 0.032666404 -0.007789682 0.014597004 0.05145866 -0.020529186
-0.026455378 -0.018657172 0.062896594 -0.041351292 0.045401752 -0.0074806833 -0.022509813 0.03614868

features.16.weight f4 [32]
00000000: 31b8 7e3f 857b 8c3f 9198 763f a9fb 913f
00000010: cdcf 773f 32b8 893f 2f52 863f d628 783f
00000020: b35f 8e3f 999c 813f dcb6 823f f5cd 5f3f
00000030: feb3 823f 40e7 713f 0342 963f bdf0 873f
00000040: 68da 6f3f 4019 783f dd72 6a3f 9c40 773f
00000050: 0a4a 973f f9a1 8b3f 13bd 753f 035a 833f
00000060: 076f 563f 6cb4 823f 5775 863f 4812 853f
00000070: 8ba2 863f fc66 8c3f 7815 833f fcd4 813f
0.99499804 1.0975195 0.9632655 1.1404926 0.96801454 1.0759337 1.049383 0.9693731
1.1122955 1.0125915 1.0212054 0.8742364 1.0211179 0.94493484 1.1738895 1.0620342
0.93692636 0.9691353 0.9158152 0.9658296 1.181947 1.0908805 0.9599163 1.0261844
0.83763164 1.021131 1.0504559 1.0396204 1.0518354 1.0968928 1.0240927 1.0143123

features.16.bias f4 [32]
00000000: 0d3b 723e 0eb4 4ebe d120 f73d a2b4 3c3e
00000010: b4c4 95be 50fb 0abd b017 2e3d 9534 d0bd
00000020: 6249 33bd 6506 15bd 1787 bbbd 4283 893c
00000030: 25ee b43c 5573 dbbd 2328 08be ef5d 9abd
00000040: 5e99 95bd 2347 98be 2e75 0f3e 7f00 e6bd
00000050: ea82 04be 440a 19b8 6d28 533e 68e3 c2be
00000060: 73c1 ad3a f100 eebd 37fd 0b3e 28c8 3d3d
00000070: b282 1cbe 6704 8dbd 8717 af3d 24ff 5abe
0.23655339 -0.20185873 0.12066806 0.18428281 -0.29251635 -0.033931077 0.04250306 -0.10166279
-0.043771155 -0.03638305 -0.09156626 0.016786221 0.022086212 -0.10715357 -0.13296561 -0.07537448
-0.07304643 -0.29741773 0.14009544 -0.11230563 -0.12940565 -3.6487603e-05 0.2062089 -0.38064122
0.0013256505 -0.11621273 0.13670813 0.046333462 -0.15284231 -0.06885605 0.08549409 -0.21386391

features.16.running_mean f4 [32]
00000000: 04c7 d4be 134d 04be 9287 8fbf 3af6 1440
00000010: 7188 2cbf 7e83 85c0 0292 3bc0 2f37 81bf
00000020: dfde ef3f 7c5d 5a3f 049c 823f 8ff8 ed3c
00000030: 7552 77bf 877b ddbe c99f c3c0 5077 1dbd
00000040: a462 d5bf 4c16 e7bf a7eb 013f 0332 9a3f
00000050: dd7d 09bc 0b06 07c0 030e dd3f 0369 e23f
00000060: de32 1cc0 4b86 e3bd 4fa9 73bf e160 843b
00000070: c35f f3be e9b8 c83e 418a 0940 bedf eebf
-0.41558087 -0.12920026 -1.1213248 2.3275285 -0.67395693 -4.1723013 -2.9307866 -1.0094966
1.873989 0.85298896 1.0203862 0.029049186 -0.96610194 -0.43258306 -6.113255 -0.038443863
-1.6670728 -1.805368 0.507502 1.2046512 -0.008391825 -2.1097438 1.7269901 1.7688297
-2.4406047 -0.11109599 -0.9518022 0.004039869 -0.47533998 0.39203575 2.1490633 -1.8662031

features.16.running_var f4 [32]
00000000: b492 9240 093c 7e40 c578 6740 77d2 8d40
00000010: 6163 9140 db15 9a40 4d23 8040 733b b740
00000020: 3ba5 8140 e3cb 7940 495e a340 97ad ad40
00000030: d4bd 9540 7c24 8740 ca78 bf40 fa2e 8e40
00000040: 1f5a 8040 b176 6340 0313 9240 c282 b940
00000050: 92b5 8640 77f6 7b40 e8f7 5a40 c14e bd40
00000060: ad64 5640 6b2d 7240 0db7 5840 e772 4f40
00000070: c1c0 7040 ad09 9940 436c ac40 4883 9440
4.580408 3.9724143 3.6167462 4.4319415 4.543381 4.815168 4.004309 5.726007
4.0514197 3.9030693 5.1052594 5.42744 4.6794224 4.2232037 5.9834948 4.4432344
4.011001 3.5541193 4.564821 5.7972116 4.2096643 3.936918 3.421381 5.9158635
3.3498948 3.784022 3.3861725 3.241388 3.7617648 4.782431 5.3882155 4.6410255

features.18.weight f4 [32, 32, 3, 3]
00000000: a0ff 72bd 8a5e 68be 96a8 cf3c 6ece e5ba
00000010: 6a8f 0d3e 00fe d83e 2320 bcbd 7b6d fa3d
00000020: e7e5 6dbe 6992 76bc 9daa 96bd f0aa 22be
00000030: 4d65 5a3c 7966 a7bd 53d2 afbe 10f0 83be
00000040: 558f efbd d3e1 3bbe f82d c9bd 9080 1bbd
00000050: 2856 d4bd 8492 a7bd 6e91 90be b7f1 7ebe
00000060: 45d6 4c3e 43f8 0abe 12b3 fd3d 36ab 48bb
00000070: 7c9c f4be 9cc5 e1bd 72f7 8cbe b0cc 40be
00000080: 2cd0 c13b 5b44 8cbd c3ab 0f3e b14f 1d3e
00000090: 38c1 22be 63d3 40be 3d35 93bd 1606 9fbd
000000a0: f758 bc3d fed1 96bd 36e4 11be 58a3 8f3c
000000b0: 04ef 7cbe 9f95 b8bd d017 053d f22d 6c3e
000000c0: 532b 593e 4fb4 ebbd 5428 f43e 2ba0 40be
000000d0: b542 a1be 922d 1cbd dbaa dabd 4d83 d9bd
000000e0: 7d8d 923e ca90 15be d639 223e 9bfe f3bd
000000f0: e9a4 453e c0b3 0fbe ada7 90be f51d 6ebd
00000100: a27a f73d 96c2 863c 53af 173e 516f 06be
00000110: 9ae8 73be 89c5 843e 61f2 18be e693 b0bd
00000120: c78b 82be 47d4 34be 171d 873d e0d1 85be
00000130: 26fa b7bd bb54 603d 79fe d8bc 96a5 2d3e
00000140: d611 543e 4322 6cbe 64c4 e9bd 9f21 93bc
00000150: d16d 50be ebc6 163e fdcb 0f3e 1583 d73e
00000160: 8634 943e 32fa 46bd b535 c6bd 4bc5 85be
00000170: 999c a8bc 0914 0fbe a94f a5be bffa d7be
00000180: 9176 2c3d 21ac 3b3e 062c 823e 4e26 c5bd
00000190: 92b7 b4bd 0b6f 3abe 5a5a d33e 27bb 07be
000001a0: 1089 9abd 40ce 003e b11b 553e 3fb6 203e
000001b0: 0966 d43e f0f6 433d 6297 d23d 3128 5fbc
000001c0: c10f 3d3d d975 49bd bf0d 493e a4b6 7d3d
000001d0: 4389 17be cf32 9e3d 822d 11bf e882 09be
000001e0: 9424 643e eac4 1f3d 53f4 e3bd d768 163e
000001f0: 9581 233d e49e 013e 4ac2 5cbe dd82 03be
00000200: be2f 473e cafb 603c 63a4 bc3e c50e 78be
00000210: dd17 9d3d 0604 aabe 7c25 85bd 4a73 1a3e
00000220: 8877 403b 187e 82be 60d1 0cbe 9afd df3d
00000230: a7e8 273b ca61 ab3d 4296 46bd e938 d73d
00000240: be1a 683b 5a9c 7cbe 6953 fdbd ee24 903d
00000250: b53b 22be a342 b63e d0b0 233e d718 3cbe
00000260: 4e72 01be 100b abbe 3358 df3d 03ff ff3c
00000270: 8bc6 42be 271b 003e dac4 63be 053d 173e
00000280: a55a 5e3e a476 6dbe 02a0 a13e e925 eb3b
00000290: 2eb1 133b 5b89 8e3d ff12 52be c256 9a3d
000002a0: 69c6 35bd f645 06be 78d8 25bd be79 acbd
000002b0: a2e7 55be 95ad 833e 33c7 45be 69a8 0cbe
000002c0: 4ccf 5abe 723a 24be ace1 92be 9996 64bd
000002d0: 6c8c 3b3d fabc 82be 3efb b9be 6898 85be
000002e0: 6aa7 abbe 9665 9dbd a1a5 82be 5779 09be
000002f0: 8acd 4c3e 884f bb3d e7a2 ca3d 1d17 d7bd
00000300: 12ef 4b3e 35e0 60be abab 033d b568 78be
00000310: c727 aebd 2e30 d33e d8f2 16be 4cda 8ebe
00000320: 8861 5e3e fdc7 a7bc 2629 483e 933b c53d
00000330: bfcf afbd 75a9 183c 7df9 1cbe 4eaf c63c
00000340: 3bcd 71be 7ad2 dfbc a1ca a73b f932 f1be
00000350: f305 44be 777d ab3d 18a1 07be 6162 02bd
00000360: 0b76 3ebe 03ef d5bc 5a99 e5bc 3eeb 153e
00000370: 1bd8 c1bd 01db 3cbd 0888 fe3d 9e74 cd3d
00000380: d9f5 9b3b 1e37 b33d 837d 883e 1515 48be
00000390: 3eeb 1c3e 6d4b 703c 9b73 35be 1f4b 2abe
000003a0: 6b1c 56be b36b ad3e 758b c8bc 7366 46be
000003b0: 4473 64bd 0abc 02be b80b bc3d 6e1a d93c
000003c0: 6a03 00be a376 a1be d288 9cbe 598a 8f3e
000003d0: f356 a13e ea81 7abe a7c1 ab3e 751d 063e
000003e0: af97 e9bd 074d ad3d bc1a 90be 9987 d13d
000003f0: e45e 34be 44f9 14be add9 cc3d c499 ddbd
-0.059325814 -0.22692314 0.025348943 -0.0017532834 0.1382424 0.42381287 -0.09185817 0.12227913
-0.23232232 -0.015049555 -0.07356761 -0.1588552 0.013329816 -0.08173842 -0.34340152 -0.2576909
-0.1169726 -0.18347864 -0.09823221 -0.037964404 -0.103679955 -0.081822425 -0.28235954 -0.24896894
0.20003612 -0.13571267 0.123876706 -0.0030619628 -0.47775638 -0.11024019 -0.27532536 -0.18828082
0.0059147086 -0.06848975 0.14030366 0.15362431 -0.1589402 -0.18830638 -0.07187889 -0.07764833
0.09196656 -0.073642716 -0.14247212 0.017533943 -0.24700552 -0.09012913 0.032493412 0.23064402
0.21207933 -0.115090005 0.47687018 -0.18811099 -0.31496206 -0.038129397 -0.10677119 -0.10620747
0.28623572 -0.14606014 0.15842375 -0.119137965 0.1930119 -0.14033413 -0.28252926 -0.058134038
0.12083937 0.016450208 0.14812975 -0.13128401 -0.23819199 0.25931957 -0.1493621 -0.086219594
-0.25497267 -0.17659102 0.06597345 -0.26136684 -0.08983259 0.054768305 -0.02648853 0.16957697
0.20709929 -0.23059945 -0.11414412 -0.017960368 -0.20354392 0.14724319 0.14042659 0.42092195
0.28946322 -0.04857845 -0.096782126 -0.26127085 -0.020582484 -0.13972487 -0.32287338 -0.42183492
0.04210526 0.1832738 0.25424212 -0.09626447 -0.08824076 -0.18206422 0.4127987 -0.13254987
-0.07545674 0.12578678 0.20811345 0.15694521 0.41484097 0.04784292 0.1028278 -0.013620422
0.046157602 -0.049184654 0.1963415 0.061941758 -0.14798455 0.07724535 -0.56710064 -0.13428843
0.22279578 0.03900615 -0.111305855 0.1468843 0.0399185 0.12658268 -0.2155849 -0.12842889
0.19451806 0.013731906 0.36844167 -0.24224384 0.07670567 -0.33206195 -0.0650129 0.15083042
0.0029368121 -0.25486827 -0.13751745 0.109370425 0.002562085 0.08368261 -0.04848314 0.105089016
0.003541633 -0.24669018 -0.12369425 0.07038294 -0.15843089 0.35597715 0.15985417 -0.1836885
-0.1264126 -0.33406878 0.109054945 0.031249529 -0.1902105 0.12510358 -0.22243062 0.14769371
0.21714266 -0.23189789 0.3156739 0.00717615 0.0022536027 0.06959792 -0.20515059 0.07536079
-0.04437867 -0.13112625 -0.040489644 -0.08421658 -0.20889142 0.2571837 -0.1931427 -0.13736118
-0.2136814 -0.1603792 -0.286878 -0.055807684 0.045788214 -0.25534803 -0.36324495 -0.2609284
-0.33526164 -0.076853916 -0.2551699 -0.13425194 0.20000282 0.09146029 0.098943524 -0.105024554
0.19915417 -0.21960528 0.032146137 -0.24258693 -0.08503681 0.41247696 -0.14741075 -0.27900922
0.21716893 -0.020481104 0.19546947 0.096305035 -0.08584546 0.009317745 -0.15329547 0.024253514
-0.23613445 -0.027322043 0.005120591 -0.47109202 -0.19142894 0.0837354 -0.13245046 -0.031832103
-0.18599717 -0.026114946 -0.028027225 0.14640519 -0.09465047 -0.046107296 0.1242829 0.100320086
0.004759532 0.08750747 0.26658258 -0.19539292 0.15324113 0.01466642 -0.17719881 -0.16630219
-0.20909278 0.3387123 -0.02448056 -0.19375019 -0.05577399 -0.12767044 0.09181923 0.02650186
-0.12501302 -0.31535825 -0.30573136 0.28035238 0.3151165 -0.24463621 0.33546183 0.13097174
-0.114058845 0.084619574 -0.28145397 0.10230941 -0.17614323 -0.14548212 0.10002456 -0.10820344

features.18.bias f4 [32]
00000000: ac7c 1abc bb3c acbc b891 ca3c 0821 983c
00000010: fa3f 9ebc 1597 fa3c c0c2 1c3c d649 4fbb
00000020: 686d 8f3d fd0d 0e3d 573e 7ebc 1e98 d93c
00000030: 1686 33bc 74fd 2dbc 8804 b33c a8c9 d03b
00000040: 0f48 ca3c d558 d4bc 3d81 d23b 0be1 73bc
00000050: 3aaf 353c 55a1 cdbc 8544 113c 50ca 03bd
00000060: 0b1f e2bb b261 41bd 6a06 683b ad30 27bc
00000070: 55c6 0abd b3ac 88bd 9323 c23a 13b7 b8bc
-0.009429138 -0.021025052 0.024727687 0.018570438 -0.019317616 0.03058962 0.009567916 -0.0031629703
0.070032895 0.03468131 -0.015517793 0.026561793 -0.010957262 -0.01061951 0.021852747 0.0063716955
0.024692563 -0.025921265 0.006424098 -0.014885197 0.011089141 -0.025101343 0.008866434 -0.032175362
-0.0069006733 -0.04721231 0.0035404214 -0.010204476 -0.03388055 -0.06673565 0.0014811627 -0.022548234

features.19.weight f4 [32]
00000000: 62ed 8a3f a8d4 8b3f e365 883f ae70 963f
00000010: fe82 783f c7c6 6f3f 444d 7c3f 51ba 7e3f
00000020: 1549 913f ddf1 8a3f 573a 843f a172 713f
00000030: bcf7 753f f693 893f 0527 6a3f 4af1 7e3f
00000040: 9250 863f 213b 573f 1a47 983f fc69 793f
00000050: 9f03 823f 9ad4 763f a647 863f cb38 823f
00000060: ce15 603f 6454 8a3f 1c6b 3c3f eebf 8f3f
00000070: 70f7 6f3f 16b4 853f 0f51 6f3f 7b70 743f
1.0853693 1.0924273 1.0656093 1.1753137 0.9707488 0.93662685 0.985554 0.99503046
1.1350428 1.0855061 1.0330304 0.94315535 0.9608114 1.0748279 0.9146579 0.9958693
1.0493338 0.840746 1.1896698 0.97427344 1.0157355 0.96418154 1.0490615 1.0173582
0.8753327 1.0807004 0.73600936 1.1230447 0.93736935 1.0445583 0.9348306 0.9548413

features.19.bias f4 [32]
00000000: a561 e1bd 0452 4dbe 507f 5cbe 6a02 c3bd
00000010: e32c 36be 6995 68bb e233 4abe f42a 9bbe
00000020: 4ee1 13be ca45 90bd ea9e 57be 908a b2be
00000030: c1f4 5ebd dd02 61be c6bd 59be d4a1 85bd
00000040: e5d0 9abe 587b cc3b 6a64 b9be 9900 1bbe
00000050: a8a0 25be 6897 eabd 32ac 29be 2c54 95be
00000060: 59b4 d1be 108d 11be e4c5 d0be 5645 25be
00000070: 88a2 a83d e3ca aabe 38a3 fabe 8277 87bd
-0.11004952 -0.20050818 -0.21532941 -0.09521945 -0.1779056 -0.0035489446 -0.19746354 -0.30306208
-0.14441416 -0.07044561 -0.21056715 -0.3487134 -0.054432634 -0.21973749 -0.21263799 -0.06525007
-0.302375 0.0062402897 -0.36209422 -0.15136947 -0.16174567 -0.1145466 -0.16569594 -0.2916578
-0.40957907 -0.14213967 -0.4077598 -0.16139731 0.082341254 -0.33357915 -0.4895265 -0.06614591

features.19.running_mean f4 [32]
00000000: 944e 3fc0 3083 0dc0 65dc 36c0 82d2 80bf
00000010: be49 b1bf 16bd f7bf dc24 e9bf 78bc 7cbf
00000020: 0c49 16be 4fee a0bf 3435 df3d 997c 83bf
00000030: f9ea 7abf ef3a 05c0 d3b6 2440 28aa 653f
00000040: b33d fd3e 422b 6a3f e0a6 17c0 4e3f c6be
00000050: c726 afbf 7edc f4bf a08c 69bc 04c2 0abf
00000060: 5932 b13c dac8 61bf 334c 013f f4c8 e7bf
00000070: 1ae6 a6bb 88b5 f7bf 34a6 28bf 7975 c93f
-2.989171 -2.211132 -2.8572018 -1.0064242 -1.3850629 -1.935458 -1.8214374 -0.9872508
-0.14676303 -1.2572726 0.108988196 -1.0272399 -0.9801479 -2.081722 2.5736587 0.8971276
0.49461135 0.91472256 -2.3695602 -0.38720173 -1.3683709 -1.9129789 -0.014254719 -0.54202294
0.021630453 -0.881971 0.50506896 -1.8108201 -0.005093348 -1.9352274 -0.65878606 1.5738975

features.19.running_var f4 [32]
00000000: 449e cf40 f7b5 ab40 38dd b440 dcf7 dd40
00000010: 35db 9d40 6f80 af40 3b83 be40 2442 dd40
00000020: 54b4 b040 6ab6 9240 825c 9b40 9e37 9d40
00000030: 1a87 c340 c05c a340 84de be40 c836 bd40
00000040: f5b0 d340 408a d340 640f db40 3f0f a140
00000050: 6014 ce40 40ce a440 0361 8740 157d a940
00000060: e917 8a40 9126 cf40 498e c740 5a23 9440
00000070: e951 af40 fc69 ae40 ce80 ba40 5d36 9f40
6.4880695 5.3659625 5.6520042 6.9365063 4.9330087 5.484428 5.9535193 6.914324
5.5220127 4.5847673 4.8550425 4.913039 6.110242 5.105072 5.9646626 5.912937
6.615351 6.610626 6.8456287 5.033111 6.439987 5.150177 4.2305923 5.296519
4.3154187 6.473458 6.236119 4.6293154 5.478749 5.4504375 5.828223 4.975386
